checkpoints/COMPLETE - DOUBLE VANILLA_DQN.pth (torch_old, 28502 bytes, 6 tensors)

fc1.weight f4 [64, 37]
000000 57 9c 21 3d 04 aa de 3d cb 5a 89 bd 49 56 05 be
       0.039455738 0.10872272 -0.067067705 -0.13021196
000010 3e a4 61 bd 8f 43 9c 3d 6c e2 6a 3d 64 88 e0 bc
       -0.055088274 0.07630073 0.05734484 -0.027408786
000020 98 34 61 3e 10 99 7c be 75 7d 77 3c de 0f f2 ba
       0.21992719 -0.24667764 0.015105595 -0.0018467864
000030 fa 88 74 bd 6b 64 dc bd a6 60 88 bd 85 79 41 3e
       -0.059700944 -0.10761341 -0.06659059 0.18894012
000040 24 b8 88 3d 4f 7f ef 3c c4 ca 86 bc 21 4d b9 bd
       0.06675747 0.02923551 -0.016454108 -0.09047914
000050 fa 4e f3 3d bb 01 60 3e 52 41 98 3d ba d3 2e 3d
       0.11880298 0.2187566 0.07434334 0.042682387
000060 11 b0 c1 3e 61 8b ca 3d d8 1a 48 3e 00 45 c9 ba
       0.3782964 0.09889866 0.1954149 -0.0015355647
000070 ab 83 d2 bd df c1 b1 ba 71 e4 1a bd 80 08 e4 3c
       -0.1027902 -0.0013561806 -0.037815515 0.027836084
000080 57 40 82 3d 38 34 f4 3c f2 6a 1f 3d 46 c0 88 bc
       0.06359928 0.029810056 0.03892035 -0.016693246
000090 3d c2 61 bb 0a f1 64 3e 2d 63 f8 3d e0 26 62 bb
       -0.003444805 0.22357574 0.12128291 -0.0034508035
0000a0 e8 35 07 bd 84 cf dd be d8 78 c1 bd e5 a4 13 be
       -0.033010393 -0.43322384 -0.09446877 -0.14418371
0000b0 5a 16 53 bc d6 73 9f 3d 62 32 cc 3e 38 38 85 3d
       -0.012883747 0.07785766 0.3988219 0.065048635
0000c0 a7 f4 6a bb 58 04 c3 3c 68 8c 9b 3d a6 3e 8c 3e
       -0.003585139 0.023805782 0.0759514 0.27391547
0000d0 75 c4 d9 3d d8 8b 98 3d 80 46 c1 3d ed cd 1d be
       0.10633174 0.07448548 0.09437275 -0.15410586
0000e0 8c 78 21 be 92 03 f1 bd c2 5a a9 bc a8 45 45 bd
       -0.15768641 -0.11768259 -0.02067316 -0.048162133
0000f0 45 a6 12 3d e5 66 3a 3e 63 7a 13 3e 11 f8 a9 bb
       0.0358031 0.18203314 0.14402156 -0.0051870425
000100 5e 8e 4d bd 40 45 9b bd 70 06 c1 be 96 b9 a6 38
       -0.0501846 -0.07581568 -0.37700224 7.950065e-05
000110 62 66 95 3d ea 1a 21 3e 28 f0 08 3e 69 45 75 bc
       0.072949186 0.15732923 0.13372862 -0.014970162
000120 8c 0b 76 3b b3 2c e3 bc 66 fb b5 3d bf ec 69 3e
       0.0037543504 -0.027731275 0.08885841 0.22844218
000130 5f 27 d8 3c 33 7d 7a bd 1b ea 49 3d 06 a1 2b bf
       0.026385961 -0.061154556 0.049295526 -0.6704258
000140 41 61 41 3d 8f 75 95 3e a5 43 a3 3d ee 26 03 bf
       0.04721189 0.29191253 0.079718865 -0.51231277
000150 f1 7f 3c 3d d1 ad 35 3e 56 ff 14 be b8 a4 bb 3c
       0.046020452 0.17742087 -0.14550528 0.022905692
000160 77 21 fb 3c 58 20 14 bc 43 d8 c9 3d 5a be 7b 3d
       0.030655606 -0.0090409145 0.09855702 0.06146083
000170 b9 6c 32 3e 50 5d d3 3c 6e 88 7b bd 2b 04 bf 3c
       0.17424287 0.02580133 -0.061409406 0.023317417
000180 55 8f 84 3d c6 36 24 be a2 99 30 bd 16 df 60 be
       0.06472651 -0.1603652 -0.043115266 -0.219601
000190 ab 0e 81 3e 3e d6 64 3e e8 d2 1e 3d ed 05 9e be
       0.25206503 0.22347352 0.038775355 -0.30863896
0001a0 d6 4c f2 be a2 94 59 3d b8 2f 9b 3c 92 34 e8 bd
       -0.47324246 0.053120263 0.018943653 -0.11338152
0001b0 c2 17 21 be 3e 4f 53 3c 83 28 b1 3b 1b e0 71 3e
       -0.15731719 0.012897311 0.0054064407 0.23620646
0001c0 e0 66 23 bf 23 6b ac bd c3 fa da bd 88 58 1a bf
       -0.6382885 -0.08418872 -0.1069236 -0.6029134
0001d0 5d 4d 38 be 67 73 f8 be f0 a7 09 3e 04 a4 eb be
       -0.17998262 -0.48525545 0.1344297 -0.46023571
0001e0 10 a3 a5 3e d7 22 02 be 1f 7b 24 be 51 b2 e6 3d
       0.3235097 -0.12708603 -0.16062592 0.1126448
0001f0 48 d3 b5 be 3f 5f bd bc 6f 63 eb bd a7 db 76 3d
       -0.35512757 -0.023116706 -0.11493575 0.06026807
000200 27 bd d3 be d7 76 20 be 26 88 87 be 36 62 7f bd
       -0.4135525 -0.15670334 -0.2647106 -0.06234952
000210 f4 72 6f bd 58 28 a4 bd 8a 7c 12 3d 7e 9a 44 bc
       -0.058459237 -0.080155075 0.0357633 -0.011999724
000220 15 f7 bf be b8 03 5a bd be 79 9b 3e b9 9d c5 bd
       -0.37493196 -0.053226203 0.3036632 -0.09649224
000230 7b 16 a0 bd a5 2d 2f 3d 9c 60 23 bd ce 25 90 be
       -0.07816788 0.04276814 -0.039887056 -0.28153843
000240 8c db 66 be 88 d6 12 bf fa bc 5a 3e e8 5f ba bc
       -0.22544688 -0.573586 0.21361151 -0.02275081
000250 df ed 8a bd 89 db fa bd 99 e2 ca bd 6b 00 e2 bc
       -0.067836516 -0.12248904 -0.09906501 -0.02758809
000260 84 d2 ac bc 01 cb d5 3e a0 6e 0c bf 3d b4 b6 be
       -0.021096475 0.41756442 -0.548563 -0.35684386
000270 f2 32 e9 be 5a f9 c2 bf ad f3 44 3b a7 62 55 bd
       -0.4554668 -1.5232346 0.0030052469 -0.052096035
000280 5f ad ca 3a 5e 12 d7 bd ed 40 75 bd 65 72 56 bd
       0.0015463046 -0.1050155 -0.05987637 -0.05235519
000290 83 19 4d 3d 2f e6 e8 bc ce e6 3f 3b 3d b8 1a 3e
       0.050073158 -0.028430073 0.0029281857 0.15109344
0002a0 a9 58 d9 bb 01 ed 88 bc c3 3c 13 3d 70 f7 fa 3d
       -0.0066328836 -0.016714575 0.03594662 0.12254226
0002b0 d4 d3 b0 3d 39 b0 b9 bb 0a bf 47 3d 06 b8 fe 3d
       0.08634153 -0.0056667593 0.048766173 0.124374434
0002c0 50 a8 a6 3d 0f 21 23 bd 3e b5 d8 3d ff 82 cd 3d
       0.08137572 -0.03982645 0.10581444 0.10034751
0002d0 ec b9 82 3d 89 07 9e 3e f7 ff 5b 3e 43 c4 70 bc
       0.06383118 0.30865124 0.21484362 -0.01469523
0002e0 08 3e 4b 3b fe 21 18 3d 4f 8e 79 3d 7b 1e 12 3d
       0.0031012315 0.037141792 0.06092673 0.0356736
0002f0 6c 6e 27 3d 65 8c 81 3d 04 1d de 3e 80 53 37 be
       0.04087679 0.06325606 0.43381512 -0.17902946
000300 72 85 81 be ff d1 b3 be 3f df 02 c0 e5 c5 ee 3b
       -0.25297123 -0.35121152 -2.0448759 0.0072867745
000310 9b 46 fb bb 61 40 be 3c 1b 8f 77 bc bf d3 29 3d
       -0.007668329 0.023224058 -0.015109803 0.041461702
000320 77 ef 4f 3d 3e 9f 9c 3d 15 49 ff 3c 66 78 cf 3d
       0.05076548 0.076475605 0.031162778 0.10130386
000330 c4 e4 fc bc b4 be 0e 3e 3a 20 0d 3e dd 6e cc 3d
       -0.030870803 0.13939935 0.13781825 0.09982083
000340 55 60 b4 3d e2 52 90 3d d1 3c 3d 3d 19 2e 7c 3d
       0.088074364 0.07047059 0.046200577 0.0615674
000350 e4 09 40 3c 32 e4 bb 3d ea cf 49 3c c3 c2 e1 3d
       0.011721108 0.09174384 0.012317637 0.11023476
000360 9d 4f 22 3d d0 97 a2 3c 22 39 a9 bb ec c7 fc bd
       0.039626706 0.01984778 -0.0051642815 -0.123428196
000370 d1 24 eb 3a 05 e0 1d 3c f9 c3 4c bd cb 80 a4 3c
       0.0017940049 0.00963593 -0.04999158 0.020080945
000380 0f e6 ee bd ba 16 00 3e 3b 3c 7a be 84 2d 24 be
       -0.11664974 0.1250867 -0.24437039 -0.16032988
000390 2b 97 00 3e 2a 62 b0 be b7 6a dd 3d aa 76 44 3d
       0.12557666 -0.34449893 0.1081137 0.04796473
0003a0 1c 1b f0 be c9 b6 e3 3d f9 f8 85 3e 3c ae 84 be
       -0.46895683 0.11118848 0.26166514 -0.2591418
0003b0 53 67 f7 be e9 eb 0e bf 9e c5 21 3e 39 5d d9 3c
       -0.48321018 -0.5582872 0.15798041 0.02653371
0003c0 bc 5d 1f be 56 47 b8 be ae 52 0d be 31 92 d4 3d
       -0.155631 -0.35991925 -0.13801071 0.10379446
0003d0 3c 08 74 bd 07 a3 dd be a8 20 d5 3d 98 19 5c bc
       -0.059578165 -0.43288442 0.10406619 -0.013433836
0003e0 39 1c ae bc e8 05 d3 be bb 3c 9d bd 73 61 73 be
       -0.021253692 -0.41215444 -0.07677599 -0.23767643
0003f0 58 de 86 be 54 d0 64 3d 05 f9 3b bd 69 59 4e be
       -0.2634151 0.05586274 -0.04589178 -0.20151295

fc1.bias f4 [64]
000000 72 a2 58 3e 40 3f d8 bc e7 3a 95 bd 54 8b 8b bd
       0.21155718 -0.026397347 -0.07286625 -0.06813684
000010 66 6b 35 3e 25 67 78 3d 2c f6 55 bd 4e 2a db 3c
       0.1771675 0.06064524 -0.05223672 0.02675357
000020 cf 37 f1 3c 37 78 0b be c4 24 13 3e c8 b0 08 3e
       0.029445557 -0.13620077 0.14369494 0.13348687
000030 df 5c f6 3d ac cd 08 3e a0 c3 87 bd 16 13 2d bd
       0.120294325 0.13359708 -0.066291094 -0.04225453
000040 a4 c2 ce bc 54 a4 4c bd 03 4d 1a 3c ab 1a 1c be
       -0.025239296 -0.049961403 0.009417775 -0.15244548
000050 48 a5 39 be 5d b6 65 3d 80 0d 84 bc 1b ec 50 bd
       -0.18129456 0.05608212 -0.016119719 -0.051006418
000060 6b d2 70 be 4f 3c ed 3d 3e 03 0d bd dc 7f 85 bd
       -0.23517768 0.115837686 -0.03442692 -0.06518528
000070 85 11 1f 3e 3c cd ec 3d 79 16 1c 3c 29 20 3d be
       0.15534027 0.11562583 0.009526842 -0.184693
000080 db c8 fb 3d 08 05 94 ba f2 70 42 be 44 25 43 3c
       0.122941695 -0.0011293003 -0.18988398 0.01191074
000090 e2 d0 2b bd 17 a9 ee bb aa 25 a7 bd 71 1b a1 bd
       -0.041947253 -0.0072833407 -0.08161481 -0.07866562
0000a0 b9 2b 06 be b7 92 c2 bd a7 e8 3e be 08 4d 0f 3e
       -0.13102616 -0.0950064 -0.18643437 0.13994229
0000b0 26 fb bf 39 10 b1 da bd 20 dd c2 bc 96 ec 1b be
       0.0003661748 -0.10678303 -0.023787081 -0.15226969
0000c0 d6 4f cf bd f7 f9 c0 3d 97 31 11 be 0e 68 c5 3d
       -0.10122649 0.09422677 -0.14179073 0.096389875
0000d0 e5 9f 89 bd 5b 25 02 be 66 6b 02 be 31 14 78 bc
       -0.067199506 -0.12709562 -0.12736282 -0.015141533
0000e0 ca 41 95 3d 19 c2 ed bd 02 2d 9a bd 8a 22 2c be
       0.07287939 -0.11609287 -0.07528116 -0.1681005
0000f0 9f 6d 93 bc 1e 00 8b ba 05 a0 c6 3c 6e f8 59 3d
       -0.017996607 -0.0010604893 0.024246225 0.053215437

fc2.weight f4 [64, 64]
000000 54 92 01 bd c0 dc 17 bd 4e c9 14 3e 7b 2b 8e bd
       -0.03163369 -0.037075758 0.14529917 -0.06941887
000010 f1 24 2a be d8 e8 a5 be e6 1b 47 3c 0b 10 e1 bc
       -0.16615655 -0.32404208 0.012152648 -0.02747347
000020 c3 5c 4c be 1a 93 05 3d 38 f8 c8 bd 31 d2 db 3c
       -0.19957261 0.03261099 -0.09812969 0.026833626
000030 fa b6 11 3d ae ba 9a 3d f7 fb 37 be e1 c1 29 bd
       0.03557489 0.075551376 -0.1796721 -0.041444663
000040 f7 b6 21 be 58 7b c3 bd 5d 82 22 3e 1f b8 ca 3d
       -0.15792452 -0.0954501 0.15870042 0.098983996
000050 b0 f2 26 3d ff 2f 73 bb ad 4e 57 bc 8e ec b0 3e
       0.04075879 -0.0037107465 -0.013141316 0.34555477
000060 9c ac d1 bc e1 73 9b bd 2e fa 88 3e da 88 03 3e
       -0.025595002 -0.075904615 0.26753372 0.12845173
000070 a9 25 ce 3d ff 97 02 bc 04 c3 62 3e 83 ca 9e bb
       0.10065777 -0.007970809 0.22144705 -0.0048459186
000080 ec c4 1b 3e 85 06 a3 3e 58 45 f5 3d c9 b2 22 3d
       0.15211838 0.31840912 0.11976117 0.039721284
000090 bc b0 b6 3c 93 29 0e 3e d8 94 c8 3d 5b 6b 68 bd
       0.02230107 0.13883047 0.09794015 -0.056743007
0000a0 00 d4 3a be d6 f2 a9 3e c3 95 5c 3d a5 0a 20 3e
       -0.18244934 0.33193082 0.05385376 0.1562906
0000b0 64 85 06 3e 62 1e 26 bc 37 01 90 bc 25 80 74 bd
       0.13136822 -0.01013908 -0.017578704 -0.05969252
0000c0 a7 4f ae bd a2 86 40 3d 8b 79 7d 3c 37 39 70 be
       -0.08511286 0.047003396 0.015470873 -0.23459326
0000d0 fc b6 8a bb db 2d 64 bd 2f 97 18 3d 06 81 7a 3d
       -0.004233239 -0.055707794 0.037253555 0.061158203
0000e0 68 86 bf 3c 37 9a 07 be d4 6d 88 be d2 7e 14 3e
       0.02337952 -0.13242422 -0.26646292 0.14501503
0000f0 2f 74 9b 3e 2b c7 16 3d 4d 90 74 bd 33 8d ea bc
       0.3036208 0.036811035 -0.05970793 -0.028631782
000100 f2 34 29 3d 1b bd 52 bd bb 27 7f be 16 4d 69 be
       0.04131026 -0.051449876 -0.249175 -0.22783312
000110 c5 35 ab 3e 94 7a 90 3e ca c4 66 bc e2 e9 cb 3d
       0.3343946 0.2821852 -0.014085004 0.09956719
000120 30 6b fc bd 66 fc 63 be e0 33 78 bd d2 17 5c 3e
       -0.12325132 -0.22264251 -0.060596347 0.21493462
000130 b7 f0 41 bd 60 0f c1 3d 9d 79 64 3d 3f 26 53 3d
       -0.047348704 0.09426761 0.055780042 0.051550146
000140 97 aa b6 3d f5 c6 ef 3d 24 d2 87 be bc bb 92 bd
       0.08919256 0.1170787 -0.26527512 -0.07164714
000150 0b 5e 8e 3c 2d 2b fa 3d 3a c9 bb bc 7e 45 0c be
       0.017378828 0.122152664 -0.0229231 -0.13698384
000160 34 6b 11 3d fa dd f4 bb 37 6b ca bd 34 85 a8 be
       0.035502627 -0.0074727507 -0.09883731 -0.32914126
000170 72 55 0a 3e 14 7e 79 bb d0 f7 80 be e0 23 0c be
       0.13509157 -0.0038069533 -0.25189066 -0.1368556
000180 cf 8e 63 be cf 9c 1b be 85 54 fc bb 77 d5 e3 bd
       -0.22222446 -0.15196536 -0.007700505 -0.111246996
000190 d7 8f 99 bd de d3 45 be 57 b6 27 3d 3c 20 38 be
       -0.074981384 -0.19319102 0.040945377 -0.17981046
0001a0 62 d4 75 bd a5 89 a4 3c c8 67 65 bd 95 0e 88 be
       -0.060016997 0.020085165 -0.056007177 -0.26573625
0001b0 11 23 17 be 49 bb 78 bc a9 e7 fa bd 1c 4a a3 39
       -0.1475947 -0.015181371 -0.12251217 0.00031144999
0001c0 ac 1b 47 3d 68 d7 45 be e5 17 fe bc f2 48 90 3e
       0.048610374 -0.19320452 -0.031017253 0.28180653
0001d0 dc f9 dd bc 7f c6 67 39 b3 4f a9 3d 44 56 5e bd
       -0.027096681 0.00022103822 0.082671545 -0.054281488
0001e0 c1 bf 32 3a a4 cf 02 be c9 bc 53 bc 0b 70 c8 bb
       0.00068187347 -0.12774521 -0.012923428 -0.006116872
0001f0 52 55 98 be d8 c8 e7 bd ea a5 dd bb 39 80 23 be
       -0.29752594 -0.11317605 -0.0067641633 -0.15966882
000200 27 dc 53 bd 67 48 86 bd 97 a1 c8 3d e4 d8 85 3d
       -0.051723626 -0.065567784 0.09796446 0.06535509
000210 df ee 2d 3e 1e 16 7b 3d ee d4 96 bd cb 43 d9 3c
       0.16985653 0.06130039 -0.07364832 0.026521584
000220 4b d5 bc 3e 99 52 ad 3d 77 7f 87 3d 1d 94 a4 3c
       0.3688148 0.0846302 0.06616109 0.020090157
000230 46 d3 da 3d 18 e1 43 3e 7e 8f 38 3e 96 78 af 3d
       0.106848285 0.19128835 0.18023488 0.08567922
000240 7b fd c7 bd 7e 7d d2 3d 0a 9a d6 3d c2 2a e9 bd
       -0.097651444 0.10277842 0.10478599 -0.113851085
000250 7d ea 5a bd 7c fe b0 3c 3b b3 26 bd 51 a0 c5 3d
       -0.05344628 0.021605723 -0.04069827 0.096497186
000260 c4 9a 25 bd 01 9d 19 3e 25 73 05 3e 2a 4b 93 3c
       -0.0404308 0.15001298 0.13032205 0.017980177
000270 9c 7a 0d bd c9 48 7b 3d a9 5b 9c 3d 7b 13 24 bc
       -0.034540758 0.06134871 0.0763467 -0.01001441
000280 70 be 1b be 28 1f 27 3d e0 ad 5d be e7 6a 88 3d
       -0.15209365 0.040801197 -0.2164836 0.06661015
000290 fe ab 1b 3e e7 35 b6 bd d1 1f 10 3d 08 3a a6 3d
       0.15202329 -0.08897 0.035186592 0.08116537
0002a0 3f c5 6a 3e 80 cc be be 80 a0 5e be 39 dc cf bd
       0.22926806 -0.37265396 -0.21740913 -0.10149426
0002b0 af 18 cd 39 c2 b3 93 3b 96 00 21 3e 11 c8 5a be
       0.00039119038 0.004507513 0.1572288 -0.21365382
0002c0 ea 6c 99 3d 02 b5 05 be b0 48 47 3d ed 89 a8 3d
       0.07491477 -0.1305733 0.048653305 0.08229432
0002d0 13 79 01 be bd 2c a1 bd 20 99 18 be 0c 0b 79 3d
       -0.12643842 -0.07869861 -0.14902163 0.06080155
0002e0 17 6f 0a bc f5 22 e9 3c f9 28 52 3e 8a 62 eb 3d
       -0.008449337 0.028459052 0.20523442 0.11493404
0002f0 1a 00 0b 3d 81 7f ee 3c e3 69 00 3d 89 c0 23 3e
       0.033935644 0.029113533 0.03135098 0.15991415
000300 30 7d 32 be 87 e7 35 be b5 a6 8c 3b 3c c7 77 bd
       -0.17430568 -0.17764102 0.004292334 -0.06049274
000310 9a b9 55 be 34 0a bc bc d8 17 ee bd 27 9d 12 be
       -0.20871583 -0.022954084 -0.116256416 -0.14317761
000320 03 c7 af bd 73 2f 25 be d3 13 6b bd 1d 44 2c 3e
       -0.0858288 -0.16131382 -0.057391953 0.16822858
000330 d0 15 e1 bc 63 c8 ea 3d 7c 6d 88 3d 20 4b 36 bf
       -0.027476221 0.11464002 0.066615075 -0.7120838
000340 cc cf 9e be 79 ac 88 be 45 f2 f9 be 44 32 e2 bd
       -0.3101791 -0.26694086 -0.4881765 -0.11044744
000350 89 c2 61 3e c3 a6 c1 bd 07 35 ca 3d f9 b1 09 be
       0.22046866 -0.094556354 0.098733954 -0.13446797
000360 c4 09 c5 bd 95 df da bd 8d b8 ec 3c e3 44 6f 3e
       -0.09621003 -0.10687176 0.028896594 0.23366122
000370 86 77 61 3e 17 d1 66 be 6e a0 6c bd 89 76 95 be
       0.22018251 -0.22540699 -0.057770185 -0.29191998
000380 af ee 2f 3e 72 cf c5 be 05 fd 29 be 72 46 35 be
       0.17180894 -0.3863483 -0.16600426 -0.17702654
000390 f7 5f 83 be 90 74 55 3e 39 fa 97 be 2f ae 78 be
       -0.25659153 0.20845246 -0.29683092 -0.24285196
0003a0 2e 17 df bd c4 59 7f 3e fb 06 3f bd 1a a4 19 3e
       -0.10893093 0.24936587 -0.046637516 0.15004006
0003b0 a2 10 b6 bd be 41 88 3c 14 15 37 be bc 45 aa 3c
       -0.08889891 0.01663291 -0.17879134 0.020785205
0003c0 85 19 21 be ae 55 38 be 02 23 ae be e2 54 15 3c
       -0.15732391 -0.18001434 -0.34011084 0.009114476
0003d0 d8 1d c3 bc 65 29 27 3c 75 6d 71 bd 37 43 61 bd
       -0.023817942 0.01020274 -0.058942277 -0.05499574
0003e0 f5 ce ac 3d 0c f9 2f be 73 6c 49 bd de f7 19 3e
       0.084379114 -0.17184848 -0.04917569 0.1503596
0003f0 f8 4a 0d be 74 21 bf 3a 6c ab a7 3c 99 68 4a bd
       -0.1379813 0.0014582113 0.020467483 -0.04941616

fc2.bias f4 [64]
000000 22 4f ef 3a 0e 41 58 3d 30 0d b5 3e 48 4f 6a b8
       0.0018257836 0.052796416 0.35361624 -5.5863784e-05
000010 16 0f 38 3e 35 8c 24 bd fb ee 98 bd 7d 05 f0 3c
       0.17974505 -0.040172774 -0.07467457 0.029299492
000020 ba 9d 72 3e 3f 2b d5 3e 96 0b 86 bd 91 8f ac 3e
       0.2369298 0.41634557 -0.065451786 0.33703282
000030 3e 4e 76 3e 11 ce c3 bc 52 c8 d6 bd 1d 2c 35 3d
       0.24053285 -0.023901971 -0.10487427 0.044231523
000040 0c 9f 59 3d 72 a7 f1 bd 92 d8 51 bd fb 1c b8 3e
       0.053130195 -0.11799516 -0.05123193 0.3595961
000050 3a cd 0e 3e db 31 cf 3e 9a 46 26 be 47 71 b4 bd
       0.13945475 0.40467724 -0.1623787 -0.088106684
000060 85 1a 7d 3d e1 61 75 bd 21 7c 32 3d b6 af 27 be
       0.06179287 -0.059907798 0.04357541 -0.16375622
000070 75 75 c0 bd a4 e7 bb 3d 4f 7b bf 3d fd d1 fe bd
       -0.09397403 0.09175041 0.09349691 -0.12442396
000080 c9 84 57 bd 2a 34 2c 3e 0c 26 91 3d 7e 2d dd bd
       -0.05261687 0.16816774 0.07087335 -0.107996926
000090 bf 56 02 bd 52 27 67 be f5 3f f0 3d 5a 71 f3 bc
       -0.03182101 -0.22573593 0.11730949 -0.029717136
0000a0 07 ea 22 be f1 41 e6 3e 2b 43 0c 3e df 4a 80 3d
       -0.15909587 0.44972184 0.13697498 0.062642805
0000b0 6f b5 e8 3d 01 de b2 bd 0e 1b 96 3e 8a fd df bd
       0.11362731 -0.0873375 0.29317516 -0.109370306
0000c0 6a d0 26 bc c4 0a 2b be 54 d5 c2 bd 5d 33 cb 3e
       -0.010181526 -0.16703326 -0.09513345 0.39687625
0000d0 60 5d 2c bd a9 a1 f6 bd 73 f5 0c 3e 61 9e fe bd
       -0.042081237 -0.12042553 0.13765506 -0.12432552
0000e0 6a 98 ed bd 86 3a 05 be 73 bb 81 bc 62 f8 21 be
       -0.11601336 -0.13010606 -0.015836453 -0.15817407
0000f0 c4 0c c5 3c 8d 1a 30 3e 7c 7c df 3d b3 5c c9 3c
       0.024053939 0.17197628 0.109124154 0.024580335

fc3.weight f4 [4, 64]
000000 66 d0 1c bc 60 e7 a7 3e 06 6b 2c 3e 0e 77 6f be
       -0.00957117 0.32793713 0.16837701 -0.2338526
000010 5f 52 0d 3e e9 28 ce 3e d0 41 3d 3d 8a 50 71 be
       0.13800953 0.40265587 0.04620534 -0.2356588
000020 1c af f3 3d 06 91 0a 3e d9 1f b7 3d ab 13 20 3e
       0.11898634 0.13531885 0.08941621 0.15632503
000030 57 7a 0a 3e bf 37 ea 3e 30 50 1c bd b4 8a 68 bd
       0.13523231 0.45745656 -0.03816241 -0.056772903
000040 0d 23 2f be 6d 21 43 bd 80 2d d2 bd 10 84 43 3e
       -0.17103215 -0.0476393 -0.10262585 0.19093347
000050 ef d2 3e 3e 82 43 39 3e d3 5b 23 be 0f a2 57 be
       0.18635152 0.18092158 -0.15952997 -0.21057914
000060 ac 1f 13 bd 6b 85 33 bd 65 20 c1 3d fa a4 99 be
       -0.035918877 -0.04382841 0.09430007 -0.3000868
000070 be 41 ac 3e ec 0a c7 3d fb d7 b2 be f3 9e 64 3e
       0.33643907 0.0971888 -0.34930405 0.2232626
000080 2d 53 93 bb e1 d2 9d 3e 31 8b 1f 3d 8b ab 00 3d
       -0.0044959993 0.3082495 0.038951103 0.031413596
000090 ff b2 3a bc 61 b5 10 be a1 69 f9 3c 4b a3 d8 3e
       -0.011395215 -0.1413169 0.030445876 0.42312083
0000a0 db 69 85 bd 3f 76 16 3e b0 17 35 3e 9c ae 78 3e
       -0.06514331 0.14693545 0.17684817 0.24285358
0000b0 1e 94 51 3e 2a be 14 be e6 3e 3f 3e e8 3b d5 3d
       0.20466658 -0.14525667 0.18676338 0.10411817
0000c0 04 f2 6a be 20 96 94 be 15 7a 04 be 4c 1e 54 3e
       -0.22943884 -0.29020786 -0.12937196 0.20714682
0000d0 eb 74 95 3e ef fd 8b be 50 64 e8 3d d8 39 92 3d
       0.29190764 -0.27342173 0.11347258 0.07139939
0000e0 02 89 a8 be 38 f3 5a bd e2 ca 88 3e fb 8f d9 bc
       -0.3291703 -0.053454608 0.26717287 -0.026557913
0000f0 41 6a f1 bd c3 11 16 3e af c2 27 3e d6 b8 0c 3e
       -0.117878444 0.14655213 0.1638286 0.13742384
000100 ba 4c 8d 3e bc c7 4f 3e c9 19 28 3e 6e f2 86 3e
       0.275976 0.20291036 0.16416086 0.26356834
000110 5b 1c 67 3e 68 39 b4 3e 4e 5a 75 3e 2d f8 14 3e
       0.2256941 0.35200047 0.2396023 0.14547797
000120 8d f1 25 3e cb ac 04 3e d9 94 27 3e 23 71 15 3e
       0.16205426 0.1295654 0.16365375 0.1459394
000130 e5 91 8f 3d 77 99 85 3e e9 db 29 bc b3 6e c0 bd
       0.07010249 0.26093647 -0.010367372 -0.09396114
000140 65 62 13 bf 0d a5 8c bd 3f e4 07 be 95 dc e2 3d
       -0.57572013 -0.068674184 -0.13270663 0.11077229
000150 34 4d 84 3e 51 ae 49 3e 0c 6b 87 bd 6a 49 45 3d
       0.2584015 0.19695403 -0.066122144 0.048165716
000160 ea cc 8e 3d e1 a7 3d 3e c4 de ae 3e 02 88 88 be
       0.06972678 0.18521072 0.34154332 -0.26666266
000170 00 99 d4 be c3 cb 4a 3e a2 33 10 be a9 4f b9 3e
       -0.4152298 0.19804291 -0.14082196 0.36193588
000180 cb d3 01 be e8 69 92 3e 79 77 ab 3d 63 e3 07 bd
       -0.12678449 0.28596425 0.08372397 -0.033175837
000190 cb 98 78 bc 9b 41 46 be e8 e0 1d 3e c3 5a 80 3e
       -0.015173147 -0.19360964 0.15417826 0.25069246
0001a0 e8 09 96 bd cc ac 27 3e 7a a6 15 3e e0 60 48 3e
       -0.07326108 0.1637451 0.14614287 0.19568205
0001b0 ea 9e 2a 3e f5 2f 01 be 6e 89 35 3e ba cb 02 3e
       0.16662183 -0.1261595 0.17728207 0.12773028
0001c0 2e 0a ab bd 67 af 8c be e9 32 a4 3c 10 24 7f 3e
       -0.08351551 -0.2747757 0.020043807 0.249161
0001d0 b9 7e b1 3e 09 63 3c be 26 2f 4f 3e 00 92 03 3e
       0.34666994 -0.18397154 0.2023283 0.12848663
0001e0 e4 48 4f be 47 ac 1d be eb 8c 3e bc 11 af 93 be
       -0.2024265 -0.1539775 -0.011630277 -0.28844503
0001f0 df 7c 2f be e0 a6 32 3d 73 fb 9a bd ab d7 0d 3e
       -0.17137478 0.043616176 -0.075674914 0.13851802
000200 c2 4a be 3d c8 9c fb 3d 5c bf 46 3e 1e 3d 17 3e
       0.09291603 0.12285763 0.19408935 0.14769408
000210 8d a3 cf 3e 2c 1b 61 3e 63 3d e3 3e 3f 2a 49 bd
       0.40554467 0.21983021 0.44382772 -0.049112555
000220 b2 e5 32 3e 0b e6 1a 3e e5 f5 80 bd 23 74 81 3e
       0.17470434 0.15126817 -0.06296901 0.25283918
000230 6c fb 6a 3e f3 f1 4a 3e 66 5c 98 bd 80 58 a1 3e
       0.22947472 0.19818859 -0.074394986 0.31512833
000240 b9 19 38 3e ca 6b 21 bd 37 1b 5c 3e a2 62 97 3d
       0.17978562 -0.039409436 0.21494757 0.073918596
000250 12 89 bb 3d 94 b4 4d 3e 01 68 bd be 1a 6c 8c 3e
       0.091570035 0.20088416 -0.3699341 0.27426225
000260 b0 c1 86 3e 5f ed 9c be ec a4 94 3e 8c 38 86 be
       0.26319647 -0.3064985 0.29032075 -0.26215017
000270 63 ce 3f 3e 0c 36 7f 3e f3 52 62 be 5b 2d fa bd
       0.18731074 0.24922961 -0.22101955 -0.12215682
000280 4b d2 ed be 10 6e 3a 3e 40 47 52 3e 24 5e 9c 3d
       -0.46449503 0.18206048 0.20534992 0.076351434
000290 10 ef 76 3e 2f e2 fe be 4a cd 59 3e b2 5e ee 3e
       0.24114633 -0.4978194 0.21269718 0.46556622
0002a0 75 cb a0 bc d5 5d 4e 3e 36 4b f7 3d f7 e0 99 3c
       -0.019628266 0.20152982 0.12074892 0.01878403
0002b0 f4 1e c1 3e a1 ae 6f bd d9 52 15 3e 9a 04 97 3e
       0.37718928 -0.05851615 0.14582385 0.29495698
0002c0 84 92 19 3e d5 00 33 be 58 9c 53 be 90 20 9c 3e
       0.14997298 -0.17480786 -0.20665109 0.30493593
0002d0 59 46 de 3d 5a bd a5 bc ec d0 f0 3d aa 07 a3 bd
       0.108532615 -0.020231891 0.11758599 -0.07960446
0002e0 47 90 fc 3c 37 7b 8b be 83 5e 8f bd 49 c3 7f be
       0.030830516 -0.27242443 -0.070004486 -0.24976839
0002f0 b7 3c dd be 39 02 08 3e 17 ab 3d be 5b 4b 68 3e
       -0.43210384 0.13282098 -0.18522297 0.22684996
000300 c2 9e 81 3d 51 bf a0 3e 42 47 24 3e e6 12 0a be
       0.06329109 0.31395963 0.16042808 -0.13483772
000310 10 a3 48 3e 52 9a dd b9 62 c6 da bd c1 7e 97 3e
       0.19593453 -0.00042267382 -0.1068237 0.29588893
000320 16 fb 89 3e 22 15 6b 3e 49 76 0e 3f e4 66 f4 3d
       0.26949376 0.2295728 0.5564924 0.11933687
000330 fc d1 53 3e 64 2f 15 3e 52 7b 2b 3d f4 46 c6 be
       0.20685571 0.1456886 0.041865654 -0.38726008
000340 e9 cd 98 3e 11 bb 52 3e 7c 38 89 bc a7 f8 43 3e
       0.29844597 0.20579173 -0.016750567 0.19137822
000350 a8 0c fb 3d c7 fb 39 3e 88 cd 9e bc f3 a6 26 bd
       0.12258273 0.18162452 -0.019385114 -0.04068656
000360 b4 16 c6 bd ff 0b 8d be b7 49 cd bc c8 db 5d bc
       -0.09672299 -0.27548215 -0.025059564 -0.013541169
000370 5d a1 a6 3e e9 af 3c bd 12 53 7d be 8d d5 91 3e
       0.32544985 -0.0460662 -0.2473872 0.2848324
000380 de cd 8d be 56 c9 30 3e 6a 11 32 bd c1 da 64 3c
       -0.27696127 0.17264304 -0.04347364 0.013968171
000390 1d e8 1a bf ae 0d d8 bd 3f 76 81 3e f6 76 80 3e
       -0.60510427 -0.10549484 0.25285527 0.2509076
0003a0 08 0d 9f be b7 fc 44 3e ac 06 99 3e 27 d7 9b bc
       -0.3106463 0.19237028 0.29887903 -0.019023491
0003b0 52 2f 7c 3e 5b 81 8b be 2a bd ee 3d 45 74 71 3e
       0.24627426 -0.27247128 0.11657174 0.2357951
0003c0 1d 1a 9f 3c 2b 57 7b be c0 3f e6 3d 55 e9 a0 3e
       0.019421631 -0.2454497 0.11242628 0.31428018
0003d0 ca 45 81 3e 8f a7 9c 3d d4 9b ea 3d 20 25 a9 3e
       0.25248557 0.07649147 0.11455503 0.33036137
0003e0 d4 15 19 be da b7 04 3d 8e 1f cb be 21 0b 80 be
       -0.14949733 0.032401897 -0.39672512 -0.2500849
0003f0 8e 29 14 bf 87 e0 ac 3d 0e fc 07 be 4e 31 07 3e
       -0.5787591 0.08441263 -0.13279745 0.13202402

fc3.bias f4 [4]
000000 6d c9 a8 3e 4e ae 81 3e 7a 46 0b 3e 2d f7 1a 3e
       0.32966176 0.25328296 0.13601103 0.15133353
