checkpoints/DOUBLE DUELING_DQN.pth (torch_old, 45963 bytes, 9 tensors)

fc1.weight f4 [64, 37]
000000 db bc 3f bd 1a f9 e7 3d 24 ce cc bd 06 57 2f bd
       -0.046810966 0.11326809 -0.10000256 -0.0428076
000010 3b 88 d2 3c f5 c7 3c 3c 4b 0b 08 bd 85 db 51 3e
       0.025699725 0.011522283 -0.033213895 0.20493896
000020 14 e0 02 bc c0 c4 b1 3e a9 92 02 3a bd e0 84 bc
       -0.007987995 0.3472042 0.00049809605 -0.016220445
000030 f4 a8 e7 bd 08 60 31 be e1 3f 0c be 4b d9 c2 3d
       -0.11311522 -0.1732179 -0.13696243 0.095141016
000040 11 d0 55 bd 7c a5 a4 3d 9a 0f 26 bd f5 3d 21 be
       -0.05220038 0.08039376 -0.040542223 -0.15746291
000050 66 b5 83 3e a4 0c 7f bd 82 1d e6 bb 23 bd 3e bc
       0.25724334 -0.062267914 -0.0070225606 -0.011641773
000060 3f 84 bb be 1f 16 38 3e bb dc c1 3d cc f0 1d be
       -0.36624333 0.17977189 0.09465929 -0.15423888
000070 65 19 a8 be 3f 9e f1 be 9d 94 75 3d 58 f5 83 3d
       -0.32831874 -0.47191045 0.05995618 0.0644328
000080 54 ac e7 bd d3 18 23 be b0 b8 83 bd f9 d4 14 3c
       -0.11312166 -0.15927438 -0.06431711 0.00908398
000090 e6 96 e8 bb f9 a1 21 3e 5e ca a1 3d 95 a8 a9 3d
       -0.0070980666 0.15784444 0.078999266 0.082841076
0000a0 12 06 27 3c 12 0d 50 be db 04 93 bd 30 fe ee bd
       0.010194318 -0.20317486 -0.071786605 -0.11669576
0000b0 01 0b c6 bd a3 a5 be 3d 54 36 a1 3e 0e 3a a3 3c
       -0.096700676 0.093089364 0.31486762 0.019925144
0000c0 3c 0d dc bc 81 cb 15 bd 05 c4 58 3e 98 9a b1 3e
       -0.02686178 -0.03657103 0.21168526 0.34688258
0000d0 79 ee a6 3d 36 63 61 3d d4 d9 a5 3d 89 69 e3 bd
       0.08150954 0.055026256 0.08098188 -0.111041136
0000e0 0b 24 08 be b2 7d 22 be b6 92 eb bd 81 fd f1 3b
       -0.13295 -0.15868261 -0.11502592 0.0073849563
0000f0 ee 3f 8b 3c 63 c8 88 3d 53 fe d7 bc 71 63 8d 3d
       0.016998257 0.06678846 -0.026366388 0.069037326
000100 54 47 4e bc 49 b2 55 3b 1f 08 11 be 9c 65 ac 3d
       -0.012590248 0.0032607487 -0.14163254 0.08417818
000110 0f 3b 32 3e 10 ef cc 3d 83 4e 41 be 14 c1 d6 bd
       0.17405342 0.10006535 -0.18877606 -0.104860455
000120 91 41 bf 3d b7 5f ac 3b c3 c7 9b 3e 6a d3 89 3c
       0.09338678 0.0052604335 0.30425844 0.016824443
000130 80 84 c7 3d c8 72 46 be 61 98 c5 be 31 c9 ef bd
       0.09742069 -0.19379723 -0.38592818 -0.11708296
000140 47 11 2e bd b9 e4 25 3e 52 a0 0b 3e 58 7d 49 be
       -0.042496946 0.16200532 0.13635376 -0.19676721
000150 e1 2d 04 3e 0b a4 e0 bc e9 e8 4b 3c fa 03 c3 bd
       0.12908126 -0.027421972 0.012445667 -0.09522243
000160 8f 0f af be 47 b7 b0 bb 47 bd d3 3d 10 eb 79 3d
       -0.34191558 -0.005392942 0.10338836 0.06101519
000170 24 8a 2d 3e 5b 4a b2 3d e0 47 7c bd e6 f3 9d bd
       0.16947228 0.087055884 -0.061591983 -0.077125356
000180 89 28 e8 3d a9 60 6c 3c 80 38 46 be cf 3c 69 be
       0.113358565 0.014427342 -0.1935749 -0.22777103
000190 f0 42 a2 3d 2e f6 48 3e c1 e1 53 3e 51 06 61 bd
       0.079229236 0.1962516 0.20691587 -0.054937664
0001a0 16 71 a5 be c0 3d 79 3d 9e dc 11 3d 8c ec f8 bd
       -0.3231284 0.060849905 0.035610788 -0.12154493
0001b0 2a 2a 85 3b 85 53 db 3c 58 c2 bd 3b 3e 57 44 bc
       0.0040638642 0.026773224 0.00579099 -0.011983691
0001c0 f2 f5 46 3e 07 03 35 3e 48 0f 3d 3e eb bc 26 3e
       0.19429758 0.17676936 0.1846286 0.16283004
0001d0 cc ce a3 3d 3c 9d 34 bd db 20 b6 3c 83 42 68 3d
       0.07998428 -0.044095263 0.022232464 0.056704056
0001e0 0b 95 39 bd ad ab c5 3b 59 df cb bc 79 ec 21 bd
       -0.045308154 0.0060324282 -0.024886774 -0.03953216
0001f0 83 29 e3 bc 16 94 c4 bd 75 cb 51 3e b2 bc 25 bf
       -0.027729755 -0.09598558 0.20487769 -0.6474105
000200 54 dc 4f be 39 a4 11 bf fe 8c bf bf f8 a4 95 bc
       -0.20298892 -0.5689121 -1.4964902 -0.01826714
000210 a4 bb 2a bd 28 64 f0 3c 11 0a 1d bd b7 7c bb bb
       -0.041682854 0.029344633 -0.03833968 -0.0057216543
000220 3b 11 6b bd 60 72 aa 3d 0a 8d fd 3d 6e c2 d5 3d
       -0.05738948 0.083225965 0.12380417 0.10437475
000230 45 ab 28 3e 1a bc de 3d a2 c2 09 3e 27 2f 3e 3d
       0.16471584 0.10875721 0.13453153 0.046431687
000240 39 e8 a5 bc 9b 42 08 be 2a 67 6e ba f1 33 70 3b
       -0.020252334 -0.13306658 -0.0009094352 0.0036652053
000250 09 af 50 be 32 a1 af bc a5 7f ac bd 2e 8c be bd
       -0.2037927 -0.021439169 -0.08422784 -0.09304081
000260 eb c3 9a 3c 23 23 95 3c 5f c3 9c 3d 40 22 41 3d
       0.01889225 0.018205231 0.076544516 0.047151804
000270 f9 10 dd 3d 6d 2c 86 bc 49 59 b7 3e 2e 92 a8 be
       0.10794253 -0.016378606 0.35810307 -0.32924026
000280 ff b5 3e be f2 23 8c be 9a 7e b0 bf 02 03 f5 bc
       -0.18624114 -0.27371174 -1.3788636 -0.02990866
000290 a9 78 19 bd 76 56 50 bc 48 11 d1 bc ab d9 9b 3d
       -0.037468586 -0.012715926 -0.025520936 0.07609876
0002a0 18 fb dc bd 84 91 cf bb d4 2b ae 3d e4 2b d2 3d
       -0.1079008 -0.0063344855 0.08504453 0.10262278
0002b0 f1 6b 8a 3e 0e 0c d8 3d 27 67 48 bd 52 61 71 3d
       0.27035478 0.10549174 -0.0489265 0.058930703
0002c0 3b a7 95 bd b2 cf 86 be 99 7a 66 3d 14 28 97 3d
       -0.07307287 -0.26330334 0.056269262 0.07380691
0002d0 2c ae 93 bc 56 89 ab bb 26 79 54 3d 10 40 93 bc
       -0.018027388 -0.0052348776 0.05187335 -0.017974883
0002e0 4c 5c 17 3c 5d 59 c9 3d 2e f6 ed bd da 22 86 3b
       0.009238314 0.09831498 -0.11619221 0.00409351
0002f0 8f 90 7d be c3 09 06 be 69 64 ca 3d 7f ec 21 3e
       -0.24762176 -0.13089661 0.09882433 0.15812872
000300 52 bf 0d be 0f af 4a bb f7 ac d5 3d cd 00 0d be
       -0.13842514 -0.0030927097 0.10433381 -0.13769837
000310 06 db 1a bd b4 95 96 3d 07 b2 8e be f6 07 37 bd
       -0.037806533 0.07352772 -0.278702 -0.044685327
000320 53 99 5a 3d 6c e8 83 bd 17 94 9a bd 69 4a f3 bd
       0.053368878 -0.06440815 -0.07547777 -0.11879427
000330 cc 52 84 be 3e 04 ea bb a5 5f 29 3d b7 a3 5c 3e
       -0.2584442 -0.007141619 0.04135098 0.21546827
000340 96 09 48 be c0 dd b0 bc ac 97 c9 ba 8a 02 83 bd
       -0.19534907 -0.021590114 -0.0015380285 -0.06396969
000350 fd ca 73 bc 34 53 4a bc 1d 70 77 be 45 cd d8 3c
       -0.014879939 -0.012348939 -0.24163862 0.026465068
000360 1e 7c 84 be 76 8a c9 3d 28 c7 76 be 10 3f 56 be
       -0.25875944 0.098408625 -0.2409941 -0.20922494
000370 6e 78 0a 3e 4c 3a 0a 3c 35 de f7 3c b6 49 0f 3d
       0.13522503 0.008436751 0.030257324 0.034982406
000380 fc 2c e7 bc 10 c8 06 3d 59 d2 de 3a 92 a2 8f bd
       -0.028219692 0.03290564 0.0016999944 -0.0701343
000390 cf 54 05 be c6 62 a7 3d 7d 48 00 3e 28 22 28 3e
       -0.13020633 0.081731364 0.12527652 0.1641928
0003a0 ad 24 20 3e 90 ec 05 3e 62 38 53 3d 64 d6 eb bd
       0.1563899 0.13078523 0.051567443 -0.11515501
0003b0 03 42 30 be 01 43 23 bd a8 69 3e bd 41 49 3b 3d
       -0.17212681 -0.03985882 -0.04648748 0.045724157
0003c0 7a 34 80 3d fe 2d 03 3e 19 c9 25 be 40 41 a0 bd
       0.06260009 0.12810513 -0.16189994 -0.078249454
0003d0 ab 1c 18 3e 98 b5 cc 3d 92 41 a5 3e 73 97 53 be
       0.14854686 0.09995574 0.3227659 -0.20663242
0003e0 6e 96 2b 3d 02 4d c7 3d 06 dd 38 be a3 74 13 3e
       0.041891508 0.09731485 -0.18053064 0.14399962
0003f0 0b 50 40 3e 45 5e 26 3e 6d 8e a1 be c4 92 95 bd
       0.18780534 0.16246898 -0.31553975 -0.07303384

fc1.bias f4 [64]
000000 35 30 1b 3e b1 15 e5 bb be d6 ac bd f9 7c dc bc
       0.15155108 -0.006991111 -0.08439396 -0.02691506
000010 f3 63 48 3e 2b e0 8c bd 26 28 9f bd 87 72 99 3d
       0.19569378 -0.06878694 -0.077713296 0.074925475
000020 80 73 0c bc da 1b fc bd 38 29 b7 3d d8 25 ea 3d
       -0.008572459 -0.1231 0.08943409 0.11432999
000030 ef 0e e6 3d e1 4e b3 3d 47 eb 4a bd c8 4d bd bd
       0.11233317 0.08755279 -0.049540784 -0.09243351
000040 22 d0 29 3c c0 85 46 bc 45 37 cd bc d2 b1 42 be
       0.010364564 -0.012116849 -0.025050769 -0.19013146
000050 de 75 03 be 72 20 1b 3d c0 37 2d bc 62 1b f1 bd
       -0.12837932 0.03787274 -0.010572374 -0.11772801
000060 39 1f 0d be 65 f4 05 3e 9b 5a 5a 3d e2 d5 2d be
       -0.13781442 0.1308151 0.053309064 -0.16976121
000070 63 78 3d 3e 34 ee 9a 3d 86 f6 67 bd f1 50 26 be
       0.18502955 0.07564965 -0.056631587 -0.16241814
000080 3a 55 22 3e 0d ba b0 3c 33 84 ab bd fe 32 aa 3d
       0.15852824 0.02157309 -0.083748244 0.08310507
000090 c2 ab 5c bc 37 4e c9 3c 47 50 4d bd ce d4 29 be
       -0.013468685 0.024573429 -0.050125387 -0.16585085
0000a0 ad 65 91 bd 22 5d 13 3d 40 f7 d4 bd f9 f4 fd 3d
       -0.07099471 0.03597749 -0.10398722 0.124002405
0000b0 29 b2 83 bc 24 c9 ac bd ba b4 0a 3d 16 14 c7 bd
       -0.016076164 -0.08436802 0.03386376 -0.09720628
0000c0 7b 06 de bd d8 4e 04 3d 8f 9b df bd e4 01 d9 3d
       -0.1084108 0.032301754 -0.10918342 0.10596064
0000d0 43 0c 81 bc f6 93 95 bc fd 68 47 be fe b5 9a 3d
       -0.015752917 -0.01825903 -0.19473644 0.075542435
0000e0 8f 8b b8 b8 3b 93 59 3d c8 82 d1 bd 9c f2 34 be
       -8.7997985e-05 0.053118926 -0.10230023 -0.17670673
0000f0 f8 9b 4c 3d 0f e4 05 3d 15 ca ca 3d d3 a2 1c 3d
       0.04995343 0.032688197 0.09901825 0.03824122

fc2_adv.weight f4 [64, 64]
000000 c2 2b 07 be c3 ba 58 3c 05 7a 00 3e 20 81 ab 3e
       -0.13200286 0.013228121 0.12546547 0.33496952
000010 d9 56 13 3e 7e fe b9 bd 79 7c 4c be df 82 4c 3e
       0.14388599 -0.09081744 -0.19969358 0.19971798
000020 d2 07 a4 bd 9b d8 4b 3e ea 35 47 be 58 72 d3 be
       -0.08009304 0.19906847 -0.1945416 -0.41298175
000030 eb ed 25 bf f5 70 8c 3d 48 16 1d be 37 e4 c5 bb
       -0.6481616 0.06857482 -0.15340531 -0.006039168
000040 7f 2e c3 bc ac 2f 1b 3e 00 e4 55 be 9c 5b 25 be
       -0.023825882 0.15154904 -0.20887756 -0.16148227
000050 f6 95 31 bd 64 03 26 bf 7d 6d 79 3e aa fb 05 be
       -0.043355905 -0.64848924 0.24358173 -0.13084283
000060 17 06 f0 bc ab f5 82 bd 32 01 2a 3e 06 bf 36 be
       -0.029299779 -0.06394514 0.16602018 -0.17846307
000070 ba bb 00 bd cf 81 02 be f7 87 75 be 9d 93 8c be
       -0.03142903 -0.1274483 -0.23977648 -0.2745637
000080 5f e2 98 3d 32 93 6b 3e 65 2b b0 be ab 83 76 be
       0.07465052 0.2300537 -0.34408107 -0.24073665
000090 59 ec 93 be bc 15 83 be 5d 0f 15 be eb b1 8d be
       -0.28891256 -0.2560252 -0.14556642 -0.27674803
0000a0 ee 9e d4 be dc fa 02 3e 52 c0 97 3e 98 f0 db be
       -0.41527504 0.12791008 0.29638916 -0.42956996
0000b0 bf d1 aa bc 61 7b ce be bc 8b f3 be 9a fa d2 3e
       -0.020851968 -0.40328506 -0.47567546 0.4120682
0000c0 58 99 94 bd 33 ab 96 be 22 92 47 be aa 69 11 3d
       -0.072558105 -0.2942749 -0.19489339 0.03550116
0000d0 a6 e3 53 be a0 2a 71 be 88 88 75 3b 9c 30 a4 3d
       -0.2069231 -0.23551416 0.0037465412 0.08017084
0000e0 d9 cf 2b be 2f 4d c2 bc 4a 01 2f be bd 79 88 be
       -0.16778506 -0.023718445 -0.17090335 -0.2665538
0000f0 67 a7 c1 3c bf 94 60 3e df 6c ad bc f5 a7 ad 3d
       0.023639394 0.21931742 -0.021170078 0.08479301
000100 07 bd 88 3d b2 2e 10 3e 16 f2 35 3b c1 44 a6 3e
       0.06676679 0.14080313 0.0027762703 0.3247433
000110 19 87 12 3c 20 af 65 bd 6a 0b 2a 3d c2 c8 7f 3d
       0.008943343 -0.056075215 0.04151479 0.062447317
000120 4d 44 1b 3d c8 43 9b bd b7 24 79 3d b3 5a f7 3d
       0.037906934 -0.075812876 0.06082603 0.120778464
000130 47 93 26 3c 44 6b 90 3d 9d 36 43 3c a8 e1 81 3d
       0.01016695 0.07051709 0.011914876 0.06341869
000140 29 2c fe 3d df 04 11 be 87 ff a9 bd e5 75 cf 3c
       0.12410767 -0.14162014 -0.08300691 0.025324771
000150 07 4a 9c 3c d2 dc 73 be 37 53 3e 3e df ae 15 3d
       0.019078268 -0.23814705 0.18586431 0.036543723
000160 1a c6 4b be 4d 35 58 bc 16 23 ea bd 54 36 86 be
       -0.19899788 -0.013196302 -0.11432473 -0.26213324
000170 51 cf b1 bd 43 86 e2 be 28 92 8c 3d ce 76 01 be
       -0.086821206 -0.4424306 0.068638146 -0.12642977
000180 25 df ef 3d b2 90 f4 3d 05 4c ec 3d a2 d0 11 3e
       0.11712483 0.11941661 0.11537937 0.14239743
000190 b4 6b 86 3d 23 92 ae be d5 36 18 3e 2a 23 0b bd
       0.065635115 -0.34095868 0.14864667 -0.033969082
0001a0 ea 65 c6 be bf 62 43 3c 9e 96 f4 3d af 8e 2a be
       -0.3874963 0.011925398 0.119427904 -0.16655992
0001b0 db 21 75 bd 69 85 85 be e1 bf 66 bc 3e 8b 47 be
       -0.05984674 -0.26078346 -0.014083833 -0.1948671
0001c0 cb 73 d5 3d 96 d8 49 be 47 98 cb 3d 7e b8 af 3d
       0.104224764 -0.19711527 0.09941154 0.08580111
0001d0 5f 7f 96 bd d3 87 1b be 3a b0 0e be 63 1d 7c 3c
       -0.07348513 -0.15188532 -0.13934413 0.015387866
0001e0 c3 a9 13 be e4 8e d0 3d f4 cd 01 3e 4e 5d 04 3e
       -0.14420228 0.10183504 0.12676221 0.12926218
0001f0 b2 b9 f0 bd 71 b7 63 be de 2d 7f 3d 21 34 d9 bd
       -0.117541686 -0.22237946 0.0622996 -0.10605646
000200 b5 76 15 bb 8b 61 5d be b4 c8 48 3e fd 29 62 be
       -0.002280635 -0.21619241 0.19607812 -0.2208633
000210 46 79 10 3e 9b fb 3d 3d 65 c2 5d be 20 62 17 be
       0.14108762 0.046382528 -0.21656187 -0.14783525
000220 cb e7 e8 bd eb 2b 4d bd 2b 9f a6 3d 00 99 60 bd
       -0.11372336 -0.05009071 0.08135828 -0.054833412
000230 af 74 e6 bd 2a 34 a8 3d bb 8b 73 3e e7 8f c6 bc
       -0.112527244 0.082130745 0.23783772 -0.02423854
000240 40 ef ba 3c 0c 32 d5 bd 8d 0b c2 bc 8a fb b4 be
       0.022819161 -0.10409936 -0.023687148 -0.3534816
000250 93 b1 f0 bd 4d c2 2e 3e 0d e1 86 bb cf b9 f6 bd
       -0.117526196 0.17066307 -0.0041161836 -0.12047159
000260 79 46 a7 bd 8b 2d 10 be 24 e2 87 3e 46 7d 46 be
       -0.081677385 -0.14079873 0.2653972 -0.19383726
000270 ef 9b 57 be a9 92 f4 3d 50 df fd bd 9d bf 86 bd
       -0.21055578 0.11942036 -0.12396109 -0.06579516
000280 7e 1f 6f be f6 fc 89 be bd 7c 0b be 0a 28 c0 bd
       -0.23351857 -0.26950806 -0.13621803 -0.09382637
000290 2a c3 c5 3d 70 45 37 3e 23 eb 55 be 35 fa b7 bd
       0.09656365 0.17897582 -0.20890479 -0.0898327
0002a0 d1 14 b7 3d a2 ad 9c be bf f2 83 be 2f fc cb bd
       0.08939517 -0.3060122 -0.25771138 -0.099602096
0002b0 bb 94 25 be ca 85 59 3d 41 66 06 3e 96 10 89 be
       -0.16170017 0.053106107 0.13124944 -0.26770467
0002c0 b3 98 c9 bd 67 49 ed be e4 4b 10 be 54 11 cc bd
       -0.09843578 -0.46345064 -0.1409145 -0.099642426
0002d0 94 82 5d bd c6 a6 0e be 39 04 a6 bc 85 ab 50 3c
       -0.054079607 -0.13930807 -0.020265685 0.012736206
0002e0 15 65 09 3e d4 3b 81 bd 6a 50 3e be e6 4d 82 3e
       0.13417466 -0.063102394 -0.18585363 0.25450057
0002f0 a7 b5 4a bd 6e db 16 be 31 4c a3 3d f7 f5 1c bc
       -0.049489643 -0.14732143 0.07973517 -0.009580127
000300 69 ab 43 be 97 72 78 be c9 95 ca 3d f8 98 07 be
       -0.19108357 -0.24262463 0.098918505 -0.13241947
000310 2a bc ba bd 0c 88 0e 3c e8 c7 69 be e8 6d e6 bd
       -0.09117921 0.008699428 -0.22830164 -0.11251432
000320 73 86 30 bd ca 01 7f bc e2 8c 88 bd aa 3c b2 3e
       -0.04309697 -0.015564391 -0.06667496 0.34811908
000330 ed db 27 bd 7f 14 29 3e 99 b7 03 bc 5c 2c 01 3d
       -0.040981222 0.16511725 -0.008039379 0.031536445
000340 88 9c 28 bc b9 c4 da 3a eb 19 1a bd 0b af fa bd
       -0.010291226 0.0016690708 -0.037622374 -0.12240418
000350 ad 73 87 3d e0 49 51 3c 0c 44 41 bd 26 e2 94 3d
       0.0661386 0.012773961 -0.047184035 0.07269697
000360 61 19 e3 3d 28 47 09 3e a9 a9 1c bd f9 75 e8 3c
       0.11088825 0.1340605 -0.038247738 0.028376566
000370 9e cf 9b 3e 6b 7d a5 be 16 3e a5 bd 32 31 15 bd
       0.30431837 -0.3232225 -0.080684826 -0.03642387
000380 06 f7 99 3d 10 22 7a bd 36 3f 9f 3c 14 78 b6 bd
       0.07517819 -0.06106764 0.019439321 -0.08909622
000390 ca a7 b1 bd 83 e1 cb bc 65 52 a0 3d 3f 44 af bd
       -0.08674581 -0.024887806 0.078282155 -0.08557939
0003a0 d6 e6 a0 bc 66 f0 83 3d c0 df 67 3d df bf 39 bd
       -0.019641321 0.06442337 0.05660987 -0.045349
0003b0 80 26 2c be 1f a8 db bd eb 80 20 3d 55 69 f8 3d
       -0.16811562 -0.10725426 0.039185446 0.121294655
0003c0 cd 8a 3f bd 6c 1b ac bd d0 5e 78 be a6 aa bf 3d
       -0.04676323 -0.08403668 -0.24254918 0.093587205
0003d0 31 a0 9d 3d 54 1b 17 be be bf f7 3c 6e c1 ed bd
       0.0769657 -0.14756519 0.030242797 -0.116091594
0003e0 6a d2 d8 bd 41 16 11 bd 7b 10 7b bd a3 f8 bd bd
       -0.10587008 -0.035421614 -0.061295014 -0.09275939
0003f0 2a 9f 0e be 7a f3 ef 3d ee 6e 74 be 03 06 c5 bc
       -0.13927904 0.11716361 -0.23870441 -0.024050718

fc2_adv.bias f4 [64]
000000 e3 90 2a bd 0e 17 98 bd 34 cb 1a 3d 18 e0 6b 3d
       -0.04164208 -0.07426272 0.037791446 0.05758676
000010 10 99 25 3d 3a 39 1f be 36 f5 bb bd 2b 95 1e bd
       0.040429175 -0.15549174 -0.0917763 -0.038716476
000020 b4 80 94 3d 13 d2 c0 3d 49 6c 17 3b 32 18 c5 3d
       0.07251111 0.094150685 0.0023105314 0.096237555
000030 73 de fc 3d fe e2 48 bd 19 28 9f bd e0 58 4d bd
       0.12347116 -0.0490446 -0.0777132 -0.050133586
000040 eb cf 2a 3d 3d 1b e7 bd 6f 34 3c bd 8c d4 4c 3d
       0.041702192 -0.11284492 -0.045948442 0.050007388
000050 85 b6 bc bd 72 54 c3 3d e3 40 97 3c c5 57 f6 bd
       -0.092145 0.09537591 0.018463558 -0.120284595
000060 72 53 0b be 42 d4 08 bd b8 22 fa 3d be 50 68 bd
       -0.1360605 -0.03340555 0.12213653 -0.056717627
000070 fb 73 7b bd 79 eb 23 3e 31 a8 6c 3c 35 c8 42 be
       -0.061389904 0.16007794 0.014444397 -0.19021685
000080 33 83 a5 bd 7d 7b da bd 7a 8b f3 bc 6f 73 bc bc
       -0.08081665 -0.10668085 -0.029729594 -0.023004262
000090 17 fe 00 be 47 25 39 bd 0d 0d c0 3d b5 d9 5b bd
       -0.12596928 -0.045201566 0.09377489 -0.05367442
0000a0 e2 1d f4 bd 8c 46 15 3e 5c 66 68 3c 2c e3 70 bd
       -0.11919762 0.14577693 0.014184561 -0.058810398
0000b0 b4 58 e5 3c 17 da a2 bd f8 d8 e7 bd 9d 53 01 be
       0.027996399 -0.079517536 -0.113206804 -0.12629552
0000c0 45 19 43 3d 56 70 1a bd 9d 04 8e bd 48 94 b1 3c
       0.04763152 -0.03770479 -0.06934474 0.021677151
0000d0 a1 f2 5e bd 52 f4 13 bd 29 b0 2c bd 89 e8 93 bd
       -0.054430608 -0.036121674 -0.042160187 -0.07222087
0000e0 e9 22 a9 bc e5 46 f1 bd 2b a5 21 3d da eb b3 bd
       -0.02064653 -0.117811 0.039464157 -0.087852195
0000f0 89 f1 94 3c 0f 5b 08 3e 84 51 85 3d df e7 2e be
       0.01818158 0.13315986 0.065096885 -0.1708064

fc2_val.weight f4 [64, 64]
000000 6d 1e da 3c 4c 10 97 3d 9c 75 ab bd 49 f1 85 be
       0.026625836 0.07376155 -0.083720416 -0.26160648
000010 fe 5a 4a 3e e1 58 15 be 0e 82 20 3e c1 05 2b bd
       0.19761273 -0.14584686 0.15674612 -0.041753534
000020 37 fe 9c 3d 65 b7 1e bd a3 6d 5b bd e2 6f 09 3e
       0.07665675 -0.038749117 -0.053571355 0.13421586
000030 97 d0 07 be 87 b1 0f 3c 46 17 d9 bc 06 6c 86 3d
       -0.13263164 0.008770353 -0.026500355 0.065635726
000040 34 60 45 3d 3f ca 1a 3e 64 48 cc bd be 87 85 bd
       0.04818745 0.15116213 -0.09974745 -0.065200314
000050 1f b3 4a 3d bd d3 e0 bc 25 fe 62 3c 89 8a a5 be
       0.04948723 -0.027444715 0.013854538 -0.32332256
000060 0a 84 a1 bd 0f 66 80 bd 93 95 aa 3b b0 48 14 bd
       -0.078865126 -0.06269466 0.005205819 -0.036202133
000070 6c 14 fa 3d e9 8b 87 3e fd 47 86 be 6f 53 ae bc
       0.122109264 0.2647393 -0.26226798 -0.021280019
000080 a9 74 a4 bb 4a 8a 68 3b 0d 78 18 bd 24 25 4b bd
       -0.00501879 0.0035482817 -0.037223864 -0.049595967
000090 d1 11 0d bd 0f ec 8d be 42 16 9f 3c 08 40 35 3d
       -0.03444082 -0.2771916 0.019419793 0.044250518
0000a0 24 af 46 3e 83 b7 73 bd 25 97 54 be 42 fe 64 3d
       0.19402748 -0.059501182 -0.20760782 0.05590654
0000b0 9a 99 9c 3d 9d 13 11 bd 5b 5a 59 3c 70 46 05 3e
       0.07646485 -0.035419095 0.013266171 0.13015151
0000c0 c2 3a 3e bd fc a5 7c 3d 64 b8 21 bd 95 9b a1 3c
       -0.046442755 0.061681733 -0.03948249 0.019727508
0000d0 31 af 06 3e 38 a7 0b bd c5 a1 1f 3e 9c d9 29 bd
       0.13152768 -0.03409502 0.15589054 -0.041467294
0000e0 66 86 31 bd 65 13 1c 3c 31 77 18 3e ab f2 57 3e
       -0.043341063 0.009526108 0.14889218 0.21088664
0000f0 3e ea bc bd 30 d1 f5 3d 60 4b 9e 3b 88 93 d3 3d
       -0.09224366 0.1200279 0.0048307627 0.10330874
000100 20 38 48 3d 8b f4 77 bd cb b0 e6 3d 3a 8d 24 be
       0.04888165 -0.06053595 0.11264189 -0.16069499
000110 28 f5 86 3e 3d e8 b0 3c 0a 72 a5 3c 31 0d a4 3d
       0.26358914 0.021595115 0.02019598 0.080103286
000120 31 b8 1a be 27 31 6b be d3 37 b8 3d 2f 24 d9 bd
       -0.15109326 -0.22967969 0.089950226 -0.106026046
000130 08 d5 7b bd 99 7a d9 3d 27 8c ee bd 5c 40 07 3e
       -0.06148246 0.10619087 -0.11647826 0.13208145
000140 3a 02 80 be 63 a0 ac bd 41 d8 61 be 33 06 7e bd
       -0.250017 -0.08429029 -0.2205515 -0.06201763
000150 5a 03 14 3e c2 ba a6 bd a4 40 94 bc ea aa ac bd
       0.14454404 -0.0814109 -0.01809723 -0.08431037
000160 12 da 51 bc ef 49 f0 be 19 4e c1 bc 51 06 e0 3c
       -0.01280834 -0.46931407 -0.02359681 0.027346762
000170 3f f4 ad be 5b d3 86 39 43 df 2e 3e 03 8f 3c 3e
       -0.33975407 0.00025715944 0.17077355 0.1841393
000180 9b 90 2a bd b8 52 75 bd 10 e7 97 3d 98 da 8e bd
       -0.041641813 -0.05989334 0.074171185 -0.06975287
000190 06 7a d4 bd 70 22 1f 3d f4 c8 a6 3c 74 0c 66 3c
       -0.103748366 0.0388512 0.020359494 0.014041055
0001a0 f6 ff db 3e 91 d4 d5 3c b5 3a f5 bd 8a 30 ba 3d
       0.4296872 0.026102336 -0.11974088 0.09091289
0001b0 8a 3a 0f 3d 6a 1c 0c 3e 67 f7 1f be ca 32 05 be
       0.034967937 0.13682714 -0.1562172 -0.13007656
0001c0 c2 2b 8d bd 07 d2 cc 3c 34 84 54 bd b8 ce d5 3d
       -0.06893112 0.025002493 -0.05188389 0.10439819
0001d0 33 41 1c bd 72 cc 49 be f5 e3 e9 bc d3 a9 53 3d
       -0.038148116 -0.19706896 -0.028551081 0.05167563
0001e0 e2 54 82 be a2 75 ac 3c 3c 90 9d 3e 4b 13 71 3c
       -0.25455385 0.021052185 0.30774105 0.014714072
0001f0 2f aa 98 bc c3 58 11 be 94 40 e5 bc 30 19 9c 3c
       -0.018635837 -0.14194016 -0.027984895 0.01905498
000200 72 ed 3d 3d 19 d8 46 3d 1b 14 89 3d 65 7d 9b 3d
       0.046369024 0.04854593 0.06693288 0.075922765
000210 b2 64 82 3e e8 d7 55 bd 45 b5 7a 3e f7 f2 26 3d
       0.2546745 -0.052207857 0.24483211 0.040759053
000220 65 cc 1d 3d 57 d0 aa bb f9 75 f2 bd 36 92 52 3e
       0.038525004 -0.0052128243 -0.11838908 0.20563588
000230 1b 1f 6a 3d d7 78 64 bd 85 db 6f bd fd 25 50 3e
       0.05715857 -0.055779304 -0.05855896 0.20326991
000240 5e 3b a3 3d 38 2d c7 bb 0e d6 d0 bd ea 23 ff bd
       0.07970308 -0.0060783885 -0.10197078 -0.12458022
000250 69 ca a8 3d f4 fa 4d 3c fb ae e1 bd 6e 0f 08 bd
       0.08241732 0.012572039 -0.11019703 -0.03321784
000260 09 d0 b6 3d 4d f3 89 ba f0 99 99 3d 7b c0 d6 bc
       0.08926398 -0.001052478 0.075000644 -0.026214829
000270 a3 cc 37 3e dc 8e d3 3e 05 40 6d bd 50 12 5f bd
       0.17949156 0.4131993 -0.057922382 -0.054460824
000280 21 c9 89 bd d2 e9 0e 3d 9f ca d3 3d 7f cc bb bc
       -0.067278154 0.034890957 0.10341381 -0.02292466
000290 09 e3 a3 3a 04 59 96 bd 65 a2 37 3e d6 43 9b 3d
       0.0012503575 -0.07341197 0.17933042 0.07581298
0002a0 c6 95 20 3e 51 1b e8 bd 9b 5b 89 3c a6 68 22 bd
       0.15682134 -0.11333335 0.016767314 -0.03965058
0002b0 cf 98 96 3d fb 52 45 3d f6 ee 29 bc 68 6e 28 3e
       0.07353365 0.04817484 -0.010371914 0.16448367
0002c0 87 a2 20 bc d6 0f dd bd a7 cd 54 bc b9 6d 06 3e
       -0.009804375 -0.10794036 -0.012988484 0.13127793
0002d0 ce 2c 85 bd c8 c8 86 be 19 b4 21 3e cc f9 04 3d
       -0.065026864 -0.2632506 0.15791358 0.032464787
0002e0 eb 09 c1 bd 5a ff d1 3d 3d 66 f2 3c 66 b3 dd 3d
       -0.0942572 0.102537826 0.029589767 0.10825233
0002f0 af 6f 3f be 0a fc 06 3e 3a 3f 5b be 10 46 31 bd
       -0.18694948 0.13182083 -0.21410838 -0.043279707
000300 f8 4f f6 bc f2 5d eb 3d 59 62 16 be 31 94 e4 3e
       -0.030067429 0.11492528 -0.14685954 0.4464431
000310 22 b7 c5 bd 43 96 68 bd 87 a1 17 be ad c6 e3 3d
       -0.096540704 -0.056783926 -0.14807712 0.11121879
000320 46 55 b3 3d e3 a4 df bc e7 97 06 3e 59 db 22 be
       0.08756499 -0.027300304 0.13143884 -0.15903987
000330 d5 8f 93 3d 00 ea fd 3c d0 06 9a bd 8e 85 78 bd
       0.07205168 0.030995369 -0.07520831 -0.060674243
000340 51 e2 4b 3c d5 97 b5 be f4 9e 2f bd 80 63 96 3d
       0.012444095 -0.354674 -0.0428762 0.07343197
000350 f4 86 dc bd 6b df 0e 3e af d5 43 3c c9 c3 b1 3d
       -0.10767928 0.13952415 0.011952802 0.08679921
000360 b8 c4 f3 bd d7 41 b6 be f0 e8 3f 3d 58 48 49 be
       -0.119027555 -0.35597107 0.046853006 -0.19656503
000370 d3 df 88 be d5 aa 47 bf 84 17 9b be cf 68 c9 3c
       -0.26733264 -0.77995044 -0.30291378 0.02458611
000380 4b 27 e4 bb 81 59 b3 bd 52 4b 7e bd 45 ff 05 bd
       -0.006962692 -0.08757306 -0.06208355 -0.032714147
000390 8e 08 ea bd 7f 94 89 3e 03 57 6e 3d aa 27 fd 3d
       -0.11427413 0.26871106 0.05818845 0.12361081
0003a0 43 4e 89 be 8e 89 46 3e 84 29 8a bd 89 4d 38 3d
       -0.2681752 0.1938841 -0.067462 0.04499582
0003b0 23 51 bc be 24 2a dd bd d3 18 87 3d 0e 6b 8e be
       -0.36780652 -0.10799053 0.06596532 -0.2781605
0003c0 78 bc 14 3d af 5c 0a be 0f 04 98 3d 4d f4 21 3d
       0.03631255 -0.13511918 0.07422649 0.039539624
0003d0 7c b9 7a bd 7b 07 4e 3e 74 b4 f9 bd 96 df 9c 3e
       -0.061212048 0.20120041 -0.12192622 0.30639333
0003e0 1d 4d ca bd 76 1d 1c be d8 13 93 be 46 c8 1d be
       -0.098779894 -0.15245613 -0.28726077 -0.1540843
0003f0 bb 88 19 bc 08 ca b6 be 37 dc 2d bd 46 3b 32 3d
       -0.009370978 -0.35701013 -0.04244634 0.04351356

fc2_val.bias f4 [64]
000000 5d 75 7f 3d ba 8d 99 3d d6 1c f8 3d e3 66 53 bd
       0.062367786 0.07497735 0.12114875 -0.051611792
000010 23 f8 bc 3c b1 6c 35 bc e4 7b 2b 3e 60 2d 17 3e
       0.02306754 -0.011073277 0.1674648 0.14763403
000020 c6 98 a4 bd 1c 01 9f 3e 0f 73 8b 3e bd 5e e2 bd
       -0.08036952 0.31055534 0.2723622 -0.11053226
000030 bd 5c b8 3e 45 56 2e bd 8a 18 10 3e de 64 b1 bd
       0.36008254 -0.04256274 0.14071861 -0.08661817
000040 25 22 0f be 3f 13 f0 3d 8d 46 11 3d dc 70 28 3e
       -0.13977869 0.11722421 0.035467673 0.16449302
000050 f1 da 1a 3d 8b a2 a6 3e 76 2b d3 3c d0 56 41 3d
       0.037806455 0.32545885 0.02577756 0.04720193
000060 e1 3b d5 bd dd f9 34 3d 6f f5 eb 3c 92 27 80 3e
       -0.104118116 0.0441836 0.028803555 0.2503019
000070 3d 22 35 3e d4 32 96 bd a6 19 3c be 71 fc 99 bd
       0.17688842 -0.073339134 -0.18369159 -0.075188525
000080 65 c6 f0 bd 26 6e 60 3c ff e6 80 3c dc ef ec bd
       -0.11756591 0.013698136 0.015735148 -0.11569187
000090 ea c2 f1 bd f9 1c 1e 3e 21 4e 9b 3e 8e d2 0b bd
       -0.11804755 0.1544074 0.30333045 -0.034136347
0000a0 54 29 47 bd c5 1d 03 3d 82 f8 50 3d 25 99 90 bd
       -0.048623398 0.032010812 0.051018246 -0.0706046
0000b0 27 bb 09 be f7 05 61 bd ed 5a 0f bd bc 23 96 3c
       -0.13450299 -0.05493733 -0.034998823 0.018327586
0000c0 80 4c f5 bd ef 4d 7c 3d 6e 83 31 3e ff 90 a9 3d
       -0.11977482 0.06159776 0.17335293 0.08279609
0000d0 b6 2c 32 bd a6 77 65 3c 48 ba d1 3d af 41 b9 3e
       -0.04349967 0.014005577 0.102406085 0.36182925
0000e0 8b ba 12 bd c8 d0 0a 3d 72 f0 b8 3e 07 25 e5 bd
       -0.035822432 0.033890516 0.36120945 -0.11188703
0000f0 71 4d 8e 3c dd a7 0a 3d 73 a3 f9 bd b9 42 aa 3d
       0.017370911 0.033851493 -0.121893786 0.083135076

fc3_adv.weight f4 [1, 64]
000000 ae c6 20 bf f0 36 25 be b2 55 7d be 68 3b 89 3e
       -0.6280316 -0.16134238 -0.24739721 0.26803136
000010 c7 27 4e be a0 e2 1f 3c 96 73 80 3e f8 a2 30 bd
       -0.20132361 0.009758621 0.25088185 -0.04312417
000020 57 fe af 3e 8e a3 0b 3e 53 5d cd 3d ea cf 9e be
       0.34373733 0.1363661 0.10027566 -0.31018
000030 8c 97 b8 3d df 11 28 3e ad 28 30 bb c7 2a 3e be
       0.0901328 0.16413067 -0.0026879713 -0.18571006
000040 56 aa d4 3e 53 cf 59 be 11 33 9a 3e 9c 5b ae 3d
       0.41536206 -0.21270494 0.30117086 0.08513567
000050 1a 42 43 3e a9 01 28 be e1 f6 ff bd 62 d2 40 be
       0.19068184 -0.16406883 -0.1249826 -0.18830255
000060 86 af 0c be 08 8b 58 3e 20 7e 9f 3d 2a 32 cb be
       -0.13738832 0.21146786 0.07787728 -0.3968671
000070 c0 0c 90 3e be 9d 1d 3e 6f 83 04 bd ca 00 20 be
       0.28134727 0.15392205 -0.032351907 -0.15625301
000080 32 3e 43 be 32 ff db bd 26 6b d5 3e a2 8d 0e 3f
       -0.19066694 -0.10742034 0.4168331 0.55684865
000090 99 ca ad be 07 7c 16 3e 9c 10 e3 3e 44 f2 b0 3e
       -0.33943632 0.1469575 0.4434861 0.34559834
0000a0 78 67 dc bd a3 b8 32 3e e2 04 19 be 37 1f bf bd
       -0.107619226 0.17453246 -0.14943269 -0.09332126
0000b0 59 8d c5 3e f9 b1 c8 3e 97 2b 84 be e1 fc 8c 3e
       0.38584402 0.39198282 -0.25814506 0.2753668
0000c0 08 23 d1 bd a0 fe 19 3d 16 97 99 3e b4 c1 bf bd
       -0.1021176 0.037596345 0.29998082 -0.09363118
0000d0 be 10 47 3e 92 58 35 3e 22 0f f9 be 65 6e 9c bd
       0.1943998 0.17709568 -0.48644358 -0.076382436
0000e0 3d dc 4c 3c 77 1d 32 be 2d 1f 86 3e 30 b2 a0 be
       0.012503681 -0.17394052 0.2619566 -0.31385946
0000f0 83 dd cd bd 4a 81 03 3e 8b 53 de 3d d5 ed e1 be
       -0.10052016 0.12842289 0.10855778 -0.44126764

fc3_val.weight f4 [4, 64]
000000 5a 1d ad 3d b5 21 68 3e e3 bb 3b 3e 98 0c 77 3e
       0.08452864 0.22669108 0.18333392 0.24125898
000010 fc 87 8d bd c6 86 cc 3b 05 e0 15 3e e9 02 91 3e
       -0.069107026 0.006241652 0.14636238 0.28322533
000020 6a 3b 5d 3e a0 b8 1a 3e d1 cb 8c 3d 35 0f b2 bd
       0.21604696 0.15109491 0.068748124 -0.08694307
000030 ef c6 25 3e aa 0b f4 ba 38 f2 ef 3d 0e 64 09 bf
       0.16189168 -0.0018619199 0.117161214 -0.53668296
000040 30 93 15 3d f6 23 1a 3d e0 53 ca 3d 48 8f 47 3d
       0.036517322 0.03763195 0.09879279 0.048720628
000050 49 5b df bd 11 a4 09 3e 90 d8 7b be 0a 9c 2e 3d
       -0.10906083 0.13441493 -0.24594331 0.04262928
000060 45 4c 1e be d8 55 de be 0a 9c d5 3d a5 70 08 3e
       -0.15458782 -0.4342487 0.10430153 0.1332422
000070 f8 d8 3e 3e 56 bf df bc 33 b1 e5 bd 59 54 a4 3d
       0.18637455 -0.027312916 -0.11215439 0.080239005
000080 18 18 a7 bd ed 2a 81 be 40 e7 d1 bc 94 8e 37 bd
       -0.081588924 -0.25228062 -0.025622964 -0.044813707
000090 70 87 d2 3d 02 d1 69 3d 6a ca f0 3d 87 9f 7d 3e
       0.10279739 0.05708409 0.117573574 0.24767886
0000a0 13 24 c5 bd aa 17 c4 bb fb 2d a8 be f0 d1 ba 3d
       -0.09626021 -0.0059842663 -0.3284758 0.09122074
0000b0 89 10 55 be 4b 52 73 3e 23 dc 44 bd 37 4b fc bc
       -0.20807089 0.23761861 -0.0480615 -0.030797584
0000c0 4d 39 c8 bd 92 df bc be cb 86 d1 3d 27 50 85 3e
       -0.09776554 -0.3688932 0.10230788 0.26037714
0000d0 68 95 30 3e 85 ac 76 3e a4 bc 05 3e ac 71 22 3e
       0.17244494 0.24089248 0.13060242 0.15863675
0000e0 f7 a9 4d 3c 43 02 80 3c 8e 1a b1 3d ba 4a 91 3d
       0.01255273 0.015626078 0.08647643 0.07094331
0000f0 97 ef e5 3d 11 38 92 3d fb c8 94 3b a7 a6 d7 3d
       0.11227339 0.071396 0.0045405603 0.10529833
000100 b9 9a 22 3c 0d d1 ab 3e 1e 5b b3 3d 6d 04 54 3e
       0.009924584 0.3355793 0.087576136 0.20704813
000110 45 29 3c 3e 0e c8 ea 3d 8e be 8d 3c 48 78 c2 3d
       0.18375118 0.11463939 0.017302778 0.09495598
000120 c7 83 f1 3d a9 fd f9 3d 50 78 36 3e 88 a7 e3 3d
       0.11792713 0.12206585 0.17819333 0.111159384
000130 53 e2 f2 3d cc bf 0b bf 8c bd 21 3e ac 22 05 3e
       0.11859574 -0.54589534 0.15794963 0.13001508
000140 e6 29 c9 3d 00 10 cc 3d de 1c 37 3e b2 bb 55 3d
       0.098224446 0.09963989 0.17882106 0.052180953
000150 c6 71 e7 bb 92 8f 92 3d bb 18 5c 3e 6c 77 20 be
       -0.0070631234 0.0715629 0.21493809 -0.15670556
000160 31 19 1c be 92 e5 40 3e 53 d3 2a 3d 63 b7 d1 3d
       -0.15243985 0.18837574 0.04170544 0.10240056
000170 73 49 05 3e 4f 13 59 bd a6 b6 e5 3d 31 b0 f4 3d
       0.130163 -0.05299693 0.11216478 0.11947668
000180 02 53 6e 3d c4 64 e4 bc 1f 48 a5 3e 8f 9c 86 3c
       0.05818463 -0.02788008 0.32281587 0.016432075
000190 38 fd 97 bd 63 9a 8a 3d d7 9e 0a 3d 3f fb 7b 3d
       -0.074213445 0.06767728 0.033842888 0.061518904
0001a0 1a 27 95 bd 91 8a 98 3e 6f 96 18 3e a5 0f 8a bd
       -0.07282849 0.29793218 0.14901136 -0.06741265
0001b0 e3 8e cb bc 63 fd c0 3c af 3f dd be be bd a4 3d
       -0.024848407 0.023558324 -0.4321265 0.08044003
0001c0 b1 d8 6c 3d 9c 7b 1b be 99 44 07 3e d5 89 b9 3e
       0.05782384 -0.15183872 0.13209762 0.3623797
0001d0 65 e9 95 3e 6d 1f 56 3e 7e cc c1 3e a0 8e 39 3e
       0.29279628 0.20910425 0.37851328 0.18120813
0001e0 21 00 d0 3d 88 30 cc 3c fd aa f5 3d de 3d b3 3c
       0.101562746 0.024925485 0.11995504 0.021880087
0001f0 d5 31 60 3d 91 c1 08 bf b1 d0 d3 bd dc 06 f1 3d
       0.054735024 -0.5342036 -0.10342539 0.117688864
000200 51 74 bc 3d f9 9c c8 3e d1 5e db 3d 14 4d 74 bd
       0.09201873 0.3918226 0.10711444 -0.05964382
000210 1a 23 07 3e 21 8e e4 bd e9 32 de 3d 29 35 89 ba
       0.13196984 -0.111599214 0.10849554 -0.0010468113
000220 27 ce 04 3f cd 15 07 3e 13 e3 2e 3e 0f 5e 49 bd
       0.51877064 0.1319191 0.1707881 -0.049161967
000230 eb 46 e4 3d ee b3 b9 3d 8b 9c 41 bb 85 a7 53 be
       0.11146339 0.09067522 -0.002954277 -0.20669372
000240 c2 66 96 3d bb 18 29 3e 53 46 89 3d c7 2c 21 3e
       0.07343818 0.1651334 0.067028664 0.15739737
000250 21 55 8c 3d 9d 42 e3 3d 5b a2 8a 3d 0f 98 a8 3e
       0.068521746 0.1109669 0.06769248 0.32928512
000260 db 3f 93 3e c9 ae 7d 3e 1d a5 95 3c 82 e4 74 3c
       0.28759655 0.24773706 0.018267209 0.014947059
000270 29 1f c9 3c c9 fc 78 3c 28 e0 d1 be 38 68 f7 3d
       0.024550991 0.015196987 -0.4099133 0.12080425
000280 fb af 94 3d f7 a0 2d 3e ba 25 d8 bd 81 43 15 3e
       0.07260128 0.16955934 -0.10554071 0.14576532
000290 ab ce 48 be d0 95 a9 3d 25 ad 1f 3e 99 0f e2 3d
       -0.19610088 0.082805276 0.15593393 0.11038131
0002a0 b3 7d 18 3d 6d e3 aa be 3b 10 41 3e 52 9c f5 3c
       0.03722925 -0.33376637 0.18853848 0.029981766
0002b0 ea 63 20 bd 68 18 c1 3d 8b e3 ea 3d 1a 92 f2 3d
       -0.039157785 0.09428483 0.114691816 0.11844273
0002c0 5d da a4 3c 25 92 ab be a1 45 fd 3d 38 50 b6 bb
       0.020123655 -0.33509937 0.12366796 -0.005563762
0002d0 f4 7d 91 be 01 f9 21 be d0 9b 37 3f a3 3c 34 3e
       -0.28416407 -0.15817644 0.71722126 0.17601256
0002e0 91 62 78 be ad e4 3f 3d 4a 65 11 3e cd fc 0d 3e
       -0.2425635 0.04684894 0.14198795 0.13865967
0002f0 69 5a 43 3d b7 a1 bf 3e 18 8f 1e be 0b 8b ae 3c
       0.047693644 0.37428066 -0.15484273 0.021306535
000300 d7 a5 d7 bb fe 8f 93 3d 2b d1 86 3c 06 f4 b1 3e
       -0.006581049 0.07205199 0.016457161 0.34756488
000310 cc 0c f4 be b7 b7 8c 3d bd 96 de 3d ee 9d d7 bb
       -0.47666013 0.06870978 0.10868595 -0.006580106
000320 bd fc 4e be c8 2a ae 3d e2 f2 25 3e b2 67 cc bd
       -0.202136 0.085042536 0.16205934 -0.09980716
000330 9f f2 02 3e 22 5e 61 be 13 eb 07 3e 84 ef 42 be
       0.12787865 -0.22008565 0.13273267 -0.1903668
000340 d1 7a 1d bd b4 04 c4 3e 0e 56 df 3b 51 51 01 3e
       -0.038447205 0.38284838 0.0068156784 0.12628676
000350 47 19 59 3c 2e 0d f4 3d 0c bf d1 be 7a 0e d9 be
       0.0132506555 0.11916576 -0.4096607 -0.42393857
000360 4b 64 2d 3e 95 7e 80 be 1e aa cd bb 25 93 1b 3e
       0.1693279 -0.25096574 -0.006276383 0.1519285
000370 a3 93 00 3c 88 18 82 bc b6 72 ff bd c3 11 3c 3d
       0.007847699 -0.015880838 -0.12473051 0.045915376
000380 dd 18 02 3e 02 d0 37 3e c6 a1 0d bd 8a 68 00 be
       0.12704797 0.17950442 -0.034578107 -0.12539878
000390 38 3d 37 3b 67 59 49 3a e5 27 f1 3d c5 e7 4b bd
       0.0027960073 0.00076808635 0.117751874 -0.04978158
0003a0 b7 11 17 3c ff 42 b9 3e cc d5 3f be 36 51 e4 be
       0.009220532 0.36183926 -0.18733901 -0.4459321
0003b0 f0 a6 45 bd 4e df 9a 3e 2e 11 5e 3e e6 5e 4a bc
       -0.048254907 0.30248493 0.21686241 -0.012351727
0003c0 ef 66 2a 3e 68 f8 ec 3c 4a 3d 92 3d b2 a8 ed 3d
       0.16640829 0.028927043 0.07140596 0.11604442
0003d0 17 69 d0 3d 54 98 01 3f cd 6c 73 bd d7 72 23 3e
       0.10176294 0.5062306 -0.059429932 0.15961777
0003e0 d3 a0 23 3e de 45 f7 3d 5d 15 bb 3d e9 e3 dc 3e
       0.15979318 0.12073873 0.09134934 0.43142632
0003f0 66 39 2b 3e 6f 34 96 3e a9 3d f2 3d 39 09 87 bc
       0.16721115 0.2933688 0.11828167 -0.01648389

fc3_val.bias f4 [4]
000000 18 4f 8a 3e 08 b4 76 3e 21 27 7a 3e aa 12 87 3e
       0.2701347 0.24092114 0.24428989 0.26381427
