checkpoints/DUELING_DQN.pth (torch_old, 45963 bytes, 9 tensors)

fc1.weight f4 [64, 37]
0.027724609 0.033620257 -0.03641604 -0.014037597 0.015996784 0.052259598 0.018589046 0.12741311
0.07136777 -0.19075115 0.004508363 -0.13041225 0.0027885044 -0.0666874 -0.29801235 0.20161039
-0.08155046 0.16012628 -0.039686844 -0.28820455 -0.08155087 0.19078428 0.13533309 0.16825226
0.15362926 -0.05586951 0.1436439 0.0043855254 -0.049730197 0.06466689 -0.1893977 0.122283295
0.1508543 -0.10674037 -0.32795298 -0.040927514 -0.027700758 0.3912764 -0.19376186 -0.19057389
-0.2652356 -1.4648004 -0.059007607 -0.1225511 -0.06472713 -0.06489537 -0.0093698995 0.062429003
-0.02023719 0.027798072 0.040867414 0.054380454 0.06064185 0.034026697 0.071126826 0.07613968
0.008463565 -0.06916777 -0.03663559 -0.06406518 -0.15151428 -0.05626036 0.033852167 -0.019733999
0.051716298 0.029977156 0.064274095 0.031899128 0.11596997 0.063737206 0.03338074 -0.015928866
0.007283189 0.0103533575 0.19267863 -0.00167946 0.09263419 0.030179987 -0.023582835 -0.35139516
-0.1711032 0.20147902 0.16792786 -0.2960098 0.08780329 -0.015608151 -0.14013782 -0.27799496
0.14787589 -0.28612357 0.24277557 -0.022470182 0.03531742 0.022782722 -0.5391852 0.026179612
0.03213862 0.051445507 -0.4100574 -0.12124855 0.19599077 -0.018816413 0.05042595 -0.06497622
-0.22704393 0.074528426 -0.17967065 -0.0743001 -0.03599104 -0.018723277 -0.023915803 -0.048935212
-0.08018603 0.28492144 0.028568164 -0.08694993 -0.19569087 -0.01888314 0.21910155 0.059559934
0.16789927 0.15463541 -0.07120769 -0.021522975 -0.20772958 -0.37283143 -0.058872502 -0.034915507
-0.121789254 -0.10548365 -0.0061275777 0.19852608 -0.1364565 -0.11346547 -0.014445628 -0.6950198
-0.022720965 -0.09586629 0.105376035 0.10012519 0.25020772 -0.012623352 0.3650378 0.07736723
-0.4539113 -0.006492924 0.06665187 -0.008973384 -0.2669244 -0.12925021 -0.016505912 -0.100073025
-0.1650178 0.1402777 -0.40120482 -0.24172372 -0.0036181007 -0.49335456 -0.2233973 -0.04219117
0.061141048 -0.05982798 -0.0050219167 -0.16142006 -0.038118906 -0.028102143 0.040804483 -0.06990788
-0.06390081 -0.13832098 0.049925055 0.07927634 0.142364 0.056145117 -0.033341058 0.16779517
-0.15690678 -0.53453517 0.019579116 -0.10118381 0.08523095 0.20270143 0.38788176 -0.0037278256
0.0074005346 0.008278337 -0.19884725 -0.0029024046 0.0064831683 0.11195624 0.1078456 0.030093923
0.025539834 -0.31342423 -0.42568675 -0.084207885 -0.031664066 -0.12722005 -0.07911327 0.056846093
0.0642781 -0.044942465 -0.18083082 -0.26859376 -0.008918043 0.15892594 -0.015795207 -0.28190845
0.19192751 -0.13152249 -0.06505708 0.017633306 0.09357303 -0.15958923 0.15942842 -0.053300522
-0.17808904 -0.031921186 0.10454403 -0.28382105 -0.10207352 0.030466314 0.09475798 -0.14979468
-0.041230284 0.11560467 -0.04875619 -0.31865412 0.08677584 0.098709695 0.051639915 0.052806374
-0.1856398 0.056563497 0.27604437 -0.06903258 0.011376557 -0.023821164 -0.2935047 -0.07774365
0.2932709 0.15786102 0.050205946 -0.0065980377 0.046166513 -0.26617372 0.06815119 -0.14441687
0.012240977 -0.07857551 -0.020995721 -0.095109925 0.1780219 -0.090315506 -0.085643984 -0.04950182
00000000: b81e e33c 65b5 093d fc28 15bd f3fd 65bc
00000010: b00b 833c 290e 563d 0e48 983c 9578 023e
00000020: 4429 923d 4554 43be e4ba 933b ca8a 05be
00000030: 57bf 363b 6793 88bd 1395 98be f472 4e3e
00000040: ed03 a7bd 25f8 233e ac8e 22bd 8c8f 93be
00000050: 2404 a7bd f45c 433e c294 0a3e 524a 2c3e
00000060: fd50 1d3e 6dd7 64bd 6317 133e 74b4 8f3b
00000070: e4b1 4bbd 1370 843d 78f1 41be aa6f fa3d
00000080: 8d79 1a3e b29a dabd 74e9 a7be 9ca3 27bd
00000090: b3ec e2bc 6155 c83e 8269 46be cd25 43be
000000a0: f6cc 87be 947e bbbf f6b1 71bd 12fc fabd
000000b0: a88f 84bd dde7 84bd 3584 19bc 8eb5 7f3d
000000c0: 77c8 a5bc c8b8 e33c 9764 273d 0abe 5e3d
000000d0: 9763 783d 945f 0b3d f1aa 913d 1fef 9b3d
000000e0: c4aa 0a3c d5a7 8dbd 330f 16bd 9b34 83bd
000000f0: 8f26 1bbe 4371 66bd 92a8 0a3d 32a9 a1bc
00000100: 78d4 533d a792 f53c 23a2 833d a9a8 023d
00000110: aa81 ed3d a788 823d 3eba 083d 417d 82bc
00000120: d1a7 ee3b 21a1 293c 8c4d 453e 5421 dcba
00000130: ffb6 bd3d 053c f73c ca30 c1bc 11ea b3be
00000140: ad35 2fbe 8450 4e3e 48f5 2b3e 998e 97be
00000150: 36d2 b33d 55b9 7fbc 4a80 0fbe 5b55 8ebe
00000160: c76c 173e ca7e 92be 299a 783e 6313 b8bc
00000170: 00a9 103d d5a2 ba3c 0b08 0abf a076 d63c
00000180: c9a3 033d 86b8 523d 0bf3 d1be 2951 f8bd
00000190: ceb1 483e e124 9abc 718b 4e3d 4112 85bd
000001a0: 347e 68be 5ca2 983d 95fb 37be a72a 98bd
000001b0: 576b 13bd 8f61 99bc 13eb c3bc 4a70 48bd
000001c0: 9338 a4bd 39e1 913e c807 ea3c ce12 b2bd
000001d0: 3063 48be d1b0 9abc 285c 603e 1ef5 733d
000001e0: c9ed 2b3e bf58 1e3e 56d5 91bd f350 b0bc
000001f0: 10b7 54be c3e3 bebe 4b24 71bd 9003 0fbd
00000200: a56c f9bd d007 d8bd d9c9 c8bb 6c4a 4b3e
00000210: 41bb 0bbe 9660 e8bd 5bad 6cbc d1ec 31bf
00000220: 5121 babc 8c55 c4bd 64cf d73d 700e cd3d
00000230: 3a1b 803e 2dd2 4ebc 3ce6 ba3e b672 9e3d
00000240: 1067 e8be 98c2 d4bb c780 883d 1a05 13bc
00000250: 51aa 88be 2b5a 04be 6837 87bc 16f3 ccbd
00000260: 6dfa 28be f5a4 0f3e b86a cdbe 6c86 77be
00000270: a81d 6dbb f898 fcbe 43c2 64be a6d0 2cbd
00000280: 096f 7a3d 2f0e 75bd e48e a4bb 4d4b 25be
00000290: 9222 1cbd 7736 e6bc 9a22 273d dd2b 8fbd
000002a0: 6ede 82bd 04a4 0dbe 377e 4c3d a25b a23d
000002b0: dec7 113e 6cf8 653d a290 08bd 7fd2 2b3e
000002c0: 2cac 20be 4cd7 08bf 6264 a03c 7539 cfbd
000002d0: 908d ae3d f790 4f3e 7098 c63e 894e 74bb
000002e0: 2f80 f23b dda1 073c 9d9e 4bbe 4536 3ebb
000002f0: c270 d43b 5049 e53d 27de dc3d 8887 f63c
00000300: ea38 d13c 2479 a0be 9df3 d9be 2f75 acbd
00000310: 2eb2 01bd f945 02be 2306 a2bd 73d7 683d
00000320: 3da4 833d 9715 38bd b72b 39be 1f85 89be
00000330: fc1c 12bc 7bbd 223e f364 81bc 4e56 90be
00000340: a588 443e d5ad 06be a53c 85bd b973 903c
00000350: 37a3 bf3d 5c6b 23be 3441 233e a651 5abd
00000360: f95c 36be cabf 02bd 2e1b d63d fe50 91be
00000370: ec0b d1bd 7e94 f93c 7910 c23d c763 19be
00000380: 16e1 28bd 24c2 ec3d 92b4 47bd a226 a3be
00000390: 88b7 b13d 4f28 ca3d 6084 533d 7f4b 583d
000003a0: 5c18 3ebe 20af 673d b055 8d3e f460 8dbd
000003b0: bd64 3a3c 9a24 c3bc 3f46 96be 1038 9fbd
000003c0: 9a27 963e 52a6 213e c0a4 4d3d 5a34 d8bb
000003d0: 1919 3d3d ec47 88be da92 8b3d 04e2 13be
000003e0: 618e 483c 32ec a0bd 38ff abbc fec8 c2bd
000003f0: 5f4b 363e 56f7 b8bd 1d66 afbd 6cc2 4abd

fc1.bias f4 [64]
0.1821463 -0.025261434 -0.18458393 -0.09703198 0.11408528 -0.1241469 -0.111000575 0.022321839
-0.02872659 -0.171113 0.14618486 0.1728034 0.1964527 0.13268061 -0.054076005 -0.082609706
-0.0051425253 0.034127753 -0.025736453 -0.1308605 -0.1485491 0.10145428 -0.025768066 -0.12420624
-0.119218335 0.12472772 -0.10467456 -0.087505765 0.19585988 0.0740469 -0.096341565 -0.09455235
0.17905065 -0.024896864 -0.084304884 0.0703713 -0.0034400541 0.011077588 -0.021869969 -0.11452322
-0.06728015 -0.1008332 -0.02113385 0.19093044 -0.09229566 -0.08604647 0.08840286 -0.17711982
-0.12826277 0.09248181 -0.13924144 0.11203874 -0.013549899 -0.11376652 -0.18085718 0.057139788
0.04571143 0.030297287 -0.11248537 -0.065329425 0.08142001 0.0076439856 -0.023125956 0.0128164375
00000000: 8f84 3a3e 11f1 cebc 9203 3dbe b4b8 c6bd
00000010: 8ba5 e93d bb40 febd 4554 e3bd 4adc b63c
00000020: 0754 ebbc 3f38 2fbe 7cb1 153e 60f3 303e
00000030: e62a 493e 6ddd 073e cd7e 5dbd 472f a9bd
00000040: a182 a8bb 8bc9 0b3d 41d5 d2bc 4b00 06be
00000050: 411d 18be 43c7 cf3d 8d17 d3bc d75f febd
00000060: be28 f4bd 3f71 ff3d 9e5f d6bd 3936 b3bd
00000070: 7e8f 483e e7a5 973d ba4e c5bd aaa4 c1bd
00000080: 0e59 373e 82f4 cbbc 0aa8 acbd d41e 903d
00000090: 8872 61bb c67e 353c a628 b3bc 268b eabd
000000a0: 2dca 89bd a381 cebd e520 adbc 4583 433e
000000b0: 8205 bdbd 2239 b0bd 8f0c b53d e65e 35be
000000c0: 5157 03be 1a67 bd3d 4f95 0ebe 9174 e53d
000000d0: 6500 5ebc 6cfe e8bd a032 39be 690b 6a3d
000000e0: e93b 3b3d 0432 f83c bb5e e6bd 6fcb 85bd
000000f0: 89bf a63d 667a fa3b a572 bdbc 09fc 513c

fc2_adv.weight f4 [64, 64]
-0.5932146 0.17129302 -0.256499 0.22451216 0.26233214 -0.1061639 -0.1713972 -0.053655285
0.041110195 -0.066097885 -0.008264136 -0.1982696 -0.66780835 0.035778154 0.26669273 0.099360414
-0.123587616 -0.22716685 -0.38797006 -0.14272818 -0.30023912 -0.66905165 0.02791012 -0.19356956
-0.39755008 -0.08908632 0.2539933 0.08547721 0.0870718 0.050875608 -0.22676812 -0.09416908
-0.3500153 -0.003195838 -0.015850015 -0.09852291 -0.05234293 0.29686904 -0.11292892 -0.14160818
-0.07694547 -0.17224284 0.08053419 -0.1518233 0.13077855 -0.020676728 -0.3135466 0.04040436
-0.27892044 -0.0345658 -0.029493563 -0.040559076 -0.5732376 -0.22592774 0.033575222 0.046006083
-0.28239155 0.019248143 -0.21719491 -0.36591214 0.043352656 0.05444561 -0.18219733 -0.5254296
0.10823251 0.14116608 -0.3861397 -0.12813397 0.21154624 -0.08606782 -0.22896175 0.17699528
0.027053932 -0.22521922 0.0069211097 -0.092382185 0.22629285 0.04707769 -0.015714623 -0.040319104
0.04190378 -0.11180181 -0.014593248 -0.0046873256 0.111675546 -0.38573757 -0.12277329 -0.16804045
0.15987341 -0.037107244 -0.31839007 -0.14817591 0.068123214 -0.12523668 -0.057296563 -0.28811908
0.085088134 -0.35568723 -0.043196637 -0.07842891 -0.03291766 -0.0037318068 -0.300323 -0.04742173
-0.32875988 0.26061732 0.22505614 -0.16485985 -0.0051950524 -0.11205854 -0.014587444 0.15043837
-0.27591082 -0.09295726 -0.12799099 0.04278971 -0.13190444 0.001387825 0.13043745 -0.08220807
0.0113419155 -0.17161658 -0.10734933 -0.026509393 -0.23768964 0.01582301 0.13049375 0.0075025437
-0.10438508 -0.0009121321 -0.075250074 -0.24225047 0.21930064 0.16522644 0.034446735 0.039597306
0.30991736 -0.21997318 0.049372453 -0.09125853 0.30742237 -0.04771663 0.13423757 -0.04710831
-0.23969693 0.01016991 0.23488343 0.1836044 0.08203004 -0.030995786 -0.022858746 0.020156803
-0.23469071 -0.061884884 0.2075982 -0.25256595 -0.10067131 0.006256042 0.090650596 -0.154187
-0.07014332 0.002704537 -0.21729423 -0.35782856 0.09252182 0.15916464 -0.052614618 -0.19456771
-0.0039792713 0.04823296 -0.06946229 -0.13753629 0.060558766 0.03941723 0.027140604 -0.3071349
0.12744667 -0.39595047 -0.13678613 -0.21741532 0.07482413 0.19756126 -0.11616937 -0.42712024
0.36806697 -0.110255204 0.28312275 0.25112242 0.08815074 -0.024232542 0.03607624 0.0021607855
-0.05008189 -0.12840413 0.055129454 -0.25639355 -0.03206726 0.13917328 -0.16990817 -0.046581354
-0.027302139 -0.020985458 -0.14246504 0.24517837 -0.26320162 0.04774659 -0.06082083 -0.14943025
0.051689092 0.17298543 -0.1828201 -0.15733092 0.022449488 -0.07045288 -0.122329414 -0.09863235
0.24889505 -0.12606959 0.16659316 -0.0064471997 0.19639423 -0.13891406 0.07274235 0.04950232
-0.23787017 -0.005245688 0.046582814 0.0076533454 -0.018569848 0.028354783 -0.10039741 -0.015078648
0.117245585 0.06177637 0.1524094 -0.11216702 -0.05257765 0.075009495 0.020746317 0.07055396
-0.03689308 -0.025016773 -0.09751622 0.016565237 0.03654939 -0.10975787 0.17079146 -0.25303045
-0.1691253 -0.15023474 -0.24907519 0.15667544 -0.18564337 -0.12610357 -0.10953014 0.028944217
00000000: e9dc 17bf 7067 2f3e d653 83be 84e6 653e
00000010: 6650 863e 756c d9bd bf82 2fbe a5c5 5bbd
00000020: 2a63 283d 545e 87bd 4c66 07bc 3007 4bbe
00000030: 7df5 2abf 1d8c 123d f38b 883e 797d cb3d
00000040: 811b fdbd 6d9e 68be 03a4 c6be 5627 12be
00000050: f1b8 99be f846 2bbf c4a3 e43c 1937 46be
00000060: af8b cbbe e372 b6bd 690b 823e ad0e af3d
00000070: b352 b23d f162 503d e735 68be b8db c0bd
00000080: 3535 b3be 4471 51bb e4d7 81bc 61c6 c9bd
00000090: 8a65 56bd 38ff 973e 4747 e7bd bc01 11be
000000a0: 9695 9dbd 6d60 30be 1cef a43d 9177 1bbe
000000b0: d0ea 053e 3e62 a9bc 2e89 a0be 0b7f 253d
000000c0: a9ce 8ebe de94 0dbd 7c9c f1bc 4621 26bd
000000d0: b3bf 12bf 9a59 67be 2c86 093d e070 3c3d
000000e0: a095 90be 48ae 9d3c 5868 5ebe d658 bbbe
000000f0: 8e92 313d 5c02 5f3d f091 3abe 8e82 06bf
00000100: 02a9 dd3d d78d 103e 1ab4 c5be 8d35 03be
00000110: 949f 583e 5344 b0bd f374 6abe 403e 353e
00000120: 35a0 dd3c de9f 66be 7aca e23b df32 bdbd
00000130: 50b9 673e 89d4 403d f4bb 80bc a525 25bd
00000140: 4ca3 2b3d 59f8 e4bd 8518 6fbc 2398 99bb
00000150: 26b6 e43d 657f c5be 9070 fbbd cc12 2cbe
00000160: dbb5 233e c4fd 17bd 0604 a3be 6dbb 17be
00000170: 2f84 8b3d 0b3e 00be cdaf 6abd 5884 93be
00000180: b042 ae3d a31c b6be f5ee 30bd 569f a0bd
00000190: abd4 06bd 5491 74bb f0c3 99be 4a3d 42bd
000001a0: 3753 a8be a26f 853e 1e75 663e 05d1 28be
000001b0: 423b aabb f37e e5bd 2d00 6fbc 840c 1a3e
000001c0: 2f44 8dbe 6060 bebd 1210 03be 4344 2f3d
000001d0: f511 07be aee7 b53a 6591 053e b45c a8bd
000001e0: 71d3 393c 42bc 2fbe f7d9 dbbd 3a2a d9bc
000001f0: ea64 73be 429f 813c 27a0 053e e6d7 f53b
00000200: d8c7 d5bd 261c 6fba b61c 9abd 8210 78be
00000210: 5990 603e 1f31 293e 0518 0d3d c930 223d
00000220: 7dad 9e3e a640 61be c53a 4a3d c1e5 babd
00000230: 7766 9d3e 8372 43bd 9375 093e a5f4 40bd
00000240: 1d73 75be b29f 263c 4885 703e cb02 3c3e
00000250: 5eff a73d e0ea fdbc 4442 bbbc e11f a53c
00000260: c352 70be 017b 7dbd 9f94 543e 5350 81be
00000270: c32c cebd 7cff cc3b 05a7 b93d 32e3 1dbe
00000280: 4da7 8fbd 9a3e 313b 6182 5ebe 4e35 b7be
00000290: 147c bd3d 0efc 223e 6d82 57bd c23c 47be
000002a0: 8c64 82bb ed8f 453d 3f42 8ebd 50d6 0cbe
000002b0: 780c 783d f673 213d f955 de3c c940 9dbe
000002c0: 6181 023e 05ba cabe aa11 0cbe 1fa2 5ebe
000002d0: 653d 993d 804d 4a3e 35ea edbd 81af dabe
000002e0: 4673 bc3e 7bcd e1bd 77f5 903e 1e93 803e
000002f0: 6088 b43d 5383 c6bc aec4 133d f79b 0d3b
00000300: ab22 4dbd 5f7c 03be 6ccf 613d 0446 83be
00000310: f658 03bd 7183 0e3e 68fc 2dbe 17cc 3ebd
00000320: bca8 dfbc b2e9 abbc 5be2 11be 0a10 7b3e
00000330: 5dc2 86be ee91 433d 431f 79bd 3e04 19be
00000340: f1b7 533d 1823 313e 3135 3bbe 5b1b 21be
00000350: fde7 b73c 9949 90bd d887 fabd c2ff c9bd
00000360: 58de 7e3e 6318 01be 6697 2a3e 0843 d3bb
00000370: 921b 493e 7d3f 0ebe f1f9 943d f2c2 4a3d
00000380: 3d94 73be 05e4 abbb 9fcd 3e3d eac8 fa3b
00000390: cb1f 98bc 4a48 e83c 289d cdbd 6f0c 77bc
000003a0: 741e f03d 3809 7d3d 3611 1c3e d3b7 e5bd
000003b0: a95b 57bd 949e 993d 2ef4 a93c 987e 903d
000003c0: 331d 17bd faef ccbc 95b6 c7bd d2b3 873c
000003d0: d0b4 153d bcc8 e0bd f5e3 2e3e 358d 81be
000003e0: 2f2f 2dbe 23d7 19be 910d 7fbe 876f 203e
000003f0: 4c19 3ebe 4b21 01be 5751 e0bd 6c1c ed3c

fc2_adv.bias f4 [64]
-0.088526584 -0.123644866 0.04980882 0.022506682 0.13804261 -0.1672085 -0.07304882 -0.0038527108
0.13445741 0.09520871 -0.106675215 0.07067836 0.044153307 0.018161546 -0.09233477 -0.044218417
-0.07410216 -0.1063523 -0.057517633 0.054958314 -0.012003206 0.106083706 -0.10354842 -0.11186643
-0.18055882 -0.08891974 0.2492034 -0.13734363 -0.09093082 0.13629173 -0.010549098 -0.21939908
0.052630004 0.0640685 -0.054639444 -0.08857309 -0.11967594 0.0059195436 0.1020309 0.014708471
-0.14168279 0.016408741 0.0331472 -0.046908155 -0.020668551 0.0049484856 -0.19587073 -0.123032786
-0.039162382 -0.021775285 -0.13359292 -0.032635473 -0.019976422 -0.11340906 -0.04205818 -0.19242857
-0.11219432 -0.13057604 -0.083843656 -0.07981774 0.04518693 0.038848422 0.056540284 -0.13263638
00000000: 6d4d b5bd 8539 fdbd 5504 4c3d ef5f b83c
00000010: 0b5b 0d3e b438 2bbe 9f9a 95bd c37d 7cbb
00000020: 34af 093e c9fc c23d 8978 dabd d1bf 903d
00000030: 19da 343d 86c7 943c 031a bdbd 5f1e 35bd
00000040: e0c2 97bd 3ccf d9bd 9c97 6bbd f81b 613d
00000050: 18a9 44bc 6a42 d93d 3211 d4bd 3a1a e5bd
00000060: 69e4 38be 8d1b b6bd 2d2f 7f3e cfa3 0cbe
00000070: f039 babd 0f90 0b3e 20d6 2cbc 27aa 60be
00000080: 8f92 573d 5936 833d 9ccd 5fbd cf65 b5bd
00000090: a918 f5bd bbf8 c13b 94f5 d03d ccfb 703c
000000a0: 4b15 11be a06b 863c 5cc5 073d c422 40bd
000000b0: 1851 a9bc e826 a23b 5692 48be 9df8 fbbd
000000c0: bc68 20bd 1562 b2bc 95cc 08be c6ac 05bd
000000d0: 98a5 a3bc 0243 e8bd 3345 2cbd ff0b 45be
000000e0: 23c6 e5bd bab5 05be 39b6 abbd 7c77 a3bd
000000f0: ee15 393d 861f 1f3d c996 673d d5d1 07be

fc2_val.weight f4 [64, 64]
-0.044950258 -0.12196269 -0.14902458 -0.060929555 0.00023739201 -0.026396887 0.016121963 0.0279796
0.11707898 0.03463644 -0.1249001 0.15662457 0.077132635 0.07441046 -0.0512148 -0.05588015
0.01848456 0.111628056 -0.17948323 -0.21590161 0.035382673 -0.16926089 -0.0063808626 0.080220915
-0.05953744 0.031718068 -0.14303187 -0.25876877 0.11520548 0.072942294 0.029912475 0.0582793
-0.054177962 0.046375632 -0.044749957 0.061953604 -0.057251282 -0.1167376 0.32269555 0.03330323
0.16436175 -0.15738198 -0.049372643 0.020208241 0.15462618 -0.124391645 0.03743175 0.083924316
-0.09457255 -0.096160814 -0.040199447 0.086697854 0.04649341 -0.17850089 -0.038082093 0.19963503
-0.1405774 0.03610495 0.21961297 0.1287291 -0.07138686 0.049080424 0.0534795 0.11362488
0.025790019 0.036875553 -0.15962148 0.036887825 -0.0034341787 -0.077497385 -0.2597021 0.088185705
-0.19064347 0.037113447 0.06561297 0.036454324 -0.016152088 -0.064262316 0.01693384 -0.06880971
-0.23493694 0.002095625 -0.10890388 0.026188027 -0.150182 0.04551282 0.1355148 0.0155319795
0.051661167 0.016201636 0.078187585 -0.04800967 -0.058733456 -0.266113 -0.10696471 0.25990722
-0.12761718 0.032837033 0.13463001 -0.11346854 -0.0967306 0.12978473 0.6176684 0.12365839
0.102378055 0.07388465 -0.061970327 0.100018576 0.014155982 -0.23360793 -0.034897804 -0.019740699
-0.095144875 0.16108713 -0.08736207 -0.22715123 0.10005829 0.3417783 -0.19719066 -0.34752002
-0.034785677 -0.023485217 -0.29063085 -0.35771197 -0.034608416 -0.10930598 -0.16114515 -0.23221248
-0.0482019 -0.08820886 -0.23634945 0.05694612 0.060858756 0.037516218 -0.074139714 0.054818764
0.062377173 -0.0017858142 -0.0053792773 0.25147322 0.12177237 -0.051638145 -0.08413506 -0.013418291
0.014061226 0.065375805 -0.38404465 -0.21595311 0.082039826 0.037186198 -0.1070299 0.0042364076
0.11666641 0.07740491 -0.07368904 -0.18005957 0.16640827 0.14366612 0.059603505 0.10317928
-0.07528509 -0.046931785 0.053588647 0.14264074 -0.086586095 -0.14500679 0.6991017 -0.028397635
0.0810371 0.1364783 0.17170326 0.0051195053 0.122977786 -0.003997433 0.12216807 0.11280562
0.005959466 -0.06905956 -0.13450879 0.1657159 -0.079708956 -0.17711142 -0.14072125 0.2747753
-0.32627043 0.02865703 0.28250626 -0.121413335 -0.066612974 0.0034240012 -0.054511387 -0.06767819
0.103080735 0.1249557 -0.15324634 0.16334514 0.14975788 0.022787368 -0.04575102 0.13370524
0.22778277 -0.17197055 0.07034615 -0.17358147 0.18618345 -0.045866918 0.2580267 -0.2897749
0.03370791 -0.26436555 0.06132021 0.18709098 -0.04860269 -0.0986721 -0.22203612 0.2651665
0.2077738 -0.09775174 -0.14899956 0.12766369 -0.08032992 -0.27128223 -0.13049997 0.12638727
0.06297629 -0.0051041446 -0.18410045 -0.40335163 -0.17363252 0.14271817 -0.15941599 0.32427177
-0.42150536 0.04889714 0.08619845 -0.22592007 0.34474513 -0.13722928 -0.02354536 0.047561828
-0.17456652 -0.057329796 -0.1374502 -0.27869436 -0.025388239 -0.14180695 -0.0020509502 0.0598472
-0.021390779 -0.28381473 -0.115322456 0.09370353 -0.12106136 0.03815308 -0.082699195 -0.1701053
00000000: c31d 38bd 93c7 f9bd e699 18be 4591 79bd
00000010: 6fec 7839 493e d8bc 3512 843c 7935 e53c
00000020: 1bc7 ef3d f1de 0d3d a0cb ffbd 3162 203e
00000030: b7f7 9d3d 8364 983d 9cc6 51bd 96e2 64bd
00000040: ef6c 973c 409d e43d 74ca 37be 5015 5dbe
00000050: 6ced 103d ba52 2dbe 8e16 d1bb dd4a a43d
00000060: 88dd 73bd ceea 013d f276 12be 577d 84be
00000070: daf0 eb3d c562 953d 020b f53c 46b6 6e3d
00000080: b6e9 5dbd 60f4 3d3d bb4b 37bd 10c3 7d3d
00000090: 5280 6abd 1f14 efbd 5a38 a53e f868 083d
000000a0: 724e 283e be28 21be f83a 4abd c18b a53c
000000b0: 5356 1e3e 0cc1 febd 0952 193d 83e0 ab3d
000000c0: 41af c1bd f6ef c4bd 2da8 24bd a58e b13d
000000d0: e06f 3e3d f0c8 36be f8fb 1bbd 206d 4c3e
000000e0: 86f3 0fbe c9e2 133d 39e2 603e 90d1 033e
000000f0: 4633 92bd 8e08 493d 520d 5b3d 29b4 e83d
00000100: 9745 d33c d20a 173d d073 23be b017 173d
00000110: f50f 61bb f3b6 9ebd acf7 84be b59a b43d
00000120: 0b38 43be 4504 183d 1860 863d 2151 153d
00000130: 6251 84bc f69b 83bd d6b8 8a3c 1bec 8cbd
00000140: 4f93 70be c156 093b ff08 dfbd 4688 d63c
00000150: 4fc9 19be a76b 3a3d 64c4 0a3e d879 7e3c
00000160: a99a 533d 4bb9 843c d020 a03d caa5 44bd
00000170: 7e92 70bd f73f 88be 5010 dbbd 8f12 853e
00000180: 14ae 02be 2080 063d 73dc 093e 3262 e8bd
00000190: b11a c6bd 4ae6 043e 841f 1e3f 9c40 fd3d
000001a0: 96ab d13d d650 973d 99d4 7dbd 8ad6 cc3d
000001b0: 7eee 673c eb36 6fbe 00f1 0ebd 3fb7 a1bc
000001c0: 51db c2bd 06f4 243e e3ea b2bd 559a 68be
000001d0: 5ceb cc3d 91fd ae3e 59ec 49be 25ee b1be
000001e0: 6d7b 0ebd 1264 c0bc 91cd 94be 0626 b7be
000001f0: 8ec1 0dbd d0db dfbd 3c03 25be 1cc9 6dbe
00000200: 5b6f 45bd d9a6 b4bd 9705 72be 5640 693d
00000210: 0847 793d 9baa 193d 90d6 97bd a489 603d
00000220: 357f 7f3d fb11 eaba a644 b0bb 19c1 803e
00000230: cb63 f93d 8582 53bd 014f acbd 64d8 5bbc
00000240: 0e61 663c c0e3 853d 80a1 c4be d022 5dbe
00000250: 7f04 a83d 8e50 183d 7e32 dbbd 90d1 8a3b
00000260: ccee ee3d 7786 9e3d 48ea 96bd 8961 38be
00000270: ee66 2a3e 361d 133e ce22 743d a94f d33d
00000280: 122f 9abd 8b3b 40bd c57f 5b3d 6a10 123e
00000290: 0d54 b1bd a97c 14be 54f8 323f 28a2 e8bc
000002a0: c7f6 a53d f8c0 0b3e fbd2 2f3e 86c1 a73b
000002b0: c7db fb3d e6fc 82bb 4133 fa3d a206 e73d
000002c0: a047 c33b 196f 8dbd acbc 09be 6eb1 293e
000002d0: 733e a3bd b25c 35be 3b19 10be 59af 8c3e
000002e0: eb0c a7be 26c2 ea3c a9a4 903e 8ea7 f8bd
000002f0: 626c 88bd 3565 603b 5547 5fbd dd9a 8abd
00000300: fe1b d33d c6e8 ff3d 9cec 1cbe f343 273e
00000310: 215a 193e 93ac ba3c 6c65 3bbd 07ea 083e
00000320: e33f 693e 0c19 30be a411 903d 57bf 31be
00000330: e0a6 3e3e f3de 3bbd 131c 843e 605d 94be
00000340: 4e11 0a3d ec5a 87be e72a 7b3d c794 3f3e
00000350: 9d13 47bd 9914 cabd 705d 63be e7c3 873e
00000360: a8c2 543e 1032 c8bd 5793 18be 45ba 023e
00000370: 0384 a4bd 81e5 8abe c9a1 05be aa6b 013e
00000380: b7f9 803d ab40 a7bb d484 3cbe 1b84 cebe
00000390: b9cc 31be b624 123e f23d 23be f306 a63e
000003a0: 8dcf d7be 5e48 483d d088 b03d 9757 67be
000003b0: 6f82 b03e d585 0cbe 33e2 c0bc 31d0 423d
000003c0: 91c1 32be a6d2 6abd bfbf 0cbe 07b1 8ebe
000003d0: fffa cfbc d735 11be 3c69 06bb 5622 753d
000003e0: b73b afbc 2a50 91be 2e2e ecbd a3e7 bf3d
000003f0: 05ef f7bd 6746 1c3d 325e a9bd 1530 2ebe

fc2_val.bias f4 [64]
0.051962163 0.047994636 0.12949675 -0.1313247 -0.10074535 0.057987645 0.17477629 0.08176699
-0.005672653 0.082929246 0.30564883 -0.1265633 0.38932258 -0.059511617 0.10507434 -0.03287986
-0.13917689 0.04435355 0.04115615 0.13929023 0.13883923 0.3349555 0.07956317 -0.038066894
-0.1254156 -0.039559104 -0.009638424 0.28990543 0.12050199 0.0014390392 -0.08240885 -0.0886768
-0.1259587 0.060031343 0.05468164 -0.18597066 -0.07278571 0.18732321 0.29155898 -0.05382321
-0.0462527 0.066212505 0.0776561 0.012796736 -0.070106 0.07558126 -0.0700017 0.13109356
0.0052576666 0.11156197 0.30777267 0.31798315 -0.1334513 -0.04055229 0.12658866 0.39585721
0.09900141 0.17370547 0.38886875 0.010462514 0.103604354 0.005103273 -0.052576058 0.049786936
00000000: 47d6 543d 0696 443d cc9a 043e fb79 06be
00000010: 9453 cebd 7484 6d3d 8ef8 323e 7475 a73d
00000020: aae1 b9bb cfd6 a93d 017e 9c3e cf99 01be
00000030: 4a55 c73e 74c2 73bd 3731 d73d 08ad 06bd
00000040: 6384 0ebe 11ac 353d 5a93 283d 19a2 0e3e
00000050: df2b 0e3e 4a7f ab3e 04f2 a23d 08ec 1bbd
00000060: f26c 00be ba08 22bd 7bea 1dbc 7c6e 943e
00000070: bfc9 f63d 259e bc3a f9c5 a8bd 2f9c b5bd
00000080: 51fb 00be 6de3 753d dbf9 5f3d 186f 3ebe
00000090: ad10 95bd a8d1 3f3e 3847 953e ba75 5cbd
000000a0: 7973 3dbd 6c9a 873d 290a 9f3d 67a9 513c
000000b0: bc93 8fbd 59ca 9a3d 0d5d 8fbd 643d 063e
000000c0: 8148 ac3b 9a7a e43d 6194 9d3e b0ce a23e
000000d0: 75a7 08be 281a 26bd 75a0 013e ccad ca3e
000000e0: 40c1 ca3d d9df 313e ce19 c73e f76a 2b3c
000000f0: 852e d43d 5b39 a73b fe59 57bd 63ed 4b3d

fc3_adv.weight f4 [1, 64]
-0.2979 -0.32178938 0.116554014 0.17215548 -0.058644883 0.15648882 0.039616283 -0.0447969
0.19345468 0.0026526044 -0.009272411 -0.112061605 0.32197958 0.19011357 0.002633217 -0.15495281
-0.27848592 -0.18679999 0.62295085 0.20385164 -0.19668463 0.25807482 -0.31175268 -0.23439147
-0.20244901 0.03497907 0.05982942 -0.1910666 0.3084333 0.1516067 -0.115736835 -0.07725256
0.098298065 -0.08947584 0.16615187 0.56962305 -0.18025683 0.2678995 0.26363403 0.27766535
-0.19635074 -0.08191636 -0.15285578 -0.19364247 0.2323336 0.17059639 -0.10783853 0.43353373
-0.10280304 0.05508178 0.021904461 -0.17943564 0.43800932 0.0012202563 -0.2798476 -0.22444734
0.12109113 -0.24477144 -0.38020363 -0.16519265 -0.08004123 0.3642523 0.18564343 -0.1196446
00000000: 5986 98be 94c1 a4be dfb3 ee3d 8749 303e
00000010: 9e35 70bd 9b3e 203e af44 223d f47c 37bd
00000020: fc18 463e 51d7 2d3b 50eb 17bc 8e80 e5bd
00000030: 82da a43e 22ad 423e 0d92 2c3b f3ab 1ebe
00000040: b595 8ebe 7f48 3fbe b579 1f3f 7cbe 503e
00000050: b267 49be 6222 843e 0c9e 9fbe 5104 70be
00000060: cb4e 4fbe 3746 0f3d b20f 753d f6a6 43be
00000070: f8ea 9d3e c93e 1b3e 6f07 edbd 9736 9ebd
00000080: 7f50 c93d 1c3f b7bd b723 2a3e d1d2 113f
00000090: 3f95 38be 202a 893e 0afb 863e 272a 8e3e
000000a0: 2b10 49be c4c3 a7bd 3a86 1cbe 364a 46be
000000b0: dce8 6d3e d2b0 2e3e 72da dcbd 22f8 dd3e
000000c0: 668a d2bd 6f9d 613d fc70 b33c fabd 37be
000000d0: c242 e03e 02f1 9f3a 2f48 8fbe 86d5 65be
000000e0: a0fe f73d 5da5 7abe 0daa c2be 4328 29be
000000f0: a8ec a3bd 477f ba3e 5019 3e3e 3a08 f5bd

fc3_val.weight f4 [4, 64]
0.050957218 0.054833014 0.1756868 -0.15757692 -0.2685453 0.14056243 0.1451036 0.08429883
0.052662782 0.1169266 0.093203686 -0.09949839 0.14373717 -0.12241941 0.090490244 0.09267376
0.036517322 -0.06964791 0.047121454 0.07562765 0.082338214 0.13335198 -0.3003949 -0.35197827
-0.03862865 -0.0323789 0.063818574 0.15185894 0.41008928 0.0066180555 0.09140065 0.007679158
-0.18140382 -0.049258538 -0.02426 -0.068029866 0.20312555 0.09283751 0.11523881 0.118173845
-0.07999119 -0.06609338 -0.0943609 -0.1585948 0.1898771 0.09041179 -0.0984162 0.06395835
-0.16459434 -0.48006096 0.15798336 0.1712324 -0.022756508 -0.05563734 0.11310678 0.18598367
0.17723247 0.06782597 0.10238577 0.10947172 0.09168012 -0.5275318 -0.036494933 0.10855146
0.023484712 0.020002918 0.15360017 -0.23215638 0.057216518 -0.03153249 0.040288325 0.05706418
0.10721555 0.14744349 0.16919227 -0.03312695 0.122593045 0.010754837 0.12911849 0.061191093
0.098224446 0.1728108 0.10995061 0.08855046 0.082026236 0.030425103 -0.027931178 -0.11229714
0.41305298 -0.053955525 0.064109124 0.106510445 0.29360127 -0.31698826 0.1514142 0.070634894
-0.026963418 -0.0036799144 0.08739184 0.04388587 0.15498424 0.044955347 0.03749492 0.10144942
-0.28564492 -0.0045894957 0.15900616 0.19865671 -0.1595752 0.11559304 -0.14085726 0.13869824
0.08206776 0.07333238 0.11929075 0.15765972 0.15487352 0.119843215 0.17498118 0.19710356
0.11603439 0.09906283 0.1229662 -0.027616175 0.08803523 0.23784535 0.048454177 0.24752244
0.113092914 0.38679343 0.12860247 -0.57174796 -0.24211366 -0.07043904 0.12576866 -0.1851567
0.29647595 0.16163102 0.17450601 -0.36903146 0.12334272 -0.06009846 -0.02509327 -0.2257808
0.07343818 -0.19910465 0.034764685 0.1969278 0.26655808 0.10358107 -0.25384152 -0.024934078
0.017281704 -0.09642062 -0.015725637 0.02842433 0.23648411 0.5568808 -0.046972897 -0.2514316
0.020248048 0.1293713 -0.01101579 0.12698881 -0.20852003 0.21193422 0.12175059 0.17547724
-0.07315723 0.031473 -0.25216684 0.17399184 -0.43067545 0.042725902 0.19668597 0.17481747
0.22380441 0.117383435 0.1981431 0.09898912 -0.118386656 -0.20251416 -0.061855175 0.16009794
0.021303574 0.08966307 0.11280221 0.20186323 0.058537353 0.13595247 -0.17501462 -0.009700883
-0.011080814 -0.06076847 -0.07358533 -0.05116523 0.08618629 0.20625168 0.07820362 -0.020627394
-0.015523652 0.45906073 0.15715757 0.13465732 0.12682937 0.31233555 0.14890143 0.006509404
-0.0445253 -0.28702655 -0.033492155 0.07309949 -0.04449798 0.14987127 0.11881441 -0.122640386
-0.35341945 -0.00979313 -0.063302755 0.14186671 0.22559485 0.09286698 0.2819874 0.20557904
0.13071828 0.13845432 -0.3672673 -0.16579776 0.13638239 0.010049981 0.14012012 -0.11153013
0.10182904 0.2378917 -0.4460905 -0.6785849 0.052775133 0.093937494 -0.07502074 0.045288324
0.033981692 0.3933651 0.12727173 0.07984583 0.026604254 0.18627025 -0.2694963 0.16243976
0.17500958 0.121992126 0.11599978 0.26505917 0.14237005 0.1780737 0.31256384 -0.075565465
00000000: 84b8 503d 9598 603d 3ee7 333e d85b 21be
00000010: c57e 89be 99ef 0f3e 0a96 143e dda4 ac3d
00000020: eeb4 573d 3777 ef3d 93e1 be3d d0c5 cbbd
00000030: d62f 133e 07b7 fabd f352 b93d becb bd3d
00000040: 3093 153d 90a3 8ebd 6d02 413d abe2 9a3d
00000050: f0a0 a83d 6c8d 083e 5ccd 99be 7f36 b4be
00000060: 1339 1ebd bd9f 04bd 50b3 823d e980 1b3e
00000070: 39f7 d13e 46dc d83b 4430 bb3d 72a1 fb3b
00000080: ecc1 39be 52c3 49bd e8bc c6bc 3e53 8bbd
00000090: 2500 503e 9821 be3d 5302 ec3d 2105 f23d
000000a0: 6cd2 a3bd f75b 87bd 4a40 c1bd ad66 22be
000000b0: 246f 423e d129 b93d 6f8e c9bd 98fc 823d
000000c0: 6b8b 28be 8dca f5be 64c6 213e 8c57 2f3e
000000d0: db6b babc fbe3 63bd 87a4 e73d 8172 3e3e
000000e0: 6e7c 353e 58e8 8a3d a1af d13d b632 e03d
000000f0: c9c2 bb3d 530c 07bf b67b 15bd 3a50 de3d
00000100: 0363 c03c 29dd a33c 5d49 1d3e 67ba 6dbe
00000110: de5b 6a3d 3628 01bd 5f05 253d 21bc 693d
00000120: d493 db3d 6dfb 163e bd40 2d3e 20b0 07bd
00000130: 1012 fb3d 0e35 303c a337 043e 83a3 7a3d
00000140: e629 c93d 50f5 303e c92d e13d f259 b53d
00000150: 5ffd a73d 113e f93c edcf e4bc 0bfc e5bd
00000160: ae7b d33e 7800 5dbd a54b 833d 2622 da3d
00000170: e852 963e 494c a2be 530c 1b3e 07a9 903d
00000180: 63e2 dcbc b82a 71bb 7efa b23d acc1 333d
00000190: 30b4 1e3e 1923 383d 4694 193d b7c4 cf3d
000001a0: 0d40 92be 7b63 96bb 83d2 223e aa6c 4b3e
000001b0: ae67 23be 0bbc ec3d e33c 10be e906 0e3e
000001c0: 2413 a83d 492f 963d b54e f43d 8d71 213e
000001d0: 2a97 1e3e 5c70 f53d 442e 333e 84d5 493e
000001e0: 70a3 ed3d 74e1 ca3d b4d5 fb3d 513b e2bc
000001f0: d14b b43d bb8d 733e e377 463d 8676 7d3e
00000200: 429d e73d ca09 c63e 5eb0 033e 135e 12bf
00000210: a5ec 77be 5842 90bd 80c9 003e b899 3dbe
00000220: b2cb 973e 9a82 253e b4b1 323e b1f1 bcbe
00000230: 1c9b fc3d ce29 76bd 6790 cdbc 1533 67be
00000240: c266 963d 17e2 4bbe 6a65 0e3d 71a7 493e
00000250: 4d7a 883e 5022 d43d 84f7 81be 8d42 ccbc
00000260: 5c92 8d3c 2d78 c5bd 0dd3 80bc 24da e83c
00000270: e428 723e bd8f 0e3f a766 40bd a5bb 80be
00000280: 3cdf a53c e979 043e 927b 34bc 5b09 023e
00000290: 4686 55be 4905 593e 6058 f93d 4eb0 333e
000002a0: 75d3 95bd d5e9 003d 031c 81be eb2a 323e
000002b0: 7e81 dcbe 5b01 2f3d 0c68 493e 5a03 333e
000002c0: fc2c 653e ba66 f03d 06e6 4a3e cfba ca3d
000002d0: b474 f2bd df5f 4fbe da5b 7dbd b7f0 233e
000002e0: d584 ae3c 46a1 b73d d804 e73d 3cb5 4e3e
000002f0: ddc4 6f3d 2037 0b3e 0837 33be 74f0 1ebc
00000300: 4d8c 35bc 5ce8 78bd e8b3 96bd a292 51bd
00000310: 7082 b03d a433 533e 3829 a03d c8fa a8bc
00000320: ea56 7ebc 020a eb3e eaed 203e 9ce3 093e
00000330: 8fdf 013e 72ea 9f3e 9e79 183e d74c d53b
00000340: 2960 36bd 25f5 92be 122f 09bd 2fb5 953d
00000350: 8443 36bd db77 193e f854 f33d e22a fbbd
00000360: 65f3 b4be 5d73 20bc e0a4 81bd 8245 113e
00000370: 5602 673e 0b31 be3d a760 903e 5083 523e
00000380: 03db 053e f8c6 0d3e 760a bcbe e3c6 29be
00000390: d3a7 0b3e ada8 243c a67b 0f3e e969 e4bd
000003a0: be8b d03d e299 733e f965 e4be bdb7 2dbf
000003b0: bd2a 583d 4d62 c03d 79a4 99bd 4080 393d
000003c0: 6330 0b3d 2667 c93e 8553 023e 3686 a33d
000003d0: 2af1 d93c a1bd 3e3e 6bfb 89be 9c56 263e
000003e0: b635 333e 02d7 f93d 4b91 ed3d d6b5 873e
000003f0: 74c9 113e f458 363e 5e08 a03e 11c2 9abd

fc3_val.bias f4 [4]
0.3040504 0.29593942 0.22374421 0.2817916
00000000: 7eac 9b3e 5f85 973e 341d 653e fd46 903e
