checkpoints/INCOMPLETE - DUELING_DQN.pth (torch_old, 45963 bytes, 9 tensors)

fc1.weight f4 [64, 37]
00000000: 6b34 dfbb 042f 523d c39d e0bd 9857 e2bd
00000010: b811 7cbd e2b4 893d 501a 53bc ace3 1d3e
00000020: f660 42bd 4d27 693d 39c5 60bd 9cfa d4bb
00000030: ba95 35be 5b5b 11be 19b5 84bd 8025 633c
00000040: ad61 3f3d 5f03 c13d e355 bebd cf3d 95bd
00000050: 65fc 153d d4a0 fd3d ee71 08bc b821 f43d
00000060: b12e 61bd ed9a 9d3c 5951 0a3e 1e7b 22be
00000070: 094a c2bd bc57 76bd 6cda 60bd 19d0 ff3d
00000080: 5b78 f9bd fd68 85bd 2793 f9bd 3218 23be
00000090: 6181 cbbd 4134 173e 1a70 a73d d26d d53d
000000a0: 4965 db3c 7242 90bd fd48 183d 4a1f 15be
000000b0: bdd4 ccbd e357 a8bd 9603 e73d b09a dc3d
000000c0: ec75 57bd c65c 91bb 87e4 093e b628 343e
000000d0: a1e0 ac3d 1d4e a13c 3ab1 033e 82c0 bfbd
000000e0: 0dba 1c3d 87b7 e0bd ad16 cfbd 0557 93bd
000000f0: ba87 a13d 5a94 a13d ff4f adbd 8fa9 693d
00000100: ea05 dd3d 676e f9bb 1d21 883c 0f05 303d
00000110: f39e f03d 8a8b 283e bbaf d0bd b8e0 44bd
00000120: 7f2b 883d 5471 173e ef1d 243e a758 1b3e
00000130: 418b 2f3d 1434 17be 8ff4 12bc 2449 04be
00000140: cbdd 30be 6825 323e a0d5 133e a999 2cbe
00000150: 1b65 373d ebfd 1bbd ab9b abbb 4cc3 57bd
00000160: c433 8e3d 9bc5 b6bd 73df 353d 2905 fa3d
00000170: f7d1 b43d 8eb3 3c3d f92c 21be 087b bbbd
00000180: 210a d43d 22d6 f03c 28bc edbd b55c b1bd
00000190: 309b 153e 67de 053e 40fe 47bd f7f8 0abd
000001a0: 3adc 18be 356a 823b fe02 f2bd d97b e0bd
000001b0: 7e7e f33b 6106 4d3d 2f5a 88bd d11d bd3d
000001c0: 7e81 7abd eb12 3b3e 3bef ae3d 2206 e1bd
000001d0: 80cf dbbc f7d0 d83c 2233 893d 4647 e93c
000001e0: 8075 aa3d 0320 9a3c b9bb 7dbd fb3c a53d
000001f0: a1b0 0ebe c77c b4bd bb28 57bc c5de 90bd
00000200: cdfc 88bd db6c 12be 5ccd 11bd e5fd 103d
00000210: baaa d7bd 11dc 213d adee ae3d fc96 84bc
00000220: 37aa 0b3d 2c57 fb3b 67ba d63c e9fe e63d
00000230: 7312 2c3e 67b8 a43d 55c6 383e 0816 1a3d
00000240: 2260 f9bd 6ca0 87bd e7c4 053e f80b d7ba
00000250: 481d eabd 97aa f5bd 3609 09be 990e 03be
00000260: 9e4a c4bc 4bc2 c73d 65de ad3d 02e8 20be
00000270: abed e63d e618 0abe 8cc6 a3bc 983c 80bd
00000280: 3306 0dbd 32cd 0ebd 1e7d 13be eeba 01be
00000290: 7cd1 82bd f25c 843c 2780 b1bd 442f 673d
000002a0: 9a5e 0ebe fa3f e1bb 3bb4 0b3e 33d6 64bd
000002b0: aa58 1b3e 38e5 883d a319 2abe a191 ec3d
000002c0: 92f3 eebc c40a 98bd ad3a 043e 675b 00be
000002d0: dacc 523b eaf9 76bb 458c f53d 983e 0a3d
000002e0: 7519 ad3d 375e b03d d9c8 4dbd 5939 42bd
000002f0: 95c8 16be 6c88 bf3d 8e08 073e d6d8 e13d
00000300: f4e9 d9bd 0be5 f03c 4733 c8bd abcb d4bd
00000310: 6273 babd d604 ad3d cfbc f3bd b5a0 db3b
00000320: de50 2bba 379e fd3d 4a4e f4bd d9a6 dcbd
00000330: d7d3 8cbd f19d e13d 3d9a 80bd 9323 2f3e
00000340: 86fd 5f3d 3cea bf3c d919 e53c dc5a 58bd
00000350: a7f4 7f3c a0e5 55bc 4b91 823c 0455 fc3c
00000360: 5d95 e7bd 1635 7cbd 212d a53d 33b6 ecbd
00000370: efc8 363d adc9 233e fc76 8c3d b8de 623c
00000380: 394f f9bd fa86 903d 7be1 ddbd c83b 43bd
00000390: ec58 5bbd 5878 afba 10d8 e43b 6512 163e
000003a0: 0731 253d b860 1e3e c4ce e83d c47f c1bd
000003b0: 0ec9 ad3d 974a c0bd b6da 9cbd 3ad8 863d
000003c0: eff2 813d e55f 013e c2ec 1dbd 8951 c73b
000003d0: c319 d73d 7372 2abe 5faa 013e 3fa9 f3bd
000003e0: 34e2 a53b 4916 96bc 3c4f 61bd f9a0 023d
000003f0: 86c1 083e 2d78 06bd 62bd 97bd 9c8f 28bd
-0.0068116686 0.05131437 -0.10967591 -0.110518634 -0.061540335 0.06723954 -0.012884691 0.15418881
-0.04745575 0.056922246 -0.054875586 -0.0064996015 -0.17732897 -0.14195006 -0.06479854 0.013863921
0.04672401 0.09424471 -0.09293725 -0.0728718 0.036617655 0.12384191 -0.008327944 0.11920494
-0.05497617 0.019238913 0.13507594 -0.15867278 -0.09486777 -0.060142264 -0.054895803 0.12490863
-0.12181159 -0.065141656 -0.1218627 -0.15927199 -0.099367864 0.14766027 0.081756786 0.10421337
0.026781695 -0.070439234 0.037178982 -0.14562717 -0.10001514 -0.08219888 0.11279981 0.10771692
-0.052602693 -0.0044361083 0.13466083 0.17593655 0.08441282 0.019690568 0.12860575 -0.0936289
0.03826337 -0.10972505 -0.10111747 -0.07194332 0.07887216 0.07889624 -0.08462524 0.05704647
0.10792144 -0.007612038 0.016617352 0.042973574 0.11749067 0.1645948 -0.10189768 -0.04806587
0.06648921 0.14789325 0.16027044 0.15170537 0.042857412 -0.1476596 -0.00896944 -0.12918526
-0.17272107 0.17397082 0.1443696 -0.16855492 0.044774156 -0.038083952 -0.005237063 -0.052676484
0.06943467 -0.08924409 0.04440255 0.122080155 0.0882911 0.046069674 -0.15739812 -0.09154326
0.103534944 0.029398981 -0.116081536 -0.086602606 0.1460998 0.13073121 -0.048826456 -0.033928838
-0.1492776 0.003979946 -0.11816977 -0.10961122 0.0074308505 0.05005491 -0.06657826 0.09234203
-0.06115865 0.18268935 0.08541723 -0.10987498 -0.026832342 0.02646683 0.06699206 0.028476369
0.083231926 0.018814093 -0.061946604 0.08068272 -0.13934566 -0.08812862 -0.0131322695 -0.0707374
-0.06688843 -0.14299338 -0.035596237 0.035398383 -0.105306104 0.039516512 0.085416175 -0.016185276
0.034097876 0.007670304 0.02621193 0.11279089 0.16803913 0.080429845 0.18044408 0.037618667
-0.12176539 -0.06622395 0.13063394 -0.0016406765 -0.11431366 -0.11995428 -0.1338242 -0.12798537
-0.023961361 0.09753855 0.08489684 -0.15713504 0.112758 -0.1348606 -0.019992135 -0.06261557
-0.03442974 -0.03486366 -0.14403197 -0.12668964 -0.06387612 0.016157601 -0.08667021 0.05644156
-0.13903275 -0.0068740817 0.13642971 -0.05586834 0.15170541 0.06684345 -0.16611342 0.11551214
-0.029168878 -0.074239284 0.12913008 -0.12534867 0.0032165558 -0.0037685581 0.11989645 0.0337511
0.08452121 0.0861172 -0.05024037 -0.047417972 -0.14724953 0.09352192 0.13186857 0.11027686
-0.10640326 0.029406091 -0.097754054 -0.10390409 -0.09104039 0.08448188 -0.11901247 0.0067025074
-0.00065351825 0.12383693 -0.11928995 -0.10774011 -0.06876343 0.11016453 -0.062794186 0.17103414
0.05468514 0.023427121 0.027966427 -0.052821025 0.0156222945 -0.013055235 0.015938422 0.030802257
-0.11307786 -0.061574064 0.08065248 -0.11558189 0.04462522 0.15994902 0.06858632 0.013847046
-0.12173314 0.07056995 -0.108340226 -0.047664434 -0.0535516 -0.0013387306 0.0069837645 0.14655454
0.04032996 0.15466583 0.113675624 -0.094481975 0.08485614 -0.09389227 -0.07658903 0.06584211
0.06345164 0.12634237 -0.038555868 0.006082718 0.105029605 -0.16645221 0.12662648 -0.118975155
0.005062366 -0.018321173 -0.055007204 0.031891797 0.13355073 -0.032829452 -0.07409169 -0.04115258

fc1.bias f4 [64]
00000000: 136d 0c3e 1232 b0bb 6fd8 fdbd 7493 53bd
00000010: 6890 1f3e d6ba f7bc 4616 74bd 6a2f 823d
00000020: f214 00bc 2afc f7bd 411a 203e 6818 c33d
00000030: b7a9 073e 6053 c83d 0b3e 3abd 1664 50bd
00000040: 001b a83d 5c22 c8bc d34f 3e3d 4380 36be
00000050: 0413 c7bd 18b7 913d 934a 3e3c 4f20 babd
00000060: 5f90 23be 37f7 a73d e4e5 2bbd 781e 31be
00000070: 6f7a 263e c158 b93d bdba a6bd 1268 f3bd
00000080: 5524 353e e33c f93b ddc4 adbd 2062 bd3d
00000090: e64f 8ebc 8774 093a 8849 9fbd 28c1 19be
000000a0: 8ef8 cdbd cd57 1abd 956b 01be 56bd 393e
000000b0: e67b b93c 07a3 3ebd c2ea 923d 27fb 06be
000000c0: ab54 a3bd 2a97 9d3d 8027 fcbd 9f53 c03d
000000d0: cb36 fb3c 979e c4bd 228d 0dbe b739 7f3d
000000e0: 56f9 bb3d b5ee 2bbd 1f18 2abe 57bf c4bd
000000f0: 5146 0d3d e37c ec3c 5c93 7c3d 82c8 db3c
0.13713484 -0.0053770626 -0.12394797 -0.051654294 0.1558243 -0.030240458 -0.059591554 0.063567
-0.007817494 -0.12108643 0.15635015 0.095261395 0.13248335 0.097815275 -0.045469325 -0.0508767
0.08208275 -0.024430446 0.046462845 -0.17822365 -0.09720424 0.071150005 0.01161446 -0.090881936
-0.15973042 0.08201449 -0.041967288 -0.17296779 0.16257642 0.090501316 -0.08141086 -0.11885084
0.17689641 0.007606135 -0.08484814 0.092472315 -0.017372083 0.0005243499 -0.07777697 -0.1501509
-0.10057174 -0.03768139 -0.12638696 0.18138632 0.022642087 -0.046542194 0.07173683 -0.13181745
-0.079751335 0.07694848 -0.123122215 0.093909495 0.030665776 -0.09600561 -0.13823369 0.0623109
0.091784164 -0.041975696 -0.16610764 -0.09606808 0.034490887 0.028868144 0.06166397 0.026829008

fc2_adv.weight f4 [64, 64]
00000000: 8839 21bb 03bc ba3d f5cd 333e d1a2 013e
00000010: 82a8 053e 5055 4cbc d83a 8ebc 4295 2cbc
00000020: 9eee 883d ee9a 503d 6251 e63b 99ad 14bd
00000030: 1003 adbd 9628 d63d 66f7 71bd 1910 96bc
00000040: 0d24 a1bd 4fc8 2dbd 29a7 303d 03c1 be3d
00000050: a01c 43bd 09aa 38bd 588b e43d 603a 88bd
00000060: ae52 68bd 128a b7bc 7910 013e 2acd 0f3d
00000070: 53db 063d bc17 ee3b bb5a a03d f34f 6dbc
00000080: 79bf da3d 2564 2b3d eff4 c83c dafe 4d3d
00000090: 3685 94bd 8542 cf3d cc20 af3d 185f cabd
000000a0: 4966 a3bd 824a 3ebd 36b9 c43d 004f 4abd
000000b0: f452 053e 582e 4cbd 671a bfbd c140 a93d
000000c0: af4d 91bd 47b7 51bc 56c2 f2bc 926f 903c
000000d0: 470f b8bd 46d8 c0bd ba5a 4e3d 93fd 243c
000000e0: b4f7 67bd 1c40 a43c e860 bfbd 7cc0 2b3d
000000f0: 4928 8b3d f51e 1c3e 8edb b7bd d50b 053c
00000100: 22e7 033d b610 d73d 0823 b6bd 5620 693d
00000110: 8850 2c3d b477 883d 03a3 a9bd fea4 5b3d
00000120: 43f3 84bd 4134 b1bd 3c66 623c 81c2 c53d
00000130: 5a87 a9bd 4afb 603d d447 c6bc 1473 233d
00000140: c1fc 9a3d 83d4 cb3c df58 98bd a026 1abd
00000150: a070 703c 2273 f8bd cb7b 2a3c cc76 89bd
00000160: 1711 07bd ae39 0a3d 5a09 c4bd 1408 b2bd
00000170: 81b0 3f3d a208 e9bd 7948 9e3d 7265 c5bd
00000180: 93d0 45bc e835 d23c 0408 4a3d 14e4 9ebd
00000190: 1251 253b 4478 333d da92 db3d ff4e d3bd
000001a0: bda2 7ebd 5acc 213d fd27 37bc 09a0 a8bd
000001b0: 7ddd b4bd cff5 00be e9cd c8bd 609b 80bd
000001c0: 3855 c4bd 5f7f cfbd 0fbb 80bb 56f4 823d
000001d0: 8609 8bbd cd2d d53c a5a2 c8bc 0901 433d
000001e0: 5de5 c5bd 38b3 febb 234f dc3d 1c64 913d
000001f0: fc57 08be 55bb e5bc 79c4 d7bb 5970 61bd
00000200: d8d1 adbd dd05 a1bd 84b3 ba3d a259 c0bc
00000210: 8717 1bbd bda8 093d 98eb 96bd df35 0e3c
00000220: 1004 b33d c3f1 9ebd 295b 0d3d 2bd8 b63c
00000230: 1db3 983d cd5e cc3d d818 d43c 97ed 91bc
00000240: ab83 f0bd 1471 543d 175b 873d 7909 14bd
00000250: edf3 02be 4855 bc3d aaa2 21bc d1e7 e5b9
00000260: 867d 13bd 879b 973d cab0 043e a196 883d
00000270: b4fe 8cbd 31ff 9b3d 1475 ed3d 81ec 693b
00000280: 598f 8abd e358 44bd 3530 12be 412e 8d3d
00000290: 68fa fb3d 926e bb3d cbed 4e3c 8269 16bd
000002a0: 682b 0e3e c0fb 85bd 336d 95bd 35a5 fabd
000002b0: b67b 4dbc e544 a33b 1218 5f3d 67ff bebd
000002c0: 6f7c b13c 64f3 f6bd 5531 d9bd e53a 193d
000002d0: bd03 04be ceab 673d 9fc4 e2bd 1781 e9bd
000002e0: c1be b5bb f98d f7bd 22a0 c83d e710 ba3d
000002f0: fc15 bebb 869e 523d e3d4 d83d 098e 8b3d
00000300: 5e4a edbc 0436 e9bd a4b2 a33d ca1a cebd
00000310: 2049 cdbc 2701 cf3a 1c90 6bbd 393f 81bd
00000320: c271 e3bd 4a8a 7fbc de0e 6cbc 75af e13d
00000330: 6a84 35bd abf7 c23d 9b52 cb3a a666 63bd
00000340: 88f5 12bd e71b 5bbc e178 09bb bc70 16bd
00000350: b119 443d 068d cb3d cbe4 f63b 3517 3e3d
00000360: ac99 9a3d 2da8 0a3d 4ce7 4f3d 6e36 853d
00000370: 721f f93d ca95 f3bd a847 c73c 70cf 69bb
00000380: 7257 e9bc 3b96 6dbd 8065 8b3d 040e e43d
00000390: ed22 e5bd 6ab3 623d dd23 aa3d 5055 f73c
000003a0: d7f4 0a3c 15bd ac3d 68c5 2ebc 0706 22bd
000003b0: ba46 42bc 934f cd3c 2aa6 d13c 6fdb 4abc
000003c0: a43a 213d 818c 283d f976 bdbd 2c7e 073d
000003d0: 7b15 9d3d 0839 443d aaa1 15bc 5123 b73d
000003e0: 523b cdbd 4fc5 87bd cbc4 87bd 6e67 db3d
000003f0: c235 02be c71a bb3c eb81 07be d882 55bc
-0.0024600942 0.09117892 0.17559035 0.12659766 0.13052562 -0.012471512 -0.017362043 -0.010533633
0.066861376 0.050929002 0.0070287446 -0.036298368 -0.0844785 0.1045696 -0.05907383 -0.018318223
-0.07868204 -0.042427357 0.043128166 0.09314158 -0.04763472 -0.045084033 0.1115939 -0.06651759
-0.056719474 -0.022404704 0.1260394 0.03510777 0.032924008 0.007266013 0.078298055 -0.014484393
0.10681052 0.041843552 0.024530856 0.050291874 -0.072519705 0.101201095 0.085511774 -0.09881419
-0.07978494 -0.046457775 0.09605639 -0.049391747 0.13019925 -0.049848884 -0.09331208 0.08264304
-0.07094895 -0.012800044 -0.029633682 0.017631326 -0.08987289 -0.09416251 0.050379492 0.010070222
-0.056632712 0.020050101 -0.09344655 0.041931614 0.06794793 0.15246184 -0.089774236 0.008120497
0.032202847 0.10501234 -0.088934004 0.056915604 0.042068988 0.066634566 -0.08283045 0.053624146
-0.06491711 -0.08652545 0.01381832 0.09656239 -0.082777694 0.054927148 -0.024204172 0.03990467
0.0756774 0.024881607 -0.07438826 -0.037634492 0.014675289 -0.12131335 0.010405491 -0.06712112
-0.032975283 0.033746414 -0.09572096 -0.08692947 0.046799187 -0.113786 0.07728667 -0.0963849
-0.012073654 0.02566047 0.04932405 -0.07758346 0.0025225324 0.043815866 0.10721369 -0.10317802
-0.062166918 0.039501525 -0.011178968 -0.08233649 -0.08831308 -0.12593769 -0.09804899 -0.062796354
-0.09586567 -0.10131716 -0.003928549 0.0639426 -0.06788926 0.026022816 -0.024491617 0.04760841
-0.09662888 -0.0077728294 0.10757282 0.070991725 -0.13314813 -0.028043428 -0.0065847007 -0.055038784
-0.0848729 -0.078624465 0.09116271 -0.02348024 -0.037864234 0.033608187 -0.07369155 0.008679836
0.08741009 -0.07760956 0.034510765 0.022319874 0.07456038 0.09979019 0.025890753 -0.017813487
-0.11743864 0.051865652 0.06609171 -0.036141846 -0.12788363 0.091959536 -0.009865442 -0.00043851
-0.03600838 0.07402711 0.12958065 0.06669355 -0.06884518 0.07617033 0.115945965 0.0035693946
-0.06765623 -0.04793633 -0.14276202 0.06893588 0.123036206 0.09151949 0.012629936 -0.036721714
0.13883746 -0.06542158 -0.07296219 -0.12238542 -0.012541702 0.004982578 0.054466315 -0.09326058
0.02166578 -0.12058142 -0.106051125 0.03740968 -0.12892051 0.05656033 -0.11072659 -0.11401575
-0.0055464213 -0.12087626 0.09796168 0.09085255 -0.0058009606 0.05142071 0.1058748 0.068142004
-0.028966125 -0.11387256 0.07993057 -0.10063703 -0.025059283 0.001579319 -0.05751048 -0.06310887
-0.11105682 -0.0155969355 -0.0144078415 0.11019794 -0.044315733 0.09519895 0.0015512289 -0.055517815
-0.035878688 -0.013373352 -0.002097659 -0.036728606 0.047876064 0.099390075 0.0075345985 0.04640885
0.07548842 0.03385179 0.05075769 0.06504522 0.12164201 -0.11893804 0.02432616 -0.003567662
-0.02848408 -0.0580046 0.06806469 0.11135486 -0.11188302 0.055346884 0.08307622 0.030192047
0.008481226 0.08434502 -0.0106671825 -0.03955653 -0.011857683 0.025062358 0.025591929 -0.012381419
0.039362565 0.04114962 -0.09251208 0.03307931 0.07670113 0.04790595 -0.009132782 0.08942283
-0.1002108 -0.066294305 -0.06629332 0.10713087 -0.1271582 0.022839917 -0.13233154 -0.013031684

fc2_adv.bias f4 [64]
00000000: 32ff ecbc 22bb adbd db0e 363d bcd1 2e3d
00000010: a80b c23d 35f4 f0bd a4d8 bbbd 2ae0 8d3d
00000020: 8880 783d ee92 d53d 238a 18bd 035e f13d
00000030: d37f 553d f112 3cbd 4859 77bd 5886 b93c
00000040: 32e3 b4bb b39c 70bd 60f1 97bd c23a 143d
00000050: 2348 7e3d 1328 ea3d bcb5 80bd 448c 9abd
00000060: 6742 b1bd a637 b3bd db8d ef3d b77d 64bd
00000070: 033c 85bd ecfa b23d eff5 c13d e29e e8bd
00000080: da76 b4bb 5428 173d ae15 7a3c edf2 89bd
00000090: 7a4c babd 8b47 bdbd 7d7c 5f3d 8997 41bd
000000a0: c5b4 dfbd c5a2 f73d 54cd 413d 0598 0fbd
000000b0: ffc5 0b3c 51b4 25bd bcb9 a2bd eb3f 01be
000000c0: 2152 ad3d 038a ccbd 4e91 dcbd d650 df3d
000000d0: 031c a5bd 75a3 4fbd bb73 2fbc db82 f8bd
000000e0: 16e6 e9bd f941 c9bd 1ea9 6d3c 904b 3abd
000000f0: 6bd5 c93d e055 bf3d 8da4 0e3e e79b e9bd
-0.02893028 -0.084829584 0.04444776 0.042680487 0.094748795 -0.11765329 -0.0917218 0.069275215
0.060669452 0.10428415 -0.037241112 0.117855094 0.052123856 -0.0459165 -0.06038788 0.022647068
-0.005520248 -0.05874319 -0.074190855 0.03618885 0.062080514 0.11433425 -0.06284663 -0.07546285
-0.08655243 -0.087508485 0.11696979 -0.055783954 -0.06505587 0.08739266 0.09470736 -0.113584295
-0.0055073323 0.036903694 0.015263958 -0.067357875 -0.09096618 -0.09242161 0.05456208 -0.047263656
-0.10923151 0.12091593 0.047314957 -0.035057086 0.008531093 -0.040455166 -0.07945582 -0.12622039
0.084629305 -0.09987261 -0.10769902 0.1090409 -0.080619834 -0.050692994 -0.010708745 -0.12134334
-0.114208385 -0.098270364 0.014505653 -0.04548222 0.09855159 0.09342551 0.13929959 -0.11406689

fc2_val.weight f4 [64, 64]
00000000: b2e1 22bd 77a0 c43d 9e3f 3b3d fbd6 8fbd
00000010: 1373 d33d f822 5cbd e884 f83d 11e2 c0bd
00000020: 89e1 9b3d ca89 593c 3307 c4bd ade3 993d
00000030: 5753 23bd 30c7 003d 8de6 19bd 2737 c4bc
00000040: 0ad3 a4bc e775 893d 7ad2 79bb c8f5 c63d
00000050: 6f5d 863d 1dc2 3e3c 22fa 833d 61c9 e6bc
00000060: 16d8 b1bd f028 98bd 27e2 85bd 157f c0bd
00000070: 0cd6 093d b34c 2cbc 2550 c4bd 1221 7f3d
00000080: 46e8 b33d 9022 f03d 6ab0 333c 8f5e acbb
00000090: 3a93 b13d 6f52 bdbd dda5 adbb 6115 b23d
000000a0: 6e79 ba3d 838c ea3c bbec 143b 8654 713d
000000b0: 6a3c c53c dced ff3b 7bc7 e03d 4877 f03d
000000c0: 68fb 66bd 9680 f83d 76f5 c1bc df8e 1a3d
000000d0: a80f f93d a99f b4bb 2cae cf3d 7670 1dbc
000000e0: c0ef 5bbd 078c 60bb 623d f43d 7ace 933d
000000f0: 8e59 59bd cbf8 0d3e 7f9a 173d 0e5a f63d
00000100: 140e c83d 7f6d 3bbd b965 c73d 319b 34bd
00000110: 91d5 273c ef0d f73b e823 dcbb 1f90 83bc
00000120: ff32 e8bd d1b3 f7bc cf52 d53d 4e03 e33c
00000130: 55c6 e0bd 4a69 433b f7ba f3bc 4917 273d
00000140: 3e12 efbd 46fc 0e3d 4cd4 b7bd 4b2d 993c
00000150: 2d85 b73d b978 a93d 570a 17bd 543a ea3d
00000160: eb49 16bc ddf9 aabd a518 523d 2cd4 943c
00000170: b285 bfbd 9173 883d 4dcf 103e 85ee 963d
00000180: 378f 44bc e097 d9bd aba1 c73d a625 8dbd
00000190: 4b48 bc3a 967b 03be d7cb 903d 48a8 ee3b
000001a0: 2e8f b13d cc77 863d 7b88 ddbd 9461 ba3d
000001b0: 4e63 f8bd f891 79bd 345f 543d d8c3 68bd
000001c0: 8c24 3a3d eb22 3b3c 0435 b43a 2427 99bd
000001d0: 1749 ae3d 31e2 81bc 94b7 fd3c 9e4e 9e3b
000001e0: b032 56bd 4da7 87bd 9de2 c83d 78d1 d5bd
000001f0: 43e3 5cbd 2f97 07be 5255 aabd 6533 d0bb
00000200: e764 68bc 1daa 533d 9f9b d23d f90f 2a3d
00000210: 5733 013e c653 1f3c b16a 033e f6b5 d23c
00000220: 1e8d 123c 5ad8 3d3d ecb2 b2bd 34be e03d
00000230: b4d5 fd3d 8b5d aebd 65f3 78bd d0aa d83d
00000240: b0e4 2a3d 3c8c 00bd 4448 5fbd dd68 dcbc
00000250: 3b22 babb 20e2 f83d c2c5 88bd d174 e23c
00000260: 3ff3 333d 5036 53bd 02eb d43b 026c 9bbc
00000270: c00a e23d de1c ac3d def5 e83c 483b 68bd
00000280: 5da5 6dbd 49b7 27bd ac88 ec3d 1cc9 d83d
00000290: 93d1 123d a511 d8bd 75a1 493d 34ac 9bbc
000002a0: c648 8c3d 42e1 993d 0b76 f63d 9eb6 b63c
000002b0: 3c42 503c 575b 313c fbbd c03d a805 dc3d
000002c0: 5317 993d 2a7e 32bc bb3e e2bc fad8 003e
000002d0: 8d9e 5ebd e84a 8a3d 14b4 603d 8478 913d
000002e0: 67bc 69bd f078 81bc 377b 443c ca4d 0bbc
000002f0: a73a cfbd fbba a03d 2194 bcbd 34a4 b8bc
00000300: 05b6 eb3c 2419 b03d 45bd 87bc fffc 94bd
00000310: 0000 87bd 332e 47bc 6ab5 7fbd 3c5b 103d
00000320: eaa5 3b3d 4c44 dd3d 3b54 bb3d 91f1 19bd
00000330: 0948 5e3d 9f54 5eba 69ad 493d 635b 4ebd
00000340: bc15 f03d 674b 45bc 0328 aa3d e6d8 c33d
00000350: 9b8e 1cbd 76ca c73d ace1 51bd b40d 873d
00000360: 4540 f8bc 8861 debd 1f69 1bbd ee2a 183d
00000370: 4990 b23d ebdf e0bd c59e bebd 3801 943d
00000380: 1d7e 98bd 0d8a fc3b c589 acbd b0c0 353c
00000390: 6a32 82bd 1624 933c a34e 893d 6da3 663c
000003a0: 3a5f d5bd b4c6 ac3d 72a4 c43d aa7f fbbd
000003b0: 62af cd3d 8ef7 dabd 2604 3d3d 7310 89bc
000003c0: 46a6 a8bc be27 84bd 7376 ac3d 223e 0b3c
000003d0: f5c0 a1bc bbb9 ccbb 14db 933d a705 e53d
000003e0: 6004 abbd 01a8 f3bd 9d15 c1bd 520e 5bbd
000003f0: dd2d edbd 6a50 6cbd 2545 63bd 7473 60bc
-0.03976602 0.09600919 0.045714967 -0.07023426 0.10324683 -0.053744286 0.12134725 -0.09418119
0.07611377 0.01327748 -0.09571686 0.07514129 -0.0398744 0.03143996 -0.037573386 -0.02395208
-0.020120163 0.06711941 -0.0038119839 0.09714848 0.0656079 0.01164296 0.064441934 -0.028172197
-0.08683793 -0.07429683 -0.06537276 -0.09399239 0.033651397 -0.010516333 -0.09585599 0.062287398
0.08784537 0.11725342 0.010967353 -0.0052602957 0.08670659 -0.092442386 -0.0052993135 0.08695484
0.09105192 0.028631454 0.002272411 0.0589185 0.02407666 0.0078103375 0.10975548 0.11741501
-0.056392103 0.12133901 -0.023676615 0.03773391 0.12161189 -0.005512197 0.101406425 -0.009609332
-0.05369544 -0.003426315 0.1192577 0.07217117 -0.05306392 0.13864438 0.037012573 0.12028895
0.0976831 -0.04575872 0.09736199 -0.044093315 0.010243789 0.007539503 -0.0067181475 -0.016059933
-0.11337852 -0.03023711 0.10416185 0.027711537 -0.10975329 0.0029817396 -0.029752238 0.04079369
-0.11673401 0.034908555 -0.08976039 0.018698355 0.08960948 0.08274979 -0.036875095 0.114369065
-0.009172897 -0.08348439 0.051293034 0.018167578 -0.09351672 0.066626675 0.14141579 0.07369713
-0.011997036 -0.10624671 0.097476326 -0.068919465 0.0014364807 -0.12840113 0.07070129 0.0072832443
0.086698875 0.06565818 -0.10817047 0.09100643 -0.12128316 -0.060930222 0.051848605 -0.056827396
0.04544501 0.011421899 0.001374871 -0.074781686 0.085100345 -0.015854927 0.030971326 0.0048311492
-0.052294433 -0.06623707 0.09808848 -0.104403436 -0.05392767 -0.13241266 -0.08317055 -0.006353783
-0.014184213 0.051675905 0.102835886 0.04151914 0.12617241 0.009724563 0.12833668 0.025721531
0.008944778 0.046348907 -0.08725533 0.10973778 0.12394276 -0.08513936 -0.060778994 0.10579455
0.041722 -0.031383738 -0.054512277 -0.026905471 -0.00568035 0.12152505 -0.06678344 0.027643593
0.04393315 -0.05156547 0.0064977417 -0.0189724 0.11037207 0.084039435 0.028437551 -0.05669716
-0.05801903 -0.04094628 0.115495056 0.105852336 0.035844397 -0.105502404 0.049226243 -0.019003011
0.06849818 0.07513668 0.12034234 0.022303876 0.012711104 0.010825 0.09411236 0.10743266
0.07475152 -0.010894338 -0.027617803 0.1258277 -0.054350425 0.067525685 0.054859236 0.07103065
-0.05706444 -0.015804738 0.011992267 -0.008502433 -0.10118609 0.07848164 -0.09207941 -0.022539236
0.028773317 0.08598545 -0.016569743 -0.07274818 -0.06591797 -0.012157011 -0.06242887 0.035243258
0.045812525 0.10804042 0.09146925 -0.03758389 0.054267917 -0.00084812375 0.049237642 -0.050380122
0.117228955 -0.012041903 0.08308413 0.095628545 -0.038221937 0.09755413 -0.051240608 0.065944105
-0.030304084 -0.10858446 -0.03794205 0.037150316 0.087189265 -0.10980209 -0.09307627 0.07226795
-0.07445929 0.0077068866 -0.08424715 0.011093304 -0.06357272 0.017961543 0.06704452 0.01407705
-0.10418554 0.08436337 0.09601678 -0.12280209 0.10043217 -0.106917486 0.046146534 -0.016731476
-0.020587098 -0.06452893 0.0842103 0.0084987 -0.01974533 -0.0062477267 0.0721952 0.11182719
-0.08350444 -0.118972786 -0.094279505 -0.053480454 -0.11581013 -0.057693876 -0.055485863 -0.013699401

fc2_val.bias f4 [64]
00000000: dd4e 19bd e927 0a3d 5cf3 d03c 15ec dbbd
00000010: 61d7 c6bc f976 1c3d 52ef 71bd fb3c cd3d
00000020: 42a7 aabd ebe8 ae3d a63a 9c3c 168c 94bd
00000030: ac6d de3d 880d 1bbd 9534 1bbb f83a 42bd
00000040: 04da fdbd d22d 653d 9532 28bd 564f 9c3d
00000050: 3290 613d 47cf af3d ce58 053d 1263 e53c
00000060: 1bbd ddbd 5c97 92bc 845e fbbc aafc de3d
00000070: 151c 833d a0b0 16bc 59e3 ffbd 8cce cbbd
00000080: 8c0a f1bd 7c85 8b3d a680 9e3d d909 ebbd
00000090: d0d1 afbd 38c4 fe3d 6c65 953d 021e 48bd
000000a0: 7c11 4bbb 324f 793d c6d3 4d3d 19ca e4bb
000000b0: f2ca 44bd ccff 66bd 6fe7 41bd f04e 87bd
000000c0: b736 b7bd 3a6b a13d db6e 183d bc64 683d
000000d0: ae3c 99bd e1f8 2e3a 98ba cb3d 09d0 a73d
000000e0: d011 69bc 0716 74bd 596b 003e c11c 8abd
000000f0: fddd 8ebc 71de eabb bc22 99bc 72ce 393c
-0.037428726 0.033729468 0.025506668 -0.107383884 -0.024272623 0.0381994 -0.059066124 0.10021397
-0.08332683 0.08540519 0.019070935 -0.07253282 0.10860762 -0.0378547 -0.0023682464 -0.04741952
-0.12395099 0.0559519 -0.041063864 0.0763232 0.055069156 0.08584457 0.032555394 0.028001342
-0.10827085 -0.01789444 -0.030684717 0.108880356 0.064018406 -0.009197384 -0.12494535 -0.09951505
-0.1176959 0.068125695 0.077393815 -0.11476488 -0.085849404 0.124397695 0.07294735 -0.048856743
-0.0030985763 0.060866542 0.05025079 -0.0069820997 -0.048045106 -0.05639629 -0.047339853 -0.06606853
-0.08945983 0.0788178 0.037215095 0.056736693 -0.07482277 0.0006674659 0.09947699 0.081939764
-0.014225438 -0.05959132 0.1254095 -0.067437656 -0.017439837 -0.0071676304 -0.01869332 0.011340724

fc3_adv.weight f4 [1, 64]
00000000: ed89 88bd 8217 87bd a1ba bbbc 1841 783d
00000010: 5e16 f9bd 842c a73d 307b 943c d824 adbd
00000020: 56c9 a73d 9ab3 913d 4c34 153d c1d8 2fbd
00000030: ae27 0d3d 16f2 813d a8c8 97bc f09d 4fbd
00000040: b489 493b 38f1 0fbe 21ef a63d 0a18 c73b
00000050: 3c33 6cbd 5229 653b f29a 9abd 0230 12bd
00000060: 65f2 a5bd 1738 003d 3b31 573d 0dbf 67bd
00000070: 7692 833d 02ab 9c3d e854 d6bd cd20 abbd
00000080: 09cf ad3c 91d3 92bd b896 9e3d 43a3 e43d
00000090: f5b7 9dbd 9ff5 863c 5605 873d 7e37 083e
000000a0: f394 01be 1e0b 083d 98f2 babd 6309 edbd
000000b0: 85a8 f73d 4b1a 5a3d e597 03be e8f7 903d
000000c0: 27f5 d7bd 7088 fc3d 1e57 063c 4000 41bd
000000d0: 1566 593c 18a6 02bd 9d3b 41bc c753 bcbd
000000e0: 37ce 6c3d f1e1 cfbd 74a5 103d 636b c8bd
000000f0: eb52 85bd fb0d f23c 52c8 983b da82 debd
-0.06666932 -0.06596281 -0.02291614 0.060608953 -0.12162469 0.081627876 0.018125147 -0.08454293
0.08192699 0.071143344 0.036426827 -0.042931322 0.03446167 0.06345002 -0.018528298 -0.05068773
0.0030752243 -0.14056861 0.08151079 0.0060758637 -0.05766605 0.0034967256 -0.07549085 -0.035690315
-0.08102874 0.03130349 0.052537184 -0.056578685 0.064244196 0.07649805 -0.10465413 -0.08355866
0.021216886 -0.07169259 0.07743591 0.11163952 -0.07701103 0.016474543 0.065928146 0.13302419
-0.12654476 0.033213727 -0.09128302 -0.11574056 0.120926894 0.05324773 -0.12850912 0.07078534
-0.10544806 0.12330711 0.008199481 -0.04711938 0.013268967 -0.03189668 -0.011793998 -0.09195667
0.05781385 -0.10150517 0.03531404 -0.097861074 -0.06509956 0.029547682 0.004662552 -0.10864802

fc3_val.weight f4 [4, 64]
00000000: 26ee 433d 6cf5 16bd c00c c93c 21d7 60bd
00000010: 1272 bfbd 47fa 3cbc 5db6 bc3d 2c90 5e3c
00000020: dd45 a7bd 66fa eb3d 1d99 c5bb 261b cdbd
00000030: 7a43 543d 61e8 bfbd 705f b73d 0766 063d
00000040: 3093 153d 9b61 c5bd a4fc 3a3d f940 08bb
00000050: 0fca 6ebc 9432 443d 2a61 d3bd d50a 9dbd
00000060: 3ba4 d8bd b740 12bd 5fc8 8a3d 92d1 a53d
00000070: 5bc3 583d 0a76 17bd 841c 4e3c 70ce 753d
00000080: 6c69 43bd 973b dabd 1910 80bc dbfc 23bd
00000090: 2cb6 a43d 3260 653d 9d2e 033d 6699 863d
000000a0: 4d4c fcbd da3a 55bd 5831 b8bd d1c9 8fbc
000000b0: fab3 50bd 1451 073c 2ef7 42bd d4eb 373d
000000c0: 2965 c5bd bdaa 5fbd 2703 d53d 9b8d c63d
000000d0: fce8 ce3c d114 47bd 89c7 ccbd 063a d63d
000000e0: f18e 313c 8294 1bbc c3ca a63a 8d3a b4bc
000000f0: e199 a13d 626a 8cbd 6b4c 323b 4019 bb3d
00000100: 0ead 91bc 0201 873d 4086 263d bb34 cfbd
00000110: 4211 053b c340 10bc ba71 8fbd 40c4 33bd
00000120: 6af6 ff3d 3f2d a43d e726 013e c940 023e
00000130: c9d4 233d 4366 05bd f922 3f3d 30ea 71bd
00000140: e629 c93d 7e77 fd3d 524d de3d 06cf cb3d
00000150: dc7b 1dbd b581 2cbd 14ef 10bd af97 03be
00000160: c630 0a3e 7312 65bd fc6c 203c b0ea d8bc
00000170: dc5a 323d e2a5 c1bd 842b b23c 1ce5 df3d
00000180: 9a61 f8bc a78a 0b3d 819a 8a3d b119 f33d
00000190: 5019 e9bd ae7e 50bd 338b acbd 9278 a5bd
000001a0: 9fc1 82bd 40e5 4a3d aec8 da3d 0564 f93c
000001b0: f371 bb3c dbdb 0abc e3a1 d8bd e71f 0a3e
000001c0: 41d2 643d 3987 c1bd a326 fb3c 8d97 d83d
000001d0: f99a b43d 472c 013e 7a46 e03d c3ea d73d
000001e0: 11a3 debc cf62 393d 9608 5c3d 5ab5 c5bd
000001f0: 74a7 4e3d 6d4a 90bd cd13 133e d4dc ba3d
00000200: e73f fb3d 4c19 e73d 5f4b f03d a515 e9bd
00000210: f04f d2bd 03e2 c7bd dfa6 d53d f38f 75bd
00000220: 364b ae3d 7b12 393d 5fce 033e 4a8e 55bd
00000230: 175f 073d 5e79 c5bd 9d67 abbd 6e8a d7bd
00000240: c266 963d c936 f9bc a0b9 8e3b e3a2 dd3d
00000250: f47c 9a3d a28a 4a3d d967 73bd a913 ac3d
00000260: 4c3b d73d 812d ddbd bfa7 adbc b948 adbd
00000270: 3b56 7fbc d237 0d3d 7394 dcbd 3b34 94bd
00000280: 1651 7a3d f95a e43d 5bf2 38bd 4686 9b3d
00000290: 5c77 93bd 0b64 0ebd 1cfb ce3d 95bf 60bb
000002a0: ed28 283d 0bf1 89bd f21c 263d c478 f2bc
000002b0: 690c 3ebd 6980 643d 91f0 463d 0abd be3d
000002c0: 6a6d 40bc 8b41 00bd bc30 cf3d 2407 82ba
000002d0: f4f8 c0bd 1215 a5bd 6cfb 9d3d 31e6 863d
000002e0: aa85 13bd 5694 db3d 7055 853d 9956 853d
000002f0: e6c1 a73c c594 853d 2ea1 0dbc 2154 c8bd
00000300: a14d 37bd 46d8 573a 3959 88bd d55d 4b3d
00000310: 6085 de3d 0bb4 253d c28d a13d f1cb cabc
00000320: 0803 5a3c 14fe 27bd 76bf cd3d 4952 c6bd
00000330: 88cf 413d 41bd 2e3d 66c0 e33d a775 2dbd
00000340: 7820 5ebd 62a7 d63d ae84 a2bd 0658 dcbb
00000350: c876 aabd bc05 953d d205 853d f9de 86bd
00000360: 1903 003b 14d5 09bc 3dbd 02be 901c ca3d
00000370: 0588 ed3c 85a1 8abc d7db b73d 2893 553d
00000380: 90fd 223d 175a fe3c cc92 32bd c3f6 d3bd
00000390: e7e0 463d f734 d7bc 090c 4f3d 9084 dcbd
000003a0: a845 e83c 5db6 ad3d 87f3 783c 16d0 c7bd
000003b0: b391 943d 2e41 fd3d a0e6 58bd 444a d7bc
000003c0: bc3c 933d 576e 983d 8932 113d aef1 673c
000003d0: 7bd9 c83d 6330 ed3d 4002 e4bd fc5b 6d3d
000003e0: 840c ea3d 46e5 433d 11e3 103d 1a86 1d3d
000003f0: 3218 a53d f607 e63b 0657 c83d 3854 c0bc
0.047834538 -0.036855146 0.024542212 -0.054892663 -0.09347929 -0.01153428 0.092144705 0.013584178
-0.08167622 0.11522369 -0.0060302154 -0.10014944 0.051822163 -0.09370495 0.0895375 0.032812145
0.036517322 -0.096377574 0.045651093 -0.002079068 -0.014574542 0.047899798 -0.10321267 -0.07668082
-0.105781995 -0.035706248 0.06776499 0.08096613 0.05292068 -0.036977805 0.012580041 0.060011327
-0.04770796 -0.10655897 -0.015632676 -0.040036064 0.08042559 0.055999942 0.032026876 0.06572227
-0.12319241 -0.05205808 -0.089937866 -0.017552288 -0.05095289 0.008259077 -0.04759901 0.044902638
-0.096384354 -0.054606188 0.10400992 0.09694978 0.02525758 -0.048603836 -0.09998996 0.10460286
0.010837303 -0.009495856 0.0012725223 -0.022000575 0.07890678 -0.068562284 0.0027206193 0.091356754
-0.017782714 0.06591989 0.040655375 -0.101174794 0.0020304476 -0.008804503 -0.070041135 -0.04388833
0.12498172 0.080164425 0.12612496 0.12720026 0.03999785 -0.032568227 0.046664212 -0.05906123
0.098224446 0.12376307 0.108545914 0.09951596 -0.0384482 -0.042115886 -0.035384253 -0.12850831
0.13495168 -0.055925798 0.009791609 -0.026479095 0.04354368 -0.09455468 0.021749265 0.10932371
-0.030319978 0.034067776 0.067677505 0.118701346 -0.11381781 -0.05090206 -0.08424988 -0.080796376
-0.063845865 0.049535036 0.10682808 0.0304432 0.022881484 -0.008475269 -0.105777524 0.13488732
0.055864576 -0.0944962 0.030658072 0.10575781 0.08818621 0.12614547 0.10950942 0.10542824
-0.027177365 0.045260247 0.053719126 -0.09653731 0.050452664 -0.070454456 0.14363022 0.09124151
0.12268048 0.11284122 0.11733126 -0.113810815 -0.10269153 -0.09759905 0.10432219 -0.059951734
0.08510439 0.04518364 0.12871693 -0.05213765 0.03304967 -0.096422896 -0.08369372 -0.1052445
0.07343818 -0.030421631 0.0043556243 0.10822084 0.07543364 0.049448617 -0.05942521 0.084021874
0.10509357 -0.10799695 -0.021198152 -0.08461136 -0.015584524 0.034477063 -0.10770502 -0.07236525
0.061112486 0.11150164 -0.045153003 0.0759397 -0.072005 -0.034763377 0.10106489 -0.003429388
0.041054655 -0.067354284 0.04055495 -0.029598601 -0.046398554 0.055786524 0.048569266 0.093134
-0.011744836 -0.031312507 0.10116717 -0.0009920341 -0.09422484 -0.080606595 0.077139705 0.06586874
-0.036016144 0.10721652 0.065104365 0.06510658 0.0204782 0.06522516 -0.008644385 -0.09781671
-0.044751767 0.00082338264 -0.06657643 0.049650032 0.10865283 0.040454905 0.07888366 -0.02475545
0.013306387 -0.041013792 0.10046284 -0.096836634 0.047317058 0.042660955 0.111206815 -0.04234853
-0.054230183 0.104811445 -0.07935463 -0.0067243604 -0.08323437 0.07276484 0.06495251 -0.065854974
0.0019533096 -0.008412618 -0.12767501 0.09868729 0.028995523 -0.016922722 0.08977478 0.052142292
0.039792597 0.031048818 -0.043597028 -0.103498004 0.048554327 -0.026270373 0.050548587 -0.10767472
0.028353527 0.08482049 0.01519478 -0.09756486 0.072543524 0.12365948 -0.052954316 -0.02628053
0.071893185 0.07442921 0.035448585 0.014156742 0.09807106 0.11581495 -0.11133242 0.05794905
0.114281684 0.047826074 0.035372797 0.038457967 0.080612555 0.007019992 0.097822234 -0.023477659

fc3_val.bias f4 [4]
00000000: 36ac ab3d 2c8e da3d 5410 863c 6830 943d
0.08382456 0.106716484 0.016365208 0.07235795
