checkpoints/INCOMPLETE - VANILLA_DQN.pth (torch_old, 28502 bytes, 6 tensors)

fc1.weight f4 [64, 37]
000000 0a 13 82 3d 11 76 db 3d 1a 42 29 be 79 16 2f be
       0.06351288 0.10715879 -0.16529122 -0.17098416
000010 5e 3d ed bc 73 aa 92 3d ed 7e 22 bb da ae 05 3e
       -0.028959926 0.07161417 -0.0024794892 0.13054982
000020 66 2d ab 3d 59 62 90 3d 9d f5 dd bd e1 69 a3 bd
       0.083582684 0.07050008 -0.10837863 -0.07979179
000030 ab 20 ed bd d1 44 ba 3c bc 17 41 bd 25 57 6e bc
       -0.115784965 0.022737892 -0.047141775 -0.014547144
000040 04 04 d4 3d 64 22 54 3d e1 69 e8 bc c1 6c 89 bd
       0.103523284 0.05179061 -0.0283708 -0.06710196
000050 22 45 a6 3d 63 66 2f 3e d3 62 10 bd a9 49 1c 3e
       0.08118655 0.17128901 -0.035250496 0.15262474
000060 22 7b 9f 3c b9 d7 4b 3c 73 2d 19 3e cf 88 df bc
       0.019467894 0.012441569 0.14958744 -0.027286915
000070 73 9e 60 bd a6 ad a3 3c f9 4c 0e bd 9b 06 01 3e
       -0.05483861 0.019980263 -0.034741376 0.12600176
000080 28 c6 b1 bd 2b 2a db 3c 0b e3 b8 bd 02 91 42 be
       -0.086803734 0.026753506 -0.0902768 -0.19000629
000090 4e fc ba bd 85 9d 19 3e ca ca c5 3d 3d f3 a1 3d
       -0.091301546 0.15001495 0.096578196 0.07907722
0000a0 34 20 17 3d 16 a3 a5 bd 0b 1e 34 3d 5b 1e 10 be
       0.036895946 -0.08087747 0.043973964 -0.1407408
0000b0 ae fd c4 bd 56 2b 53 bd 78 e4 94 3d 78 03 00 3e
       -0.09618698 -0.051555 0.072701395 0.12501323
0000c0 6f 34 34 bd 48 91 3a bd db c8 2e 3e 69 de 17 3e
       -0.043995317 -0.045548707 0.17068808 0.14830936
0000d0 c9 6a 78 3d 1a e5 23 3d 55 57 1e 3e 6b db a9 bd
       0.060648713 0.04001341 0.15463002 -0.08293804
0000e0 94 10 21 3d 02 37 c1 bd a6 30 af bd 2b 9f d4 bd
       0.03932245 -0.0943432 -0.08554201 -0.103819214
0000f0 81 95 e5 3d e4 09 7e 3d de 75 89 bd 69 65 55 3d
       0.11210156 0.06202115 -0.067119345 0.052098665
000100 c2 19 10 3e b3 29 f6 bc 83 5c 12 bc 90 cb a5 3d
       0.14072326 -0.03004918 -0.008933189 0.08095467
000110 2c 5d b4 3d 41 87 5a 3e 9b b7 0b be 78 b4 8f bd
       0.088068336 0.21340658 -0.13644259 -0.070168436
000120 05 b7 99 3d 8c 0b ff 3d 8b f9 3d 3e b0 74 04 3e
       0.07505611 0.12453374 0.18552224 0.12935138
000130 3f 80 b6 3d 8f d5 45 be f1 ea 81 bc 28 e9 b8 bd
       0.0891118 -0.19319747 -0.0158591 -0.09028846
000140 11 87 47 be bb eb 40 3e d0 9b 1e 3e fd 00 38 be
       -0.19485117 0.18839924 0.15489125 -0.17969127
000150 6e 04 45 3d 48 8c fa bd ca 5a a3 3c e9 60 03 be
       0.048099928 -0.12233788 0.019940753 -0.12829937
000160 bf 63 93 3d 54 f1 85 bc 8e 11 06 3d 61 29 01 3d
       0.071967594 -0.016350426 0.032731585 0.031533603
000170 22 24 31 3e e5 44 20 3d 1a 51 10 be 49 80 f4 bd
       0.1729894 0.039128203 -0.14093438 -0.11938531
000180 ee f6 ff 3d c4 1a 3f 3c 61 e0 fb bd a3 ba c1 bd
       0.1249827 0.011664096 -0.12298656 -0.09459426
000190 bb ff 29 3e 25 c0 a8 3d a7 cb 84 bc 82 61 23 bd
       0.1660146 0.08239774 -0.01621039 -0.039887913
0001a0 ee 64 22 be 8b dc 51 3b f2 56 b1 bd 64 e7 1e be
       -0.15858814 0.0032022323 -0.086591616 -0.15517956
0001b0 ef 7f 1c 3b 33 99 9b bd d1 d2 6b bd 07 2a af 3d
       0.0023879965 -0.0759758 -0.057574097 0.08552938
0001c0 13 4e 85 be 65 b0 c0 3d 4f 3e 43 3e 66 a9 62 be
       -0.26036128 0.094086446 0.19066738 -0.22134933
0001d0 e8 73 93 bc 22 c1 07 3d 69 26 d3 bd ad 73 b6 bc
       -0.017999604 0.03314317 -0.103100605 -0.022271955
0001e0 32 69 cc 3d 43 08 16 3d ab b4 64 be 32 b4 fc 3d
       0.09981002 0.036628973 -0.22334544 0.12339057
0001f0 6c 56 78 be cb 9e 1c be 10 8a 92 bd bd 7f 18 be
       -0.24251717 -0.1529495 -0.071552396 -0.14892478
000200 c0 50 14 bd 13 8e 34 be db 42 cc bc 3b f2 60 bc
       -0.03620982 -0.17632322 -0.024934223 -0.013729627
000210 82 1e 48 be 06 f9 6e bb 84 4d 27 3e f5 38 91 bd
       -0.19542888 -0.0036464348 0.16338164 -0.07090942
000220 b7 43 be bd 3a 72 b6 3c 38 dc bf bd dd 2b 06 3e
       -0.09290259 0.022271264 -0.09368175 0.1310267
000230 28 02 23 3e 98 ee 1d 3e c2 a8 6b 3d 60 47 20 3d
       0.15918791 0.15423048 0.057533987 0.03913057
000240 3e c4 42 be 5a 4f 52 bd 2f a8 c9 3d 71 e3 f4 bc
       -0.19020173 -0.051345207 0.098465316 -0.029893609
000250 83 11 7d bd 29 12 2d be 78 6a 09 be 13 71 fe bd
       -0.06178428 -0.16901459 -0.13419521 -0.12423911
000260 65 0e b6 bd 38 c6 c9 3d bb c6 06 3e cc 96 0b be
       -0.08889464 0.0985226 0.13161747 -0.13631743
000270 7a c0 19 3c 98 53 3d be 57 8f bf 3b 3f ef 27 bd
       0.009384269 -0.1848892 0.005845945 -0.040999647
000280 b6 56 9a bd 35 09 f0 bd c2 8c 2f be c5 e0 2e be
       -0.0753607 -0.11720506 -0.17143539 -0.1707793
000290 dd 01 06 bd 62 42 5b 3d 5a ad fd bd 3c 96 44 bc
       -0.03271662 0.053530104 -0.1238658 -0.011998709
0002a0 cb e5 14 be f7 a8 42 bc 1d 39 18 3e 30 57 bf bd
       -0.14540784 -0.011881105 0.14865537 -0.093428016
0002b0 f5 17 01 3e 0d e6 83 3d 14 b9 e3 bd 67 13 e7 3d
       0.12606795 0.06440363 -0.11119285 0.112829976
0002c0 6d 24 91 bd 08 a2 f2 bd 21 a6 15 3e 44 e0 20 be
       -0.07087026 -0.11847311 0.14614154 -0.1571055
0002d0 c3 92 71 3d ff 7b cf bd 60 4d 13 3d a9 86 3d 3d
       0.058977854 -0.10131072 0.035962462 0.046271
0002e0 ae 54 99 3d 92 7e 81 3d 2d 66 fc bc e9 50 0a bd
       0.074868545 0.063229695 -0.03081044 -0.03376857
0002f0 68 e6 0d bd 34 2c f1 3d b0 a4 26 3e cd 4f f6 3d
       -0.03464356 0.11776009 0.16273761 0.120269395
000300 cd eb ff bd d7 e2 be 3d 0c 99 e3 bd d8 e8 99 bd
       -0.12496147 0.0932061 -0.11113176 -0.075151145
000310 77 f9 b3 bd 39 b3 80 3d 52 5a a0 bc b8 eb ff 3b
       -0.08787816 0.06284184 -0.019574318 0.0078100823
000320 cc 26 49 3d 3f 63 e4 3d e5 c9 01 be 47 ed b9 bd
       0.049109265 0.11151742 -0.12674673 -0.0907846
000330 f0 1d 53 bd 77 bb 47 3e 00 27 33 bd 0c 65 bf 3d
       -0.051542222 0.19505106 -0.043738365 0.09345445
000340 cf 71 8d 3d 88 f5 2e 3d eb 8d 9d 3d 84 03 06 bd
       0.06906473 0.042714626 0.07693084 -0.032718197
000350 9c dd 29 3c f8 be 9b bd 48 9e 33 b9 6a 8a f4 3d
       0.010367777 -0.07604784 -0.00017129735 0.11940463
000360 d0 00 05 be b3 4f 00 be 6b 35 28 3e 53 ac e7 bd
       -0.12988591 -0.12530403 0.16426627 -0.11312165
000370 c7 96 04 bc db 2e 1d 3e 40 0b 24 3d 5b d9 0a bd
       -0.008092589 0.15349905 0.04004979 -0.033898693
000380 a4 2e 2a be 66 39 db 3d 45 36 e8 bd b1 e8 81 bd
       -0.16619354 0.10704307 -0.11338476 -0.063432105
000390 07 f9 4b bd a7 17 a1 bd 0a ae 89 bd b8 c0 14 3e
       -0.049798038 -0.078658395 -0.067226484 0.14526641
0003a0 03 31 1b 3d 10 28 17 3e 28 be 39 3d 6b ea cc bd
       0.037888538 0.14761376 0.045347363 -0.10005649
0003b0 18 dd 86 3d 34 f1 33 be 71 b2 bf bd 59 b8 8b 3d
       0.06585139 -0.1757248 -0.09360207 0.06822271
0003c0 26 b2 0a 3d 50 d8 f6 3d 0f e5 a8 bd 1d c5 22 bd
       0.0338613 0.12052977 -0.082468145 -0.039738763
0003d0 02 98 9f 3d 52 72 eb bd 7b 38 18 3d 1e 48 52 be
       0.07792665 -0.11496414 0.03716324 -0.20535323
0003e0 83 f7 85 3b 9a 40 0a bd 98 41 25 be 93 2e cd 3c
       0.0040883436 -0.033753015 -0.16138303 0.025046622
0003f0 28 ee 0e 3e b9 c3 9b bd bb 74 34 be c9 6b 50 3c
       0.13958037 -0.076056905 -0.17622654 0.0127210105

fc1.bias f4 [64]
000000 65 20 33 3e 5b 0f ab 3b b4 36 0b be 1a 64 b1 bd
       0.17492826 0.0052203364 -0.13595086 -0.08661671
000010 e2 53 2b 3e 10 9f 87 bc 28 e0 bc bd 7e b2 ac 3d
       0.16731218 -0.01655534 -0.09222442 0.08432482
000020 9e 65 23 3d 76 53 2a be bd d4 20 3e 4a b9 d2 3d
       0.03989183 -0.166334 0.15706153 0.10289247
000030 2d 03 19 3e 40 d7 cc 3d c6 0b 56 bd eb 47 64 bc
       0.14942618 0.10001993 -0.05225732 -0.013933162
000040 1d c3 f7 3d b9 82 0f bd 98 36 b6 3c 2f ca 39 be
       0.12097762 -0.035036776 0.02224283 -0.18143533
000050 81 15 b5 bd 20 d9 27 3d 99 10 31 3c b8 6b b5 bd
       -0.08841992 0.04097855 0.01080718 -0.08858436
000060 95 5c 49 be 1b 05 0c 3e 63 ea 81 bc 35 f9 35 be
       -0.19664223 0.13673823 -0.015858835 -0.17770846
000070 35 d1 07 3e 98 98 a6 3d ff 96 b4 bd 1c b8 14 be
       0.132634 0.08134574 -0.08817863 -0.14523357
000080 cb a5 31 3e be 44 d7 bb f6 ae 83 bd d7 eb 88 3d
       0.17348401 -0.006569474 -0.064298555 0.06685608
000090 3e 6a a6 bc 84 97 c0 3b 94 ce a0 bd ab e2 2b be
       -0.020314332 0.005877437 -0.07851902 -0.16785686
0000a0 3a b3 0a be 81 9e 2f bd a2 66 0d be 4c 52 29 3e
       -0.13544932 -0.04287577 -0.13808683 0.165353
0000b0 80 f1 0e 3d 18 23 e0 bc 7a 5f 89 3d 71 45 2d be
       0.03489828 -0.027360484 0.06707664 -0.16921021
0000c0 b8 6d cc bd cd 7c 8f 3d c9 ff 0e be e7 1e aa 3d
       -0.09981865 0.07006226 -0.13964762 0.083066754
0000d0 8e 59 a8 bb 9a 49 00 be 19 c5 3e be fc 40 f5 3c
       -0.005137629 -0.12528077 -0.18629874 0.029938214
0000e0 8a 5d b2 3d 86 a6 2d bc 12 fe 15 be 5a 0f d0 bd
       0.087092474 -0.010598784 -0.14647701 -0.10159178
0000f0 d0 e1 fe 3c cf 53 1f 3d 2a 41 91 3a 66 81 0d 3c
       0.031113535 0.038898285 0.0011082042 0.008636808

fc2.weight f4 [64, 64]
000000 0c 4c 27 3c 3c 01 93 3d 7b d0 03 3e 18 03 f0 3d
       0.010211002 0.0717797 0.12872498 0.1171934
000010 50 b3 0c 3e b7 c9 09 be 83 f5 a4 bc 80 8e e8 bc
       0.13740277 -0.13455854 -0.0201366 -0.028388262
000020 c5 66 70 3d 8a a3 e6 3c cd c9 19 bb d4 4f d6 bd
       0.05869176 0.028154153 -0.002346623 -0.10464445
000030 73 fb 92 bd a7 5e 0a 3e 97 36 84 3c 50 dd 9d bc
       -0.071768664 0.1351267 0.016139312 -0.01927057
000040 f0 44 68 bd b0 08 b8 bc ec 5e 1c 3d 81 c3 fe 3c
       -0.05670637 -0.02246508 0.038176462 0.031099083
000050 b3 1c f1 bd dc 68 46 bd 3a 04 f9 3d 5b 43 7c bd
       -0.11773052 -0.048439845 0.12159009 -0.061587673
000060 2f bb 29 bd 6f 84 7a 3c a2 49 13 3e 68 d4 c7 3c
       -0.041438278 0.015290364 0.14383557 0.024393275
000070 aa eb b0 3c 6a f5 37 3d f1 92 b9 3d d6 ad 88 bd
       0.021596748 0.04491178 0.0906123 -0.066737816
000080 f6 5d 1b 3e e5 0f 2e 3d 0a 6b bc 3b 1d 9a 45 3d
       0.15172562 0.042495627 0.0057500647 0.048242677
000090 cd 7e 87 bd 89 d5 a5 3d 14 47 9b 3d 0d 8f e7 bd
       -0.06615982 0.08097369 0.075819165 -0.11306582
0000a0 33 86 3c be 83 81 2d 3a e9 9a 62 bc ae 1b 85 bd
       -0.18410568 0.0006618725 -0.013830879 -0.0649942
0000b0 c2 26 e3 3d 1d 14 6a bd 9f 90 1b be 5d c5 bd 3d
       0.11091377 -0.057148088 -0.15191887 0.0926616
0000c0 60 31 00 be df 13 a3 bc 5d e0 1a bd e3 b2 ad bb
       -0.12518835 -0.019906936 -0.037811626 -0.005300866
0000d0 f2 44 11 bd 10 be 6b be 53 cc e2 3c 82 34 ad bc
       -0.035466142 -0.23021722 0.02768532 -0.021143202
0000e0 73 e2 b2 bd 7f e6 a6 3c 77 e0 61 be 8b 17 84 3c
       -0.08734598 0.020373581 -0.22058283 0.016124507
0000f0 9f f6 3b 3d ee 76 fe 3d 47 42 93 bd a5 6d 8b 3b
       0.045889493 0.12425028 -0.07190376 0.004255014
000100 a6 91 e7 3d 17 e7 f9 3d 35 bc fa bd f9 6b 72 3d
       0.11307077 0.1220228 -0.12242929 0.059185002
000110 63 33 51 3d b6 71 83 3d 4d f4 19 be 00 fc ef 3d
       0.051074397 0.06418173 -0.150346 0.11717987
000120 3a c6 5e bd d0 c8 1c bd dd ee 04 3d 1c 94 d8 3d
       -0.054388262 -0.038277447 0.03245436 0.105751246
000130 29 02 bb bd 4b 26 9d 3d 07 34 2e bd c5 ba 6f 3d
       -0.091312714 0.076733194 -0.042530086 0.058527727
000140 69 fb 04 3e 7e cb b8 3c e2 ea 91 bd 9e f4 42 bd
       0.1298653 0.02255797 -0.071248785 -0.047596566
000150 0c 9c 08 3d 7d 6f bd bd b8 f5 52 3d 11 3e dd bd
       0.033351943 -0.0924978 0.051503867 -0.10802854
000160 7a aa a6 bc b8 55 c9 3c 1d b7 06 be a0 26 77 bd
       -0.020344961 0.024577007 -0.1315579 -0.06033957
000170 27 fe a8 3d 7e 60 c4 bd 20 44 a9 3d 75 71 c4 bd
       0.08251601 -0.09588717 0.08264947 -0.09591953
000180 9b 97 38 bc 2a 2d 52 bb b5 9e a0 3d 57 6c d0 bd
       -0.011266614 -0.0032070377 0.07842771 -0.10176914
000190 95 2f 2b 3d f1 6e 3b 3d d2 85 b9 3d 4c b7 d3 bd
       0.041793425 0.0457601 0.09058727 -0.103376955
0001a0 9a cd 9b 3a 99 57 41 3d 9e e8 d8 bb 4e 11 ba bd
       0.0011886836 0.04720268 -0.006619527 -0.09085332
0001b0 22 6b 94 bd 3f 15 91 bd 60 0a c2 bd 9b b9 9a bd
       -0.072469965 -0.070841305 -0.09474635 -0.07554933
0001c0 9e 05 cc bd 4d 0d ba bd 95 db 5c 3c a5 92 97 3d
       -0.09962009 -0.09084568 0.013480087 0.07401017
0001d0 17 01 7d bd ae 63 ec 3a 08 87 80 3d e8 1a 85 3d
       -0.061768617 0.0018035078 0.06275755 0.064992726
0001e0 2f 9c 85 bd 05 03 3d 3d 88 36 e2 3d 1c 8e 99 3d
       -0.0652393 0.046145458 0.11045557 0.07497808
0001f0 27 8e 02 be b9 07 39 3b c3 f1 53 3d 48 16 20 bd
       -0.1274954 0.0028233363 0.051744234 -0.03908375
000200 97 9f 9b bd e0 07 a3 bd 70 b3 da 3d ac 2d 96 bd
       -0.07598799 -0.079604864 0.10678756 -0.0733293
000210 cd 61 9d 3d 4a ae 80 3d 4f 60 c4 bd 23 23 74 3c
       0.0768467 0.06283243 -0.09588682 0.014900955
000220 ef 02 0b 3e 39 6d e0 bd 11 86 f6 3c 4b d7 cf 3c
       0.13575338 -0.109583326 0.030093225 0.025371214
000230 08 70 98 3d ff 64 04 3e 5a 48 1d 3b a8 99 44 3b
       0.07443243 0.12929152 0.0023999424 0.0029998813
000240 c4 d9 ef bd f6 12 57 3d 08 3c 6d 3d 14 25 89 bd
       -0.11711457 0.052508317 0.05791858 -0.06696525
000250 47 22 c1 bd d6 49 cf 3d aa e4 0b bd 6a 89 a6 3c
       -0.09430366 0.10121505 -0.034153618 0.020329196
000260 48 af e9 bc 3f c8 b9 3d 02 78 f8 3d 4d 7c ac 3d
       -0.028525963 0.09071397 0.12132265 0.08422146
000270 a7 31 71 3d 8f 6f 4c 3d 03 ff 92 3c e2 d7 fe 3b
       0.058885243 0.049911078 0.017943865 0.0077772
000280 e4 37 e6 bd e6 dd 39 bd 96 4f 0e be 57 39 c6 3d
       -0.11241129 -0.045377634 -0.13897547 0.096789055
000290 8d 27 f8 3d 8a bd 09 3e b6 82 d3 3d fa da 8e 3d
       0.12116919 0.1345121 0.103276655 0.0697536
0002a0 83 55 d8 3d 23 5d 32 bd d8 24 4a bd fa 62 df bd
       0.10563185 -0.043545853 -0.049351543 -0.1090755
0002b0 21 8d 18 bd 9b 3b 9b 3c 45 ef e8 bb aa 05 dc bd
       -0.037243966 0.01894932 -0.0071086013 -0.10743268
0002c0 ec 4b 13 3b 37 c6 11 be 15 0d eb bd fe 96 32 3d
       0.0022475673 -0.14235769 -0.114771046 0.04360103
0002d0 6c 3d ed bd 48 1a a4 bc 56 4a c2 bd 39 c7 8f bd
       -0.11583981 -0.020032063 -0.09486835 -0.070204206
0002e0 b0 a2 2e 3d 1c cc 2a be 0d 1f b4 3d b6 e0 d5 3d
       0.04263562 -0.16679424 0.08794985 0.10443251
0002f0 89 d0 43 bd b2 68 70 3d d9 f9 58 3d ee f0 16 3d
       -0.047806296 0.058693595 0.05297265 0.036850862
000300 99 a4 bd bc 1e 09 07 be d2 76 55 3d ed 7b 0b be
       -0.023149775 -0.13187072 0.05211527 -0.13621493
000310 cd 78 19 bd 46 c2 24 3b 24 1e 84 bd c3 72 8d bd
       -0.03746872 0.002514021 -0.06451061 -0.06906655
000320 f1 59 f5 bd af 79 b2 bc 6c 67 6f bc 65 d4 d8 3d
       -0.119800456 -0.021786539 -0.01461206 0.10587386
000330 c5 bc 8c bd bd 4f b9 3d 30 12 40 3c 96 d3 a6 bd
       -0.068719424 0.09048412 0.011723086 -0.081458256
000340 d7 60 0f bd 3d 04 e0 bc bf 48 04 bd 76 c8 71 bd
       -0.035004463 -0.027345771 -0.03229594 -0.059029065
000350 a3 b9 a7 3c 74 5b ad 3d c5 a9 9c 3c 2e 58 7a 3c
       0.02047426 0.08464709 0.019123921 0.015279813
000360 4c 51 88 3d 4e 00 41 3d 05 6a 3d 3d 6a 17 7b 3d
       0.06656131 0.04711943 0.046243686 0.061301626
000370 ea 7b d6 3d 32 01 f1 bd 10 54 af 3d ef ef 47 bd
       0.104728535 -0.11767806 0.085609555 -0.048812803
000380 0d a9 10 bd 36 91 a8 bd eb 37 7e 3d c9 52 b9 3d
       -0.03531747 -0.08230822 0.062065046 0.09048993
000390 4d d1 f2 bd 36 09 80 3d 24 d7 42 3d b0 8d 88 3c
       -0.11856327 0.06251757 0.047568455 0.016669124
0003a0 e4 44 ec 3c 86 cc a6 3d 07 ab f9 3c dd 80 14 bd
       0.028841443 0.081444785 0.03047706 -0.036255706
0003b0 c5 f4 d3 bc e6 a6 a7 3c d0 ad c4 3c 92 fd ed bb
       -0.025873551 0.020465326 0.024008662 -0.007262894
0003c0 bd 8a fd 3c 0b 48 97 ba 0d 40 e4 bd 7e e6 b1 3c
       0.030949945 -0.0011541856 -0.11145029 0.021716353
0003d0 8f e1 7c 3d 62 78 a4 3d cb 26 07 bd a9 6f b2 3d
       0.061738547 0.08030774 -0.03299598 0.08712704
0003e0 f5 8f 01 be 25 15 7d bd 8f 26 77 bd 12 93 ad 3d
       -0.12652571 -0.061787743 -0.060339507 0.08475317
0003f0 00 b3 01 be ca c5 01 bc ca 5b 05 be 3c 13 4d bc
       -0.1266594 -0.007920692 -0.13023296 -0.012516793

fc2.bias f4 [64]
000000 ed 4b b1 bc 9c e8 fd bc c7 5b 56 3d 40 40 25 3d
       -0.02164265 -0.030994706 0.05233362 0.040344477
000010 86 7e ea 3d b4 1e 17 be a4 d8 bb bd e5 c9 98 3d
       0.11449914 -0.14757806 -0.0917218 0.07460383
000020 e9 0d 55 3d 09 8d e2 3d fb f6 2f bd 67 be 20 3e
       0.05201522 0.110620566 -0.04296015 0.15697633
000030 cb e4 88 3d 57 3e 81 bd 48 59 77 bd 36 65 03 3d
       0.06684264 -0.063107185 -0.06038788 0.032078944
000040 16 c7 01 3d 63 2c 41 bc b2 7d 90 bd 3f 7c 87 3d
       0.031684004 -0.011790368 -0.070552245 0.06615495
000050 fc 66 9c 3d 42 dd 1c 3e 2f 96 99 bd e5 04 b8 bd
       0.0763683 0.15318778 -0.07499348 -0.089853086
000060 9f a4 90 bd 13 9a c0 bd 1f 81 d5 3d 55 3e 6d bd
       -0.07062649 -0.09404387 0.104250185 -0.057920773
000070 5d a9 5e bd 89 ee c9 3d 97 f7 ad 3d aa 54 b8 bd
       -0.054360736 0.0985995 0.0849449 -0.090005234
000080 9f 5e d5 bb fb d7 88 3d c9 20 c1 3c d6 c2 83 bd
       -0.006511524 0.0668182 0.023575203 -0.064336464
000090 39 96 c5 bd 93 89 d9 bd 01 81 62 3d 17 63 31 bd
       -0.09647793 -0.10621943 0.05529881 -0.04330739
0000a0 23 74 ca bd eb 51 14 3e 78 92 86 3d 39 43 44 bd
       -0.098854326 0.14484374 0.065709054 -0.04791567
0000b0 0a b9 31 3d da f6 c3 bd e5 7e 73 bd b3 12 04 be
       0.043389358 -0.095685676 -0.059447188 -0.12897758
0000c0 c7 98 9a 3d 12 bf d8 bd 08 7a db bd d9 f8 f2 3d
       0.07548671 -0.10583319 -0.10716635 0.1186387
0000d0 1b a7 80 bd 62 56 36 bd 0a 2b d0 3c 39 9b ec bd
       -0.06281873 -0.044515975 0.025411148 -0.11553044
0000e0 35 51 03 be 6a 79 f4 bd 31 01 a8 bc 03 dd 49 bd
       -0.12823947 -0.119372204 -0.02050838 -0.04928304
0000f0 4a ce 9a 3d 78 3f c9 3d f8 c4 e3 3d 88 24 fe bd
       0.07558878 0.09826559 0.11121553 -0.124093115

fc3.weight f4 [4, 64]
000000 75 5f f6 bd a2 fb 95 3d 34 c1 05 3e 73 2b 9b bd
       -0.12029926 0.07323386 0.13061982 -0.07576647
000010 0d b7 0a 3e 5d cf 70 bd e0 14 f3 3d 37 91 b4 bd
       0.13546391 -0.058791507 0.11869216 -0.0881676
000020 4a 51 71 3d 94 f9 da bb 2d 9f e1 bd 76 72 04 3e
       0.058915414 -0.006682584 -0.110166885 0.12934288
000030 a7 ad 22 bd 94 49 80 bc 30 50 1c bd 65 95 7f bc
       -0.03971639 -0.015660085 -0.03816241 -0.015599583
000040 1f b3 3e bc 20 b4 34 3e 66 f6 5a bc c4 34 b5 3d
       -0.0116393855 0.17646837 -0.01336441 0.08847955
000050 91 19 3e 3d 37 da e1 b9 19 48 5d 3d 9e 3c 09 bd
       0.0464111 -0.00043077927 0.054023836 -0.033505075
000060 b3 2b f8 bd 30 a0 a8 bd 88 ad a3 bd 40 af af bd
       -0.1211771 -0.08233678 -0.07992083 -0.08578348
000070 2b dd 78 3d cb 39 51 bc 12 1a ca bd 22 4f 46 3d
       0.060757797 -0.012770127 -0.09868254 0.04841531
000080 4e 70 b0 3d c7 0f e1 3d ad a4 46 3b e5 68 aa bd
       0.086151704 0.109893374 0.0030310557 -0.08320788
000090 78 af b7 3d 04 b5 8f bd 53 fb aa 3d c4 b1 98 3d
       0.08969015 -0.07016948 0.083487175 0.07455781
0000a0 22 b3 b6 3d aa ec 63 3c 7c 68 0c bb e4 65 3a 3d
       0.089208856 0.013911406 -0.0021424582 0.045507327
0000b0 84 93 0b 3d f9 6b d4 bb 4a 43 6e 3d c9 55 99 3d
       0.03407623 -0.006482598 0.05816964 0.07487065
0000c0 21 68 44 bd 42 72 ef 3d 0f a7 ef bd 7f 39 52 3d
       -0.047950868 0.11691715 -0.11701786 0.051324364
0000d0 b8 7e 55 3e 20 5f 47 bd a1 0f 43 3d 02 4f 6b bc
       0.2084912 -0.048674703 0.047622327 -0.014362099
0000e0 13 2e 95 bd 5c b5 6e 3b 28 c4 e0 3d d5 7e 67 3d
       -0.072841786 0.0036424017 0.10974914 0.05651744
0000f0 54 b3 f3 bc a9 ab f0 3d 8e e7 4f 3d 11 2c c9 3d
       -0.029748596 0.117514916 0.050757937 0.09822858
000100 27 a6 34 3e e6 ef e9 bd 7e 3f 05 3e b3 a6 c4 3c
       0.17641507 -0.1142271 0.13012502 0.02400527
000110 c2 c4 27 3d 26 51 51 bd 80 84 e1 3a e4 0e 26 bd
       0.040959127 -0.05110278 0.0017205626 -0.040541545
000120 1c a5 f8 bd 4e 60 26 3c e8 24 8c 3d 97 88 7b 3d
       -0.12140867 0.010154797 0.06842977 0.06140956
000130 f2 fc c5 bd dc 0f 9f 3c 60 de a5 bc 05 31 4e 3d
       -0.09667386 0.019416742 -0.020247638 0.050339717
000140 e1 44 30 be ce 9a 34 3c 18 f5 b6 bd cb 83 86 3c
       -0.17213775 0.011023236 -0.08933467 0.016420266
000150 5c b0 a7 3d 80 12 d2 3d e6 55 0c bd 24 7f d0 3d
       0.08187935 0.10257435 -0.034261607 0.101805
000160 43 ae 37 3d 71 7a 80 bd 4c d0 29 3d 4c b9 b4 3d
       0.044843923 -0.06273354 0.041458413 0.08824405
000170 6e 52 c2 bc 5b 96 e0 3d 65 ab ac 3d 68 7e 8f 3d
       -0.023720946 0.10966178 0.084311284 0.07006532
000180 75 4c ab bc d8 b1 ec bd 06 35 ea 3d 11 03 88 bd
       -0.020910481 -0.115573585 0.11435895 -0.0664121
000190 cb d0 14 3d 88 4e 28 be cb 63 a7 3d 40 eb 9e 3c
       0.036331933 -0.16436207 0.08173331 0.019399285
0001a0 91 fb 3e 3e 52 1b 7e 3d e6 82 ea bd 0b 7d 87 3d
       0.18650652 0.062037773 -0.11450748 0.06615647
0001b0 41 60 f7 bd be c8 61 bd 19 f6 ba 3d ad 9c 62 bd
       -0.12078906 -0.055123083 0.09128971 -0.0553252
0001c0 59 3c 2b 3c e1 34 81 bc f0 58 eb bb 64 66 5b bd
       0.0104514 -0.015772285 -0.007182233 -0.053564444
0001d0 21 25 c1 3d c3 b7 89 3c 4a a3 69 3d bd df e2 3c
       0.0943091 0.016811257 0.05704049 0.027694577
0001e0 f9 2d 9e bd 02 ba 8a bd 5a 0d 93 3c ed fe 63 bd
       -0.07723612 -0.067737594 0.017950702 -0.055663038
0001f0 33 93 1c bd 06 4b c5 bd dd 28 a7 bd c8 9c 89 3c
       -0.038226318 -0.0963345 -0.08162091 0.016798392
000200 de 39 37 bd d9 fe 63 3d c0 8c 02 3e 10 2e 4f 3d
       -0.04473292 0.055662964 0.12749004 0.050581038
000210 29 17 10 3e 98 8f 2b 3d a4 f9 f6 3d 2f e2 6c 3c
       0.14071335 0.04188499 0.12059334 0.014458223
000220 8d 17 4e 3b 02 b6 28 3d 82 74 e2 bd f4 5e f5 3d
       0.0031447143 0.0411892 -0.11057378 0.119810015
000230 9d 0b df 3d 6a 84 b0 bd 66 5c 98 bd 28 86 e4 3d
       0.10890887 -0.08619006 -0.074394986 0.11158401
000240 7b f3 2c 3e 57 42 ce bd c9 3f 58 bd be 9f 28 bd
       0.16889755 -0.10071247 -0.052795205 -0.041167967
000250 de 81 03 bd ff b2 eb 3d 30 ce 8f bd 90 5d a9 3c
       -0.032106273 0.1150875 -0.07021749 0.020674497
000260 39 e7 0f 3c 38 f7 7d bd 23 cb 35 bc 61 9e c6 3b
       0.008783155 -0.062003344 -0.011095795 0.0060613607
000270 6c a9 33 3e 59 0e ca 3d dc db 64 3c 7f 25 9a bd
       0.17545098 0.09866018 0.013968434 -0.07526683
000280 6a 0a ab bd 53 e6 6c bd 09 0b e5 3d db d7 27 3e
       -0.08351596 -0.05783684 0.111837454 0.16390936
000290 da 4f 21 3d 10 76 a1 bd 02 d1 84 3d cf fd 03 bd
       0.039382793 -0.07883847 0.064851776 -0.032224473
0002a0 b8 41 f2 3d 13 cc 81 3d f5 6f d5 3d 26 e3 54 3c
       0.11828941 0.06337752 0.10421745 0.0129936095
0002b0 34 fc 0c 3c 3f 41 7b 3c bc 09 9c 3d 1b 52 e0 3d
       0.008605052 0.01533538 0.07619044 0.109531604
0002c0 b4 82 9e 3d d5 ce 2b bd 9b bb a5 bd 63 2f 01 3e
       0.077397734 -0.041945297 -0.080924235 0.12615733
0002d0 76 c7 55 3c 47 6d 6b 3c c1 ab e4 3c db b6 21 3d
       0.0130480435 0.0143693155 0.02791393 0.039481025
0002e0 53 06 ad bd 16 88 1a bd 85 d0 8a bd a4 4a 05 bd
       -0.08448472 -0.037727438 -0.06778053 -0.032541886
0002f0 96 d8 ce bd 2f 00 47 3d cf 23 88 bd 7b 2e ab bc
       -0.10099904 0.04858416 -0.06647455 -0.020896187
000300 ae 30 6b 3d 89 65 82 3d b4 47 c8 3c 4c 6c 6e bd
       0.05741947 0.063670225 0.024448253 -0.05820875
000310 7c 8f 04 bd 3b 90 62 3c 02 f4 8b bd 47 0d 89 3c
       -0.0323634 0.013828333 -0.0683365 0.016729964
000320 2d 77 75 3d 05 a5 fa 3d ad 55 86 3d 66 37 10 bc
       0.059928108 0.12238506 0.0655931 -0.0088022705
000330 ea b9 bd 3d e3 76 77 3c 00 be 72 3d 39 44 53 bd
       0.09263976 0.015104028 0.05926323 -0.051578734
000340 e4 72 ac 3d 95 17 0c 3d 7e 59 b7 3d 07 18 be 3d
       0.08420351 0.034202177 0.08952616 0.092819266
000350 4e 02 39 3a 31 31 ce 3d 83 4d 9c bc d3 47 87 3d
       0.00070575334 0.10067976 -0.01907993 0.06605496
000360 8e 05 37 3c 84 73 ca bd 30 9f 07 bc b8 4f 69 3d
       0.011170758 -0.09885314 -0.008277699 0.05696079
000370 7c eb cd 3d 5a 52 93 bd e8 74 e3 bc f9 38 8b 3d
       0.10054681 -0.07193442 -0.027765706 0.06797976
000380 7e f7 85 bc c4 bd e8 3c 40 72 80 bd 40 27 1a 3d
       -0.016353365 0.0284108 -0.062717915 0.037635088
000390 b0 01 5f bd 89 83 94 bc e4 ee bf 3d d6 34 9a bc
       -0.05444497 -0.018129127 0.09371737 -0.018824022
0003a0 23 36 e5 bd c8 b7 e4 3d 10 15 d9 3d 93 8f fa bd
       -0.111919664 0.11167866 0.105997205 -0.12234416
0003b0 eb cf bb 3d 31 8e 00 be 02 34 82 3d f0 8b 4e 3b
       0.091705166 -0.12554242 0.06357576 0.0031516515
0003c0 12 d5 98 3c a1 47 b5 bc fe 7c 2c 3d 8a bb 36 3d
       0.018656287 -0.022128882 0.04211139 0.044612445
0003d0 c8 6e 19 bb 9c 50 93 bc 10 25 85 3d 4e 47 f8 3d
       -0.0023411978 -0.017982773 0.0650121 0.12122975
0003e0 f3 58 94 bd af dc cb bd 64 78 40 bd d8 fc 54 bd
       -0.07243528 -0.099542014 -0.046989813 -0.051998943
0003f0 6a bc a6 bd ea 7c 00 bc 6b ba f6 bc ef 9a 06 bc
       -0.08141406 -0.007842282 -0.030118188 -0.00821565

fc3.bias f4 [4]
000000 de c8 48 3d b5 c3 c5 3d 44 f0 99 bd 69 1a 5d bd
       0.049019687 0.09656469 -0.0751653 -0.053980265
