checkpoints/INCOMPLETE - DUELING_DQN.pth (torch_old, 45963 bytes, 9 tensors)

fc1.weight f4 [64, 37]
0	0x3dbe4948	0.09291321
1	0x3b8f0afc	0.004365323
2	0xbe6dd5e7	-0.23226129
3	0xbe4ae16a	-0.19812551
4	0x3c5fe712	0.013665931
5	0x3c9f1332	0.019418333
6	0x3c969958	0.018383667
7	0x3df87bec	0.12133011
8	0xbdbc02ef	-0.09180247
9	0x3b8a8d2d	0.0042282552
10	0x39ef5b7c	0.00045653793
11	0xbdb2f7c4	-0.08738664
12	0xbe255339	-0.16145028
13	0xbe2e3205	-0.17011268
14	0xbe027847	-0.12741195
15	0xbc755952	-0.014974909
16	0x3cc7c295	0.024384776
17	0x3dd83a26	0.10557966
18	0xbe53d5cc	-0.20687026
19	0xbd471906	-0.04860785
20	0x3ddc79d7	0.107654266
21	0x3d25c4fc	0.040471062
22	0xbd8702d6	-0.06592338
23	0x3dcc09fe	0.09962843
24	0xbd200914	-0.039071158
25	0xbd4c1d92	-0.049832888
26	0x3dfba26a	0.122868374
27	0xbe0fee7e	-0.14055821
28	0xbe06815a	-0.13135281
29	0xbe21f1ba	-0.15814868
30	0xbe316822	-0.1732488
31	0x3e40e5a8	0.18837607
32	0xbe5e5c45	-0.21714886
33	0x3cd96c58	0.02654092
34	0xbde7d2dd	-0.11319516
35	0xbdf1e7db	-0.11811801
36	0xbd9c7993	-0.07640376
37	0x3d9dded8	0.0770852
38	0x3db5f4a8	0.08884555
39	0x3d88a272	0.06671609
40	0x3d4a6e4e	0.0494216
41	0xbe2bec7d	-0.16789432
42	0x3afab76a	0.0019128148
43	0xbe09057c	-0.13380998
44	0xbdf80f1a	-0.121122554
45	0xbe3d2069	-0.18469395
46	0xbb17a3c6	-0.0023138388
47	0x3e0197f5	0.12655623
48	0xbe1cb723	-0.15304236
49	0xbd353f64	-0.044249907
50	0x3e85d2c5	0.26137367
51	0x3e3ac935	0.18240817
52	0x3d340be4	0.043956652
53	0x3d4cfb28	0.05004421
54	0x3d3d6305	0.04623701
55	0xbd9edc8e	-0.07756911
56	0xbc274f73	-0.010211813
57	0xbd92a297	-0.07159918
58	0xbe278853	-0.16360597
59	0xbd8c6aac	-0.068562835
60	0x3c68856a	0.014191965
61	0x3cd43aa7	0.025906874
62	0xbcc7ebc4	-0.024404414
63	0x3cbac3a5	0.022798369
64	0x3d0cabf0	0.03434366
65	0xbdb31e7e	-0.0874605
66	0xbd493289	-0.04912046
67	0x3d4ee11f	0.05050766
68	0x3da7c570	0.08191955
69	0x3e2cad31	0.16862942
70	0xbe44d3b9	-0.19221391
71	0xbdcc119a	-0.09964295
72	0x3d39d6c2	0.045370825
73	0x3d585acf	0.052820977
74	0x3e368793	0.17825155
75	0x3ddcebd5	0.10787169
76	0x3d3392a2	0.04384101
77	0x3d24a559	0.04019675
78	0xbe58c60a	-0.21169296
79	0xbe8d7f50	-0.27636194
80	0xbe0bdd55	-0.1365865
81	0x3d9a5a76	0.07536785
82	0x3e8eee80	0.27916336
83	0xbec80065	-0.390628
84	0x3e4b711b	0.19867365
85	0x3b4a9381	0.0030910673
86	0x3b94eccb	0.0045448295
87	0xbe504d5a	-0.20342007
88	0x3db79c56	0.089653656
89	0xbddb9fd6	-0.10723846
90	0xbd6774af	-0.056507763
91	0x3e3b1f77	0.18273722
92	0x3e844c96	0.2583968
93	0xbdcaa440	-0.098946095
94	0xbd9ca701	-0.07649041
95	0xbd8491e2	-0.064731374
96	0x3d8bbff8	0.068237245
97	0xbcd88c19	-0.026433991
98	0xbe1f4aac	-0.15555829
99	0xbd576c95	-0.052593786
100	0x3e1993ea	0.14997831
101	0x3e57e883	0.2108479
102	0xbe77a36d	-0.24183436
103	0xbd6087e4	-0.054817095
104	0xbdf74a30	-0.12074697
105	0x3d060cf1	0.032727186
106	0xbe1d494a	-0.15359989
107	0xbd843787	-0.064559035
108	0xbd968832	-0.07350196
109	0x3cf58e4b	0.029975077
110	0xbd3a3d6c	-0.045468733
111	0x3e014242	0.12622932
112	0xbe078fe0	-0.13238478
113	0x3e0c2210	0.13684869
114	0xbd86cd78	-0.06582159
115	0xbdf63c7a	-0.12023254
116	0xbe346be6	-0.17619285
117	0x3d3d39a7	0.04619756
118	0xbd638562	-0.055547126
119	0x3db9bf77	0.09069722
120	0xbcb6b75c	-0.02230423
121	0x3d828349	0.06372697
122	0xbe1bd8ca	-0.15219417
123	0x3dc569e8	0.09639341
124	0xbe857ed1	-0.26073316
125	0xbe271585	-0.16316803
126	0xbdabd622	-0.08390452
127	0xbdb7ea87	-0.089802794
128	0xbd86369c	-0.06553385
129	0xbe0f4a88	-0.13993275
130	0xbd856899	-0.06514091
131	0x3da43542	0.080179706
132	0xbdf1fb45	-0.11815504
133	0xbde14aa3	-0.11000564
134	0x3e1b4c7b	0.15165894
135	0xbb88b0f3	-0.0041714846
136	0x3d54fc52	0.051998444
137	0xbc84e064	-0.016220279
138	0x3cf64dd9	0.030066418
139	0xbdd7da9f	-0.105397455
140	0x3dcbac71	0.09945
141	0xbdf06788	-0.11738497
142	0x3e4d40f5	0.2004431
143	0x3de4cd53	0.11171975
144	0xbe7f4d06	-0.24931726
145	0xbdd9ce1d	-0.10635016
146	0x3e33b4ab	0.17549388
147	0xbc4d0c2e	-0.012515111
148	0xbd0155bb	-0.0315759
149	0xbe359fad	-0.17736693
150	0xbdbf42fb	-0.093389474
151	0xbe8e0362	-0.27736956
152	0xbd3ce00b	-0.0461121
153	0x3e7009bd	0.23441215
154	0xbd8547cb	-0.06507834
155	0xbe90fe95	-0.2831923
156	0xbcbf5a03	-0.02335835
157	0xbee0c702	-0.4390183
158	0xbcafaad2	-0.021443758
159	0xbda5ba90	-0.080922246
160	0xbca18d77	-0.019720776
161	0xbd8bc7e7	-0.06825238
162	0xbdf27436	-0.11838572
163	0xbd81d090	-0.06338608
164	0xbd3c6201	-0.0459919
165	0xbccfd255	-0.025368849
166	0xbeb1e053	-0.34741458
167	0x3cbef886	0.023311865
168	0xbe0b7a51	-0.13620879
169	0x3cafb633	0.021449184
170	0x3d8f7447	0.070046
171	0xbd675733	-0.056479644
172	0x3e138dff	0.14409636
173	0x3e15879c	0.14602512
174	0xbe52cb0f	-0.20585273
175	0x3c890cbe	0.016729709
176	0xbdaed7f4	-0.085372835
177	0xbe45d487	-0.19319354
178	0x3e48ba29	0.19602264
179	0xbe55d3fa	-0.20881644
180	0x3d40596b	0.046960276
181	0xbcea5ddb	-0.028609207
182	0xbd557345	-0.052111883
183	0x3d1123e8	0.035434633
184	0x3d3655b8	0.04451534
185	0x3dc99944	0.09843686
186	0xbdca20a5	-0.09869508
187	0xbe15bc47	-0.14622603
188	0xbe30de33	-0.17272262
189	0x3d9d6587	0.076853804
190	0xbc81a329	-0.015824871
191	0xbd5eb847	-0.05437496
192	0x3da31d93	0.07964625
193	0x3ca75ebe	0.020430919
194	0xbdb479ea	-0.08812316
195	0xbd28f150	-0.04124576
196	0xbdc00000	-0.09375
197	0xbde5f026	-0.11227445
198	0xbdd52d5a	-0.10409041
199	0x3d0016c4	0.03127171
200	0x3d2eb95c	0.04265724
201	0xbdaa6fb0	-0.08322084
202	0xbccaf465	-0.02477474
203	0xbe4162f1	-0.188854
204	0xbe2a0e69	-0.1660706
205	0x3e4e266b	0.20131843
206	0xbda9a49e	-0.08283351
207	0x3d3402b5	0.043947894
208	0xbb84ab70	-0.0040487573
209	0xbd129cff	-0.035794254
210	0xbb043dbe	-0.0020178403
211	0xbe79b6d2	-0.24386147
212	0x3d0e4019	0.034729097
213	0x3db7dbf9	0.08977503
214	0xbdf57d20	-0.11986756
215	0x3b00f809	0.001967909
216	0xbe2b27a9	-0.16714348
217	0xbd5e7f5b	-0.054320674
218	0x3c5d565a	0.013509357
219	0xbe03508f	-0.128237
220	0x3da72c56	0.08162753
221	0x3d94d59f	0.072673075
222	0x3df26934	0.11836472
223	0x3b96daf9	0.0046037403
224	0xbe3945a9	-0.1809298
225	0xbd699d10	-0.057034552
226	0xbe4236f1	-0.18966271
227	0xbe07e212	-0.13269833
228	0xbd360319	-0.044436548
229	0xbdddbf97	-0.108275585
230	0x3ca163d3	0.01970092
231	0x3d01e6e1	0.031714324
232	0x3d6dba20	0.05803883
233	0x3d78eede	0.060774677
234	0x3de84a1c	0.1134226
235	0xbd8a6fa0	-0.06759572
236	0x3dbffa10	0.093738675
237	0xbd39462e	-0.045232944
238	0xbe398409	-0.18116774
239	0x3df1bd1f	0.1180365
240	0x3d53d691	0.0517183
241	0x3d123613	0.0356961
242	0xbd6036fd	-0.05473994
243	0xbbd68f57	-0.006547849
244	0x3d432617	0.047643747
245	0xbdf68466	-0.12036972
246	0x3e5803f8	0.21095264
247	0xbe05e611	-0.13076045
248	0xbd69af64	-0.05705203
249	0x3cd13afd	0.025540823
250	0xbe01848f	-0.12648223
251	0xbdc98209	-0.09839255
252	0x3db2beb3	0.08727779
253	0xbd9aca99	-0.07558174
254	0xbd70fa4a	-0.058832444
255	0xbd3e9a05	-0.046533603

fc1.bias f4 [64]
0	0x3dc745d2	0.09730114
1	0xbd25d901	-0.040490154
2	0xbdbe81fd	-0.09302137
3	0xbd9fafce	-0.07797204
4	0x3e29c5b4	0.16579324
5	0xbdb48148	-0.08813721
6	0xbdc1d54c	-0.09464511
7	0x3cd2d6ce	0.025737192
8	0xbd7f2cd7	-0.062298622
9	0xbdf23af0	-0.11827648
10	0x3e267596	0.16255793
11	0x3dc4a5af	0.09601914
12	0x3dfde6dc	0.123975486
13	0x3da7b457	0.08188694
14	0xbd586f07	-0.05284026
15	0xbdebdb43	-0.1151643
16	0x3988c759	0.00026088467
17	0xbd3bd289	-0.04585508
18	0xbb5c9ea2	-0.0033663888
19	0xbe61a766	-0.22036514
20	0xbe1020e5	-0.14075048
21	0x3d9f15ab	0.07767805
22	0xbb0092ec	-0.0019618822
23	0xbdf6aa4a	-0.12044199
24	0xbe249d45	-0.16075619
25	0x3e0de84a	0.13858142
26	0xbd1cda35	-0.038294036
27	0xbe29a8b4	-0.16568261
28	0x3e2341ff	0.15943144
29	0x3da0dcf1	0.07854641
30	0xbd6afc7e	-0.0573697
31	0xbe27768f	-0.1635382
32	0x3e2586e4	0.16164738
33	0x3c8939ae	0.016751137
34	0xbda77a7f	-0.08177661
35	0x3dab298a	0.08357532
36	0xbc515afe	-0.012778042
37	0xbcca1c09	-0.024671571
38	0xbd8fa085	-0.070130385
39	0xbe190397	-0.14942776
40	0xbdb00de4	-0.085963994
41	0xbbd50726	-0.0065010963
42	0xbe0c8775	-0.13723548
43	0x3e307586	0.17232332
44	0x3c7592d1	0.014988617
45	0xbdc0aa95	-0.09407536
46	0x3d48f680	0.049063206
47	0xbe1221fb	-0.14270775
48	0xbda23a45	-0.0792127
49	0x3dcd3923	0.100206636
50	0xbdf6256c	-0.120188564
51	0x3dce0342	0.10059215
52	0xbcc12e1b	-0.023581555
53	0xbdb31988	-0.08745104
54	0xbe01d4ee	-0.12678882
55	0x3d9b94d6	0.075967476
56	0x3db42941	0.08796931
57	0xbd2f5a8e	-0.04281097
58	0xbe04c6af	-0.12966417
59	0xbdfe3ee1	-0.12414337
60	0x3d51c5ab	0.0512139
61	0x3c99b51d	0.01876312
62	0x3d11ecc2	0.03562618
63	0x3cc64727	0.02420385

fc2_adv.weight f4 [64, 64]
0	0xbbf10802	-0.007355691
1	0x3d949336	0.07254641
2	0x3e42a61a	0.19008675
3	0x3e19ee03	0.150322
4	0x3e13ca0b	0.14432542
5	0xbca37ec8	-0.019957915
6	0x3b307562	0.0026925434
7	0x3c8bdaa5	0.017072031
8	0x3e2708cc	0.1631195
9	0x3dafdde1	0.08587242
10	0x3d51861f	0.0511533
11	0x3ccfbea7	0.025359465
12	0xbe3d5fb4	-0.18493539
13	0x3d87000c	0.06591806
14	0x3d092571	0.033482973
15	0x3d29c356	0.041446052
16	0xbe0e1287	-0.13874255
17	0xbd1a9b7a	-0.03774593
18	0xbc5908b4	-0.013246704
19	0x3dd27bd6	0.10277526
20	0xbda40c06	-0.08010106
21	0xbd69f9d3	-0.057123017
22	0x3df0d1db	0.11758777
23	0xbdac75a1	-0.084208734
24	0xbd6842e1	-0.056704406
25	0xbe5d0760	-0.21584845
26	0x3e0a6ede	0.13518855
27	0x3ddf1e11	0.108944066
28	0x3d8bd29c	0.0682728
29	0xbdae6b4f	-0.08516561
30	0x3e6306c4	0.2217055
31	0xbdffc344	-0.12488416
32	0x3e0e1999	0.13876952
33	0xbc4b65e5	-0.01241443
34	0xbcf6a4d0	-0.030107886
35	0x3dae2c8f	0.085045926
36	0xbe38b2b6	-0.18036923
37	0x3de052f8	0.10953325
38	0x3e07c59f	0.1325898
39	0xbe3d47d7	-0.18484436
40	0xbdb718cb	-0.08940276
41	0xbd9e542d	-0.07730899
42	0x3e76e64e	0.24111292
43	0xbd868362	-0.06568028
44	0x3cb5d145	0.022194514
45	0xbd4213dc	-0.04738222
46	0xbe02c3db	-0.12770025
47	0x3df05c40	0.11736345
48	0xbdbce82c	-0.09223971
49	0xbd4cec48	-0.050030023
50	0xbdd8ca90	-0.10585511
51	0xbc21359b	-0.009839441
52	0xbe09b757	-0.13448845
53	0x3da78b55	0.08180872
54	0x3cea2af1	0.02858493
55	0x3df11e06	0.11773305
56	0xbd60ef02	-0.054915436
57	0xbdba6179	-0.09100623
58	0xbce60d06	-0.028082382
59	0x3d9d837d	0.07691095
60	0x3dad7342	0.08469249
61	0x3e0b2576	0.13588509
62	0x3c91dec8	0.017806426
63	0x39bee9ac	0.00036413723
64	0xbda09d5d	-0.07842515
65	0x3e031362	0.12800363
66	0xbe382c1e	-0.1798558
67	0x3d1b2bb3	0.03788347
68	0x3dad12b2	0.084508315
69	0x3cf52705	0.029925833
70	0xbd1e7e06	-0.038694404
71	0x3d4f44bf	0.05060267
72	0xbde501ad	-0.1118196
73	0xbda4b8cc	-0.0804306
74	0xbc5780f4	-0.013153303
75	0x3e1badd6	0.15203032
76	0xbe5ca20f	-0.21546195
77	0x3d68bc71	0.056820337
78	0xbd0c8fbf	-0.034316774
79	0xbd71e459	-0.05905566
80	0x3d699eb9	0.057036135
81	0xbd0e91b1	-0.03480691
82	0xbde6bdb3	-0.11266651
83	0xbd885402	-0.06656648
84	0xbd61f8cb	-0.055168908
85	0xbe53ef37	-0.20696722
86	0x3cefe4f5	0.02928398
87	0xbe0ef179	-0.13959302
88	0xbd5177b4	-0.05113955
89	0x3d226b54	0.039653137
90	0xbe0205a3	-0.12697463
91	0xbdc695d4	-0.09696546
92	0x3d6d350f	0.05791193
93	0xbe13717e	-0.14398763
94	0x3d1d3720	0.03838265
95	0xbdeaa73b	-0.11457678
96	0xbdf73e1e	-0.12072395
97	0x3db04a40	0.08607912
98	0x3d0c79f5	0.034295995
99	0xbe1bd72b	-0.15218799
100	0xbcc507a9	-0.024051504
101	0x3d9c7c84	0.07640937
102	0x3de5f4d1	0.11228336
103	0xbd5ec8bf	-0.054390665
104	0xbdc93f4d	-0.09826527
105	0x3c67ffd1	0.0141601125
106	0xbd6c47d4	-0.05768569
107	0xbdae78cb	-0.08519133
108	0xbd88e7ce	-0.06684838
109	0xbe5c6091	-0.21521212
110	0xbdf18037	-0.11792033
111	0xbd8cf2c7	-0.068822436
112	0x3c12bbc0	0.008955896
113	0x3ba29551	0.0049616476
114	0xbcb4b3d6	-0.022058409
115	0x3cddf8e2	0.027096216
116	0xbdc5624c	-0.09637889
117	0xbd0d6323	-0.034518372
118	0xbe480fe3	-0.1953731
119	0x3cbf3ee9	0.023345428
120	0xbe11d696	-0.14242014
121	0xbd18d9d3	-0.03731711
122	0xbc8591f5	-0.01630495
123	0xbd02dc21	-0.031948213
124	0xbe46efa1	-0.19427349
125	0x3d37cad0	0.04487115
126	0xbc0c4b95	-0.008562942
127	0xbdcf81b1	-0.101321585
128	0xbda437ba	-0.080184415
129	0xbdb3fe37	-0.08788722
130	0x3e209049	0.1568004
131	0xba5e173d	-0.00084720907
132	0xbdeaa0b9	-0.11456437
133	0xbc1698a8	-0.0091916695
134	0xbd1db13b	-0.0384991
135	0x3d147b6d	0.03625052
136	0x3dd8e8fc	0.10591313
137	0xbd958e4c	-0.073025316
138	0x3d1aedfe	0.037824623
139	0x3df8f7af	0.12156617
140	0x3dcaeda8	0.099086106
141	0x3e06c4cb	0.13161008
142	0x3d3c581b	0.04598246
143	0xbd601c0b	-0.054714244
144	0xbdce6fd5	-0.10079924
145	0x3c8a283e	0.016864892
146	0x3d9f9940	0.07792902
147	0xbc3e4400	-0.011612892
148	0xbe5aefc4	-0.21380526
149	0x3dc40c4e	0.095726594
150	0x3d71b3c5	0.059009332
151	0x3c8ad951	0.016949328
152	0xbd04d6a6	-0.032431267
153	0x3da409ca	0.080096796
154	0x3da0b996	0.07847898
155	0x3d8f7464	0.070046216
156	0x3cd94447	0.026521815
157	0x3e24161d	0.1602406
158	0x3e3f9d97	0.1871246
159	0x3cce085c	0.02515047
160	0xbcfc4f19	-0.030799435
161	0xbdb732cb	-0.08945235
162	0xbe1f037c	-0.15528673
163	0x3d821688	0.06351954
164	0x3dc7aa5b	0.097492896
165	0x3db86263	0.09003141
166	0xbe2cfac6	-0.16892537
167	0x3e0f380c	0.13986224
168	0x3dcb3595	0.09922329
169	0xbe1df5b1	-0.15425755
170	0xbe85d498	-0.2613876
171	0xbe112f1c	-0.14178127
172	0x3c872726	0.01649816
173	0x3d50495a	0.050851204
174	0xbab82c62	-0.0014051313
175	0xbdb516c5	-0.088422336
176	0x3d5c7a22	0.053827412
177	0xbe4a41a2	-0.197516
178	0xbe31653f	-0.17323779
179	0x3d4f3e8c	0.05059676
180	0xbe19d1e6	-0.15021476
181	0x3d7dd818	0.06197366
182	0xbdce76b7	-0.10081237
183	0xbe0375ef	-0.12837957
184	0xbdd7fd22	-0.10546328
185	0xbe204c12	-0.15654019
186	0x3c84beec	0.01620432
187	0x3dfd0d26	0.123560235
188	0x3cf352de	0.0297026
189	0x3ca68b40	0.020330071
190	0x3dd33d86	0.10314469
191	0x3e5d012f	0.21582483
192	0x3d34bcac	0.044125244
193	0xbdd3ccc7	-0.103417926
194	0x3d7b28c9	0.061318193
195	0xbdb3d70b	-0.087812506
196	0xbc9d1e2e	-0.01917943
197	0x3c5e28c9	0.013559529
198	0xbda2d27e	-0.079503044
199	0xbdfc2149	-0.12311036
200	0xbe29357e	-0.16524312
201	0xbca3456a	-0.01993056
202	0xbcf5cf1a	-0.03000598
203	0xbc04bd94	-0.00810184
204	0xbd545a58	-0.05184397
205	0x3d8e8587	0.06959062
206	0xbd438fa1	-0.047744397
207	0xbced5310	-0.028970271
208	0xbd708e56	-0.058729492
209	0x3dbfba13	0.09361663
210	0xbc57e010	-0.013175979
211	0x3c46aba3	0.012125882
212	0xbd86a87a	-0.06575103
213	0x3e0d187b	0.1377887
214	0xbd2c09ba	-0.042001463
215	0x3d963a5b	0.07335349
216	0x3e4ebed8	0.20189989
217	0x3d2fa697	0.04288348
218	0x3dc115de	0.09427999
219	0x3d516f0a	0.051131286
220	0x3e0c20af	0.13684343
221	0xbde418f1	-0.1113757
222	0xbc32408f	-0.01087965
223	0xbb697c1a	-0.0035626949
224	0xbe1ad5f0	-0.15120673
225	0xbd0232a6	-0.031786583
226	0x3d242e05	0.04008295
227	0x3e03e86f	0.12881635
228	0xbe123bd2	-0.14280632
229	0xbd93d977	-0.072192125
230	0x3e1bdd99	0.15221252
231	0x3cb5e2ac	0.022202812
232	0x3e066dc5	0.13127811
233	0x3e654bb1	0.22392155
234	0x3deea406	0.11652379
235	0xbc7dce46	-0.015491074
236	0xbcd016c6	-0.025401484
237	0x3c92f85f	0.017940698
238	0x3c9c9f3e	0.019118901
239	0x3de8889f	0.113541834
240	0xbcf44444	-0.029817708
241	0x3d2a5d1f	0.041592713
242	0xbd64447b	-0.05572937
243	0x3d455640	0.048177958
244	0xbda98dec	-0.082790226
245	0x3e2fb6cf	0.1715958
246	0xbd4d6fbd	-0.05015539
247	0x3d9d96cf	0.0769478
248	0xbe1c8862	-0.15286401
249	0xbe17cd94	-0.14824516
250	0xbdcc879a	-0.099868014
251	0x3de75424	0.112953454
252	0xbda0ecff	-0.078577034
253	0x3cb5a952	0.022175465
254	0xbe013bb5	-0.12620433
255	0x3d9a231a	0.07526226

fc2_adv.bias f4 [64]
0	0xbd9fd11c	-0.07803556
1	0xbdd79334	-0.10526124
2	0x3c1d9269	0.009617426
3	0x3d25971a	0.040427305
4	0x3dbfe308	0.09369475
5	0xbdf6bd03	-0.1204777
6	0xbdf6e8c5	-0.12056116
7	0x3d6730d3	0.056443047
8	0x3d4474c6	0.047962926
9	0x3de10163	0.109865926
10	0xbd933cd9	-0.0718934
11	0x3db472b5	0.08810941
12	0x3d3a154a	0.04543046
13	0xbd752d6f	-0.059857782
14	0xbdacc8bd	-0.08436725
15	0xbc8d0dc3	-0.017218476
16	0x3b02ac37	0.0019939074
17	0xbd73aef3	-0.059493016
18	0xbdbe5538	-0.09293598
19	0x3b88a7eb	0.004170408
20	0xbd19418e	-0.037416033
21	0x3dacfe4c	0.08446941
22	0xbdb0b609	-0.086284705
23	0xbdae445e	-0.08509134
24	0xbdffc7a2	-0.12489249
25	0xbdbe363c	-0.09287688
26	0x3de36c85	0.11104683
27	0xbdd429bf	-0.10359525
28	0xbda5d19c	-0.080966204
29	0x3dc92e65	0.09823302
30	0x3dcaeb0c	0.09908113
31	0xbe057df3	-0.13036327
32	0xbc97264d	-0.01845088
33	0x3de9aa0b	0.11409386
34	0xbc3a51eb	-0.01137207
35	0xbda8ebd2	-0.08248104
36	0xbdf2c5f0	-0.1185416
37	0xbdbc07da	-0.09181185
38	0x3d188a6f	0.037241396
39	0xbd276354	-0.04086621
40	0xbe13bc3f	-0.14427279
41	0x3db196d7	0.086713485
42	0xbc2ef363	-0.010678145
43	0xbd5897f2	-0.05287928
44	0xbcb210d1	-0.021736534
45	0xbcf8633a	-0.030320752
46	0xbdf6bb0e	-0.120473966
47	0xbdde0e6c	-0.108425945
48	0x3d85e811	0.06538404
49	0xbe113faa	-0.14184442
50	0xbd92abf1	-0.071617015
51	0x3d5690b5	0.052384097
52	0xbdab97f5	-0.08378593
53	0xbdd5a24c	-0.10431346
54	0xbd253de5	-0.04034223
55	0xbe110d8a	-0.14165321
56	0xbdf860a8	-0.12127811
57	0xbde2ad2c	-0.11068186
58	0xb949fee3	-0.00019263806
59	0xbd987491	-0.07444108
60	0x3e4fa4f4	0.20277768
61	0x3ddcddee	0.10784517
62	0x3e26e350	0.1629765
63	0xbe0cd75f	-0.13754033

fc2_val.weight f4 [64, 64]
0	0xbbf03361	-0.0073303436
1	0x3dddce06	0.108303115
2	0x3abe8d52	0.0014537966
3	0xbd566be0	-0.05234897
4	0x3e3a5822	0.18197682
5	0xbd3877ad	-0.045036007
6	0x3dc9870d	0.09840212
7	0xbd690116	-0.0568858
8	0x3bbfa740	0.005848795
9	0x3d662124	0.05618395
10	0xbdb54e87	-0.088528685
11	0x3e31f876	0.17379937
12	0xbd0ddc26	-0.034633778
13	0x3d280467	0.041019823
14	0xbdffd1fc	-0.12491223
15	0xbc9902a6	-0.01867802
16	0xbcbb53ad	-0.022867048
17	0x3dba28e2	0.09089829
18	0x3ca3c063	0.019989198
19	0x3dc5234c	0.09625873
20	0x3d5553f1	0.052082006
21	0xbd107e4e	-0.035276704
22	0x3d97f302	0.07419397
23	0xbcf210a9	-0.02954896
24	0xbd985e28	-0.07439834
25	0xbd11a09e	-0.035553567
26	0xbd73cc02	-0.05952073
27	0xbdc9f611	-0.098613866
28	0x3da45590	0.08024132
29	0x3d08e8b1	0.033425037
30	0xbd956fc2	-0.07296707
31	0x3da679e7	0.0812872
32	0x3d019903	0.031640064
33	0x3dd3704c	0.10324153
34	0x3be89047	0.0070972773
35	0x3b08ca23	0.0020872436
36	0x3dc4ea5f	0.09615015
37	0xbd520fd5	-0.05128463
38	0xbe00e567	-0.1258751
39	0x3e09019a	0.13379517
40	0x3db7ef85	0.089812316
41	0x3d4658ef	0.048424657
42	0x3c12a7bc	0.008951124
43	0x3d462805	0.04837801
44	0x3d6215c8	0.055196553
45	0x3cf33d7d	0.029692406
46	0x3dfc1cc9	0.12310178
47	0x3d924a7c	0.07143113
48	0xbd87573e	-0.06608437
49	0x3e25ba2f	0.16184305
50	0xbcf24edc	-0.029578619
51	0x3c7d14b8	0.015446834
52	0x3dd78226	0.10522871
53	0xbca77d65	-0.020445535
54	0x3e13ba56	0.1442655
55	0x39896d55	0.00026212135
56	0xbd8c312e	-0.06845318
57	0xbcd7971a	-0.026317168
58	0x3dff3816	0.124618694
59	0x3d66c46f	0.056339677
60	0xbd179b79	-0.037013505
61	0x3e29007e	0.16504094
62	0x3d8d00b5	0.068849005
63	0x3dcaea64	0.09907988
64	0x3d1676b0	0.036734283
65	0xbdb6ef80	-0.089324
66	0x3e086feb	0.13323943
67	0xba616548	-0.0008598161
68	0xbd6b98fa	-0.057518937
69	0x3ca6253f	0.020281432
70	0xbdddd643	-0.10831883
71	0x3b391caa	0.0028245845
72	0xbe0b23e6	-0.13587913
73	0x3d13df96	0.0361019
74	0x3e098bac	0.13432187
75	0xbbcb278a	-0.006199782
76	0xbe00117d	-0.12506671
77	0xbc26f180	-0.010189414
78	0xbdeec874	-0.11659327
79	0x3b103bfb	0.0022008407
80	0xbdb4f8b5	-0.088364996
81	0x3d4436b6	0.04790374
82	0xbda23a34	-0.079212576
83	0xbdb0dd52	-0.086359635
84	0x3d216a46	0.03940799
85	0x3c95698b	0.018238803
86	0xbc15da31	-0.009146259
87	0x3e00555e	0.12532565
88	0xbd863fd6	-0.065551445
89	0xbddb08fd	-0.10695074
90	0x3e23e267	0.16004334
91	0x3d493035	0.04911824
92	0xbd291f38	-0.04128954
93	0x3de6c69c	0.112683505
94	0x3e84bdd1	0.25926068
95	0xbc57f731	-0.013181494
96	0x3c2e00d2	0.010620313
97	0xbdeca0b3	-0.115540884
98	0x3dbabdf0	0.09118259
99	0xbdd9416c	-0.10608181
100	0x3d0e2f2b	0.03471295
101	0xbe24de15	-0.16100343
102	0xbd1f7c66	-0.038936995
103	0xbcd478a3	-0.02593643
104	0x3e2910db	0.16510336
105	0x3e0b87db	0.13626043
106	0xbd03e694	-0.03220232
107	0x3dd578b1	0.10423411
108	0xbda00499	-0.07813377
109	0xbda4d461	-0.080483206
110	0x3d6cbb26	0.057795666
111	0xbdad897c	-0.08473489
112	0xbcac77e9	-0.021053271
113	0xbd133b4a	-0.035945214
114	0x3c1be80c	0.0095157735
115	0xbdd34122	-0.103151575
116	0x3d9b414b	0.07580813
117	0x3e93d3e6	0.28872603
118	0x3bce2799	0.0062913415
119	0x3d1f03c9	0.03882197
120	0xbc888dab	-0.016669115
121	0xbd7aa141	-0.06118894
122	0x3e0642c8	0.13111413
123	0xbe272233	-0.1632164
124	0xbd2696c0	-0.04067111
125	0xbdd0e676	-0.10200207
126	0xbcd6efc6	-0.02623738
127	0xbd4f9a45	-0.050684232
128	0xbcbfc16c	-0.02340766
129	0xbca731ff	-0.020409582
130	0xbaa4fa11	-0.0012586733
131	0x3c5cd641	0.0134788165
132	0x3e45d8e3	0.19321017
133	0xbcfb9297	-0.030709548
134	0x3da4429f	0.080205195
135	0x3d295e72	0.041349836
136	0xba65b149	-0.0008762074
137	0x3d8d1c1c	0.06890127
138	0xbdea70f8	-0.11447328
139	0x3e805623	0.25065717
140	0x3e010d33	0.12602691
141	0xbd8e7b01	-0.06957055
142	0xbe3fb8e8	-0.1872288
143	0x3da4dfb5	0.08050481
144	0x3ca8679e	0.020557221
145	0x3d844d6d	0.0646008
146	0xbd9a158c	-0.07523641
147	0xbd22d643	-0.039755117
148	0xbd9cee1e	-0.07662605
149	0x3d582c50	0.052776635
150	0xbce06bfb	-0.02739524
151	0xbc8019a3	-0.015637225
152	0x3d9df0ff	0.07711982
153	0x3cb9837a	0.0226457
154	0xbda1e4c3	-0.07904961
155	0xbdccf9d2	-0.10008587
156	0x3e49d8c7	0.197116
157	0x3deb9d52	0.11504616
158	0x3de4b378	0.111670434
159	0xbd91d8be	-0.071214184
160	0xbe244c9e	-0.16044852
161	0xbd8a35c4	-0.06748536
162	0x3d99cc85	0.07509712
163	0x3db8f25c	0.090306014
164	0xbc6eb06e	-0.014568431
165	0xbdae81d1	-0.08520854
166	0x3d4c92df	0.049944755
167	0x3df4bf17	0.1195051
168	0x3e0978f0	0.1342504
169	0x3da993fe	0.082801804
170	0x3df3841a	0.11890431
171	0xbbab467d	-0.0052269087
172	0x3a956100	0.0011396706
173	0x3bf214dc	0.0073877405
174	0x3d18fdd8	0.03735146
175	0x3da990a8	0.08279544
176	0xbdc08b63	-0.09401586
177	0x3c31cda9	0.010852256
178	0xbdce92a6	-0.10086565
179	0x3dde5f78	0.10858053
180	0xbe1d5024	-0.15362602
181	0x3db81299	0.08987922
182	0x3d80c9a4	0.0628846
183	0x3e1dfff0	0.15429664
184	0xbd483adc	-0.048884258
185	0xbc3d8364	-0.0115669705
186	0x3d319489	0.043354545
187	0xbd0bd96b	-0.034142893
188	0xbe09331c	-0.13398403
189	0x3d7fa900	0.06241703
190	0xbe8235c0	-0.25431633
191	0xbde72cb2	-0.11287822
192	0x3cc94ef9	0.02457379
193	0x3d1af3f0	0.037830293
194	0xbcebe6ec	-0.028796636
195	0x3d2401b6	0.040040694
196	0xbdb92b78	-0.09041494
197	0xbb9e19ce	-0.0048248535
198	0xbdac5146	-0.08413939
199	0x3d2589fb	0.04041479
200	0x3cc20588	0.023684278
201	0x3e0b104e	0.13580438
202	0xbd892cfc	-0.06698033
203	0xbd37bcb0	-0.04485768
204	0x3d4b9fc6	0.04971292
205	0xbca4da3c	-0.020123594
206	0x3d3bbafd	0.045832623
207	0x3d3847fd	0.04499053
208	0x3dcf28ae	0.10115181
209	0xbd520cd7	-0.051281776
210	0x3da05972	0.0782956
211	0x3e022d6b	0.12712638
212	0xbda7d558	-0.08194989
213	0x3e110bf9	0.14164723
214	0xbdb07b15	-0.08617226
215	0x3d8f458f	0.06995689
216	0xbd11dd4f	-0.035611447
217	0xbeae6027	-0.34057733
218	0x3c14af75	0.009075035
219	0x3df93891	0.12168992
220	0x3dd0de5e	0.10198663
221	0xbcdf2940	-0.02724135
222	0xbda37a2d	-0.079822876
223	0x3de02cf8	0.10946077
224	0xbe63da97	-0.22251354
225	0x3d150daf	0.036390003
226	0xbd87dc3e	-0.06633805
227	0x3c96e0c5	0.018417725
228	0xbd624f72	-0.055251546
229	0x3e43bf68	0.19115984
230	0x3dc2f385	0.09519104
231	0x3dcb4e32	0.09927024
232	0xbe5abc30	-0.2136085
233	0x3e2e3b65	0.17014845
234	0x3e0e7036	0.13909993
235	0xbd87ed3c	-0.06637046
236	0x3cdf0768	0.027225211
237	0xbdb3ef63	-0.08785894
238	0xbd380daa	-0.044934906
239	0xbd637dd3	-0.055539917
240	0x3bb6bd12	0.005576738
241	0xbd0c1a0e	-0.034204535
242	0x3daf27c6	0.08552508
243	0xbd9620ef	-0.073305
244	0xbb8285fb	-0.003983257
245	0x3dd0b660	0.10191035
246	0x3db69636	0.08915369
247	0x3e3d3c9d	0.18480153
248	0xbda0c8a9	-0.07850773
249	0xbe2a2bcd	-0.16618271
250	0xbe304800	-0.17214966
251	0xbdf1ee12	-0.118129864
252	0xbdc20768	-0.09474069
253	0xbc7ccc7d	-0.015429613
254	0x3d710479	0.058842156
255	0x3c0a3e74	0.008437742

fc2_val.bias f4 [64]
0	0xbc900335	-0.017579654
1	0x3db8dc58	0.09026402
2	0x3ba3af3d	0.0049952553
3	0xbdd3d2d4	-0.10342947
4	0x39794e12	0.00023775574
5	0x38938218	7.033738e-05
6	0xbccf785c	-0.025325947
7	0x3d9c1bdb	0.076225005
8	0xbd934f74	-0.07192889
9	0x3de5232f	0.11188351
10	0x3d97a18a	0.07403858
11	0xbd062254	-0.03274758
12	0x3e216a8b	0.15763299
13	0xbd900490	-0.0703212
14	0x3c934cfb	0.017981043
15	0xbd6c6a07	-0.057718303
16	0xbdec4376	-0.11536305
17	0x3d673cc8	0.05645445
18	0xbca33154	-0.019920982
19	0x3db5f5df	0.08884787
20	0x3d0294ef	0.031880315
21	0x3deea16b	0.11651882
22	0x3d46542b	0.048420113
23	0xbc57de5c	-0.013175573
24	0xbdba2dc0	-0.09090757
25	0xbcf9e60c	-0.030505203
26	0xbd440eac	-0.047865555
27	0x3de268f9	0.11055178
28	0x3db05db4	0.086116225
29	0xbc6d2df1	-0.014476285
30	0xbdef2448	-0.11676842
31	0xbd847cb3	-0.06469097
32	0xbe248144	-0.16064936
33	0x3d8fe81b	0.070266925
34	0x3d809a2a	0.062794045
35	0xbdc10e5e	-0.094265684
36	0xbd661ebd	-0.056181658
37	0x3d82a220	0.06378579
38	0x3d9cddec	0.07659516
39	0xbdcba074	-0.099427134
40	0xbb52ca84	-0.0032164166
41	0x3d69ef91	0.057113234
42	0x3db16d46	0.086634204
43	0x3c076948	0.008264847
44	0xbccbc28e	-0.024873044
45	0xbd93d8f4	-0.07219115
46	0xbd79af15	-0.060957987
47	0xbd398058	-0.045288414
48	0xbdb4fb5a	-0.08837004
49	0x3d98c691	0.074597485
50	0x3dbb76c0	0.09153509
51	0x3da5af76	0.08090107
52	0xbda6ae13	-0.08138671
53	0x3c70df31	0.0147016505
54	0x3ddb51c9	0.10708959
55	0x3e12426a	0.14283147
56	0xbd117077	-0.035507645
57	0xbd2afcce	-0.041745
58	0x3e2ea49b	0.1705498
59	0xbd3b19b6	-0.045678817
60	0x3d0783a3	0.033084523
61	0xbd44ca4a	-0.04804448
62	0xbb4a641a	-0.003088242
63	0x3c83a6d7	0.016070766

fc3_adv.weight f4 [1, 64]
0	0xbe9655b5	-0.29362264
1	0xbe108d5b	-0.14116423
2	0xbdbd3843	-0.09239247
3	0x3df68b9d	0.12038348
4	0xbd96b125	-0.073580064
5	0x3e56df9d	0.20983739
6	0x3e3c43e8	0.18385279
7	0xbdd353c0	-0.103187084
8	0x3d7e1c16	0.062038504
9	0x3cb7daab	0.022443136
10	0x3d7b79f5	0.061395604
11	0xbdafab49	-0.08577592
12	0x3d568032	0.05236835
13	0x3e2bc137	0.16772924
14	0x3b1bffdc	0.0023803627
15	0xbd77c3ac	-0.06048934
16	0xbde8f2c9	-0.113744326
17	0xbddc6260	-0.10760951
18	0x3e27107e	0.16314885
19	0x3e1648f2	0.14676264
20	0xbcf7660e	-0.03020003
21	0x3d98fa33	0.07469597
22	0xbd7875ed	-0.060659338
23	0xbe2323b7	-0.15931593
24	0xbe3910c9	-0.1807281
25	0x3e0d81fb	0.13819115
26	0x3dcab729	0.09898216
27	0xbe78efd2	-0.24310234
28	0x3e030a70	0.1279695
29	0x3d90172c	0.0703567
30	0xbddc7ccd	-0.10765991
31	0xbdd9f736	-0.10642855
32	0x3d571e4f	0.05251914
33	0xbd4a8c97	-0.049450483
34	0x3d905d8f	0.07049095
35	0x3dcb1e31	0.09917868
36	0xbdc1aed6	-0.094571754
37	0x3e145ec2	0.14489272
38	0x3dd52ba1	0.10408712
39	0x3e0d69f3	0.13809948
40	0xbda5a31a	-0.0808775
41	0x3d006d6e	0.03135436
42	0xbd9aae41	-0.075527675
43	0xbe080132	-0.13281706
44	0x3e9d7af0	0.30757856
45	0x3e0079ad	0.12546416
46	0xbdc96f23	-0.09835651
47	0x3e37881a	0.17923012
48	0xbe030337	-0.12794195
49	0x3e290267	0.16504823
50	0x3e2cedbe	0.16887566
51	0xbc12d54e	-0.008961989
52	0x3e78e851	0.24307372
53	0xbcef896d	-0.029240334
54	0xbd65dd75	-0.0561194
55	0xbd96902e	-0.07351719
56	0x3cfeffb3	0.031127786
57	0xbdd39a6e	-0.103321895
58	0x3dc5f678	0.09666151
59	0xbd857bd3	-0.06517758
60	0xbd26206b	-0.04055826
61	0xbbdce931	-0.006741666
62	0xbb4456ba	-0.002995892
63	0xbe6f43d2	-0.23365715

fc3_val.weight f4 [4, 64]
0	0x3d851ece	0.06500016
1	0xbc9dcdb0	-0.019263119
2	0x3e163eb7	0.14672361
3	0x3d2a4f03	0.041579258
4	0xbe26b6db	-0.16280691
5	0xbde4ef33	-0.11178436
6	0x3df82f36	0.1211838
7	0x3d651898	0.055931658
8	0xbdd751dc	-0.1051366
9	0x3e13eb09	0.14445128
10	0x3c428ced	0.01187442
11	0xbcbd70b1	-0.023125025
12	0x3d8d5173	0.06900301
13	0xbe363c0e	-0.17796347
14	0x3e108a3d	0.14115234
15	0x3ca9ed0e	0.02074292
16	0x3d75b1d9	0.059984062
17	0xbcbd7eb4	-0.023131706
18	0x3cb2c1d3	0.021820938
19	0x3bf04b3f	0.007333189
20	0x3c6e363b	0.014539297
21	0x3d6fcf26	0.05854716
22	0xbcaaf7a0	-0.02087003
23	0xbdf9e57e	-0.12201975
24	0xbd6341ec	-0.05548279
25	0xbd2e3226	-0.042528294
26	0x3da58d78	0.08083624
27	0x3dcf6983	0.10127547
28	0x3d743754	0.059623078
29	0x3de3343a	0.11093946
30	0x3d74a75c	0.05972992
31	0x3cfa7fd0	0.030578524
32	0xbd16fa9a	-0.036860086
33	0xbda7187c	-0.08158967
34	0xbd5c57c8	-0.053794652
35	0xbd6e998e	-0.05825191
36	0x3de1d414	0.11026779
37	0x3d3cf704	0.04613401
38	0x3d6fd4e0	0.058552623
39	0x3d8dac99	0.06917686
40	0xbe4bdb38	-0.19907844
41	0xbccfa3c5	-0.025346646
42	0xbd768988	-0.060189754
43	0x3d309569	0.04311124
44	0x3da7246e	0.08161245
45	0x3d6849fa	0.056711175
46	0x3df8fe32	0.12157859
47	0x3d4391e6	0.04774656
48	0xbd393c9f	-0.04522383
49	0xbd263e50	-0.04058677
50	0x3da8f5af	0.082499854
51	0x3d953fed	0.072875835
52	0x3ca20894	0.019779481
53	0xbb00826a	-0.0019608983
54	0x3df9ca07	0.12196737
55	0x3dd941b4	0.10608235
56	0x3d9e997e	0.0774412
57	0xbd68e8e3	-0.056862723
58	0x3c95d189	0.01828839
59	0xbd66fffb	-0.056396466
60	0x3da0812d	0.07837138
61	0x3d439f4e	0.047759347
62	0x3aea14c4	0.0017858972
63	0x3da0696d	0.07832608
64	0xbc17b5ea	-0.00925968
65	0x3ddb15e6	0.10697536
66	0x3d07dab2	0.03316755
67	0xbe387527	-0.1801344
68	0x3d9bfb4b	0.0761629
69	0xbe2c36a2	-0.16817716
70	0xbd89becb	-0.06725844
71	0xbd87ff4f	-0.06640493
72	0x3e555410	0.20832849
73	0x3dae840b	0.08521279
74	0x3df54926	0.119768426
75	0x3e883baf	0.26608035
76	0x3d30f200	0.04319954
77	0x3c578f19	0.013156676
78	0x3d449e6a	0.048002638
79	0xbc9a33d6	-0.018823545
80	0x3ddb5c6a	0.10710986
81	0x3e1ac1d4	0.15113002
82	0x3e0f9712	0.14022473
83	0x3e441d79	0.19151868
84	0xbc78bfb9	-0.015182429
85	0xbd0af107	-0.033921268
86	0xbbfaa5b5	-0.0076491483
87	0x3c30cacb	0.010790537
88	0x3e47fb68	0.19529498
89	0x3d851ef3	0.06500044
90	0x3d48760d	0.048940707
91	0xba05c3a8	-0.00051027024
92	0x3df18200	0.11792374
93	0xbe703d53	-0.23460893
94	0x3d10d2d0	0.035357296
95	0x3e3497d0	0.17636037
96	0xbe3dff0b	-0.18554322
97	0x3c6fc440	0.014634192
98	0x3e23443c	0.15943998
99	0x3e2f457c	0.1711635
100	0xbe3a4e21	-0.18193866
101	0xbc9c169a	-0.019053746
102	0xbdbc1130	-0.09182966
103	0xbdb882c5	-0.09009317
104	0xbde3646a	-0.11103137
105	0x3e391302	0.18073657
106	0x3e37313a	0.17889872
107	0x3e362a09	0.17789473
108	0x3bf21a88	0.0073884167
109	0xbdaa8e67	-0.08327942
110	0xbea53854	-0.32269537
111	0x3e155fb9	0.14587297
112	0x3e8df5e1	0.27726653
113	0xbe1acd54	-0.15117389
114	0x3c25fb65	0.010130738
115	0x3deba210	0.1150552
116	0x3e17acf0	0.14812064
117	0x3e15a080	0.14612007
118	0x3be42c47	0.006963286
119	0x3e0d3fb9	0.1379384
120	0xbdfd1fff	-0.123596184
121	0x3e03a12a	0.12854448
122	0x3d9260c9	0.071473666
123	0xbe0202e6	-0.12696418
124	0x3d6ecea3	0.058302533
125	0xbe793633	-0.24337082
126	0x3e2180dc	0.15771812
127	0x3d8f735c	0.07004425
128	0x3ddc5cae	0.10759865
129	0x3e194d74	0.14970952
130	0x3e03c39c	0.12867588
131	0xbdcc806c	-0.09985432
132	0xbe2c4981	-0.16824915
133	0x3c729d9e	0.014808087
134	0x3ddfc99c	0.10927126
135	0xbc015dd2	-0.007895904
136	0x3d0c3815	0.03423317
137	0x3d6b4cc5	0.05744626
138	0x3df722c6	0.120671794
139	0xbdf46cd2	-0.11934818
140	0x3d89ac46	0.06722312
141	0xbde34c57	-0.11098545
142	0xbd863fc7	-0.06555133
143	0xbe6eba7a	-0.23313323
144	0x3d9e6e7c	0.07735917
145	0xbe08ca46	-0.13358411
146	0x3dba0bf2	0.0908431
147	0x3d8f897d	0.07008646
148	0x3e07a5f4	0.132469
149	0x3d96d567	0.07364922
150	0xbe813910	-0.25238848
151	0xbbc68e85	-0.00605947
152	0x3d460fe8	0.048355013
153	0xbe58bab7	-0.21164976
154	0x3bbe5a44	0.0058091003
155	0xbd66defd	-0.056365002
156	0x3c9f791e	0.019466933
157	0x3da0363d	0.07822845
158	0xbde961a2	-0.11395575
159	0xbd3587a6	-0.044318818
160	0x3da3ab06	0.079916045
161	0x3dfb160f	0.12260067
162	0xbe07910e	-0.13238928
163	0x3ccee48e	0.025255468
164	0xbcb7f753	-0.0224568
165	0xbb8a3f13	-0.004218945
166	0x3dd89fb6	0.105773374
167	0x3d170504	0.036870018
168	0x3d9ac417	0.075569324
169	0x3d4ce4f5	0.050023038
170	0x3cb2f839	0.021846877
171	0xbdff8de5	-0.12478236
172	0xbe8281b6	-0.25489587
173	0x3dea4f92	0.11440958
174	0x3d476031	0.04867572
175	0x3dac0edd	0.084012724
176	0xbe2027ec	-0.15640229
177	0xbddb3d36	-0.107050344
178	0x3e077e32	0.13231733
179	0xbc6bd14c	-0.014393162
180	0xbda0524b	-0.07828196
181	0xbe17e4dd	-0.14833398
182	0x3dd77b71	0.105215915
183	0x3d8f6e07	0.07003408
184	0xbd60b46d	-0.054859567
185	0x3d989e6e	0.07452093
186	0x3d832f16	0.06405465
187	0x3e7fd9c3	0.24985413
188	0x3d12efc5	0.035873193
189	0x3d976b6f	0.07393538
190	0x3d18b7cd	0.03728466
191	0xbd31e51f	-0.043431398
192	0xbd10968a	-0.035299815
193	0x3a8abbc0	0.0010584518
194	0xbda93ef5	-0.08263961
195	0x3d60ebc8	0.05491236
196	0xbd8c3506	-0.06846051
197	0x3e0999de	0.13437602
198	0x3d94b56c	0.07261166
199	0xbcdb48ca	-0.026768107
200	0xbd7deedf	-0.061995383
201	0x3c010df4	0.007876862
202	0x3e001db8	0.12511337
203	0xbe18b97e	-0.1491451
204	0x3d9cc496	0.07654683
205	0x3cc3cb41	0.02390063
206	0x3d8711a0	0.065951586
207	0xbd810414	-0.06299606
208	0xbd47e997	-0.048806753
209	0xbd0912b7	-0.033465113
210	0xbe0a49fe	-0.13504788
211	0xbb0a2749	-0.0021080545
212	0xbd80fe5a	-0.06298514
213	0x3d9eb66f	0.0774964
214	0x3db35562	0.0875652
215	0xbe280bb0	-0.16410708
216	0xbdc59655	-0.09647814
217	0xbcf52a87	-0.029927505
218	0xbdf27318	-0.11838359
219	0x3df642b9	0.12024445
220	0x3cd2077f	0.02563834
221	0x3aeb284c	0.0017941087
222	0x3d9cb350	0.07651389
223	0x3d386b3f	0.045024153
224	0x3da5b094	0.0809032
225	0x3d00776c	0.03136389
226	0xbd54b137	-0.051926818
227	0xbdab00fc	-0.08349797
228	0x3d7a3825	0.0610887
229	0x3ca69af7	0.020337565
230	0x3d7caa2c	0.061685726
231	0xbdad68db	-0.08467265
232	0x3d9d6204	0.076847106
233	0x3d89d5a0	0.06730199
234	0xbd07a6c9	-0.033118043
235	0xbd9ef940	-0.077623844
236	0x3b9d5ac9	0.004802082
237	0x3def4e21	0.11684824
238	0xbbe16e2c	-0.0068795886
239	0xbb76ceb3	-0.0037659823
240	0xbddc0b59	-0.10744352
241	0x3e0e41f6	0.1389235
242	0x3d8f619f	0.070010416
243	0x3d6a54cd	0.05720978
244	0x3d6a9f50	0.05728084
245	0x3d7d0cec	0.0617799
246	0xbe85bb9c	-0.26119697
247	0x3d91ff42	0.07128765
248	0x3dcfbd99	0.10143585
249	0x3c06144b	0.008183549
250	0x3d510e15	0.05103882
251	0x3cd72779	0.02626394
252	0x3d4518b6	0.04811927
253	0x3d9fc32e	0.078008994
254	0x3ced5615	0.028971711
255	0xb9167012	-0.00014346864

fc3_val.bias f4 [4]
0	0x3dde749c	0.10862085
1	0x3e19af60	0.15008307
2	0x3d78f306	0.06077864
3	0x3e00709c	0.12542957
