checkpoints/INCOMPLETE - DUELING_DQN.pth (torch_old, 45963 bytes, 9 tensors)

fc1.weight f4 [64, 37]
0.06255713 0.06385655 -0.2383352 -0.19464721 -0.0031233174 0.05022331 0.0066917413 0.11699567
-0.06172381 0.020730255 0.008915548 -0.07102186 -0.12605453 -0.20323844 -0.10296625 0.0035679534
0.04270676 0.09510287 -0.19763303 -0.08010887 0.045210388 0.09404872 -0.017304465 0.15146458
-0.03594827 -0.003473745 0.14561108 -0.15634201 -0.14288174 -0.123337805 -0.13384163 0.1652491
-0.15668364 -0.04708521 -0.12362436 -0.16557789 -0.06394129 0.088686764 0.095261835 0.1057154
0.038989235 -0.125536 0.016016517 -0.13562936 -0.106620625 -0.14052528 0.06728857 0.099483676
-0.1275558 0.0023943996 0.2743668 0.14904715 0.04150687 0.051692788 0.09201432 -0.058628067
-0.0016041233 -0.09916752 -0.15806411 -0.026440052 0.051032383 0.056145635 -0.05712174 0.058308803
0.078086995 -0.06135182 -0.018928673 0.004693059 0.09794096 0.21542507 -0.11886422 -0.06141633
0.04750119 0.07849569 0.1269441 0.14474584 0.043230772 0.032158487 -0.17076874 -0.13091184
-0.15392932 0.07063241 0.24435012 -0.3041486 0.18969026 -0.05878279 0.016675802 -0.1632679
0.12882823 -0.1236313 -0.019779474 0.17778094 0.21543975 -0.054208502 -0.14629063 -0.09863963
0.14473425 0.021483928 -0.14049703 -0.0072571537 0.11337493 0.17550737 -0.14288634 -0.07171856
-0.17000647 0.043287415 -0.12700889 -0.08022582 -0.027858803 0.07366347 -0.075350635 0.108691804
-0.1312851 0.17184243 -0.0409825 -0.13402428 -0.15602423 0.03087375 0.01290645 0.05659283
-0.0017962338 0.05926397 -0.14203773 0.09991975 -0.24268629 -0.14712642 -0.02190628 -0.10171193
-0.1011148 -0.15043873 -0.079869755 0.09246271 -0.119245976 -0.10440831 0.1445467 -0.033588056
0.04790773 -0.02024414 0.037457574 -0.046045594 0.0753991 -0.07607683 0.19180778 0.122653335
-0.28844315 -0.08458109 0.16385944 -0.011165195 -0.034907024 -0.18617839 -0.15618648 -0.3252515
-0.05587522 0.12269542 0.03774872 -0.25776553 0.07433095 -0.2790117 -0.10328715 -0.092181355
-0.016879732 -0.06426979 -0.16402721 -0.08693968 -0.064231835 -0.081762135 -0.29992372 0.0015822988
-0.17898017 0.003928369 0.082417995 -0.1378812 0.12693195 0.091060765 -0.22248562 0.032113228
-0.081644624 -0.17440459 0.17008305 -0.22694457 0.010953477 -0.04763845 0.0057623284 0.020480916
0.06284687 0.07758311 -0.09103639 -0.08172912 -0.114072755 0.08025615 0.051697824 -0.0009823686
0.07376574 -0.021312809 -0.0020704824 -0.032928023 -0.07255964 -0.05284011 -0.14481921 0.019749604
0.013914172 0.030282494 -0.029768603 -0.16843733 -0.05761224 0.17957449 -0.10659419 0.14194193
0.025148388 -0.0011058754 -0.030497635 -0.14016597 0.063583314 0.058832075 0.00832634 0.0024034432
-0.13042699 -0.049978714 0.05965834 -0.10339457 0.095999464 0.10864261 0.09073541 0.060572434
-0.18974113 -0.032837164 -0.18348756 -0.14133383 -0.050074473 -0.009474132 0.010110491 0.08211456
0.084934555 0.08755386 0.09898462 -0.07167633 0.074871026 -0.0558541 -0.13247415 0.07848399
0.072785266 0.04330275 -0.058726653 0.0044917525 0.08631297 -0.121844135 0.19836247 -0.10072683
-0.017381504 -0.004758852 -0.17045063 -0.058369644 0.097013 -0.073157586 -0.034907974 -0.046495147
00000000: f41d 803d 39c7 823d 250e 74be 9951 47be
00000010: 92b0 4cbb f5b6 4d3d 6546 db3b 6d9b ef3d
00000020: 1bd2 7cbd 7fd2 a93c 8512 123c e973 91bd
00000030: 7014 01be bd1d 50be f8df d2bd 53d4 693b
00000040: 49ed 2e3d 4bc5 c23d 5060 4abe 1f10 a4bd
00000050: 872e 393d 9e9c c03d 18c2 8dbc 8819 1b3e
00000060: 7e3e 13bd c5a7 63bb 121b 153e 1f18 20be
00000070: 974f 12be 8898 fcbd c80d 09be 0f37 293e
00000080: ad71 20be 6cdc 40bd c52e fdbd 408d 29be
00000090: a7f3 82bd 68a1 b53d a318 c33d 5181 d83d
000000a0: 2db3 1f3d 828c 00be 1235 833c 6ce2 0abe
000000b0: ea5b dabd dce5 0fbe 97ce 893d 19be cb3d
000000c0: fd9d 02be 5ceb 1c3b ce79 8c3e d19f 183e
000000d0: 1c03 2a3d d1bb 533d 0172 bc3d fc23 70bd
000000e0: 7241 d2ba 5718 cbbd 8fdb 21be cf98 d8bc
000000f0: 5507 513d f7f8 653d 7cf8 69bd 36d5 6e3d
00000100: 13ec 9f3d 0c4c 7bbd 4e10 9bbc 3bc8 993b
00000110: 4595 c83d 6498 5c3e 166f f3bd b18f 7bbd
00000120: 9c90 423d 59c2 a03d a2fd 013e 4138 143e
00000130: c012 313d 9eb8 033d 00de 2ebe c10d 06be
00000140: a69f 1dbe baa7 903d eb36 7a3e 5eb9 9bbe
00000150: 2a3e 423e 39c6 70bd b19b 883c b32f 27be
00000160: 8ceb 033e 6832 fdbd 9008 a2bc 350c 363e
00000170: 3d9c 5c3e bc09 5ebd 36cd 15be 9303 cabd
00000180: 3735 143e 10ff af3c 74de 0fbe 6bcd edbb
00000190: 1e31 e83d 34b8 333e cc50 12be 2ee1 92bd
000001a0: 2d16 2ebe 254e 313d 9e0e 02be 6f4d a4bd
000001b0: 2538 e4bc e0dc 963d 6f51 9abd cf99 de3d
000001c0: 9a6f 06be 76f7 2f3e 44dd 27bd a93d 09be
000001d0: d1c4 1fbe f2ea fc3c 9375 533c e2cd 673d
000001e0: 9b6f ebba c7be 723d 5772 11be baa2 cc3d
000001f0: c182 78be 4fa8 16be cd74 b3bc 584e d0bd
00000200: 4715 cfbd 9c0c 1abe c192 a3bd 175d bd3d
00000210: 3c37 f4bd 06d4 d5bd 0d04 143e a193 09bd
00000220: e53a 443d 0ad7 a5bc 1d6d 193d 4e9a 3cbd
00000230: d86a 9a3d 2bce 9bbd 4269 443e ac31 fb3d
00000240: d2ae 93be da38 adbd c5ca 273e 39ee 36bc
00000250: abfa 0ebd 8ca5 3ebe 59ef 1fbe 5d87 a6be
00000260: 6add 64bd bd47 fb3d 679e 1a3d d8f9 83be
00000270: d33a 983d 9fda 8ebe 3788 d3bd 94c9 bcbd
00000280: 5d47 8abc e19f 83bd c0f6 27be 6e0d b2bd
00000290: fb8b 83bd e872 a7bd 9a8f 99be 2365 cf3a
000002a0: 9446 37be 8cb9 803b c4ca a83d bb30 0dbe
000002b0: 73fa 013e 117e ba3d 45d3 63be 2989 033d
000002c0: 4c35 a7bd 1e97 32be 402a 2e3e 2864 68be
000002d0: 3676 333c 8920 43bd ead1 bc3b 98c7 a73c
000002e0: dcb5 803d e5e3 9e3d 4971 babd 9961 a7bd
000002f0: fa9e e9bd 565d a43d 19c1 533d d2c2 80ba
00000300: 7e12 973d 3398 aebc eeb0 07bb 89df 06bd
00000310: 269a 94bd df6e 58bd 7d4b 14be ecc9 a13c
00000320: 44f8 633c fe12 f83c 49dd f3bc d67a 2cbe
00000330: d0fa 6bbd 60e2 373e 0e4e dabd 3a59 113e
00000340: fe03 ce3c 05f3 90ba 2dd6 f9bc ab87 0fbe
00000350: f837 823d e7f9 703d 336b 083c 1683 1d3b
00000360: a78e 05be 7bb6 4cbd 4e5c 743d 88c0 d3bd
00000370: 5e9b c43d 0480 de3d 7dd3 b93d cd1a 783d
00000380: 804b 42be 4380 06bd 2ae4 3bbe d1b9 10be
00000390: e41a 4dbd 6439 1bbc 79a6 253c ae2b a83d
000003a0: 2bf2 ad3d 704f b33d 73b8 ca3d 0acb 92bd
000003b0: fb55 993d 45c7 64bd 4ea7 07be 37bc a03d
000003c0: 7110 953d 395e 313d 5c8b 70bd 8d2f 933b
000003d0: dbc4 b03d 6b89 f9bd 881f 4b3e de49 cebd
000003e0: a863 8ebc 25f0 9bbb 9c8a 2ebe 0215 6fbd
000003f0: c0ae c63d a5d3 95bd aafb 0ebd b271 3ebd

fc1.bias f4 [64]
0.11522005 -0.0171635 -0.10371019 -0.073880255 0.12104306 -0.056569465 -0.073600456 0.031583555
-0.051821213 -0.12399143 0.16335292 0.040951867 0.12733074 0.08948783 -0.061167806 -0.10070309
0.032899868 -0.057592902 0.009397815 -0.20458297 -0.11669256 0.053587414 0.007176991 -0.11073282
-0.1725435 0.14998324 -0.046826404 -0.15560159 0.13346967 0.082461685 -0.07022514 -0.12372114
0.17658155 0.016890446 -0.0754726 0.090987414 -0.0038632862 -0.009411801 -0.07937284 -0.17063643
-0.094259836 -0.035865184 -0.13593364 0.17847896 0.0072230957 -0.08460753 0.06360274 -0.1447868
-0.08359298 0.09776184 -0.11220642 0.097588636 0.0019892436 -0.103097744 -0.15234448 0.06302737
0.09808859 -0.03907166 -0.1372526 -0.13367373 0.04704126 0.011052861 0.02909807 0.030268792
00000000: 7df8 eb3d 789a 8cbc 0266 d4bd 884e 97bd
00000010: 6de5 f73d 62b5 67bd d6bb 96bd c25d 013d
00000020: 7b42 54bd 38ef fdbd fd45 273e 25bd 273d
00000030: fd62 023e 6545 b73d 188b 7abd 6c3d cebd
00000040: 03c2 063d 89e6 6bbd 4bf9 193c 337e 51be
00000050: 82fc eebd 7a7e 5b3d f72c eb3b e4c7 e2bd
00000060: 3eaf 30be 3595 193e 0bcd 3fbd 0656 1fbe
00000070: 46ac 083e ace1 a83d 33d2 8fbd 8261 fdbd
00000080: cbd1 343e d55d 8a3c 6191 9abd 9c57 ba3d
00000090: 302f 7dbb f433 1abc 3a8e a2bd 51bb 2ebe
000000a0: 4d0b c1bd 5fe7 12bd 3032 0bbe 30c3 363e
000000b0: b8af ec3b b646 adbd 2742 823d fe42 14be
000000c0: cc32 abbd 5c37 c83d 7bcc e5bd 8ddc c73d
000000d0: f85d 023b e924 d3bd 3100 1cbe 7e14 813d
000000e0: ace2 c83d 9b09 20bd f28b 0cbe c4e1 08be
000000f0: 56ae 403d 0f17 353c 135f ee3c 42f6 f73c

fc2_adv.weight f4 [64, 64]
-0.042210903 0.069741555 0.19112356 0.13240524 0.12603655 -0.039492518 -0.029562859 0.029888414
0.10763447 0.0855903 0.029035522 0.012608206 -0.14164099 0.09512087 -0.008640655 0.005542063
-0.103657246 -0.03067945 0.018233253 0.06154459 -0.07636687 -0.06838678 0.10314034 -0.08666443
-0.082844585 -0.14431237 0.12664448 0.030325396 0.051694497 -0.06438676 0.21465352 -0.0773377
0.1396048 -0.01352759 0.013120327 0.0797722 -0.12176545 0.104203515 0.065453865 -0.1409637
-0.11922976 -0.08914051 0.22074218 -0.048542712 0.066015884 -0.06283686 -0.12896676 0.085127614
-0.100725934 -0.055081367 -0.09220393 0.008795455 -0.11898742 0.0363928 0.036896426 0.075546905
-0.051804803 -0.060176816 -0.06892217 0.08771075 0.086059034 0.121874824 -0.038898967 0.055892956
-0.053942665 0.09615922 -0.12150757 0.012399417 0.05756175 0.049462743 -0.0733321 0.09141992
-0.08307038 -0.07305204 -0.0013905328 0.117975 -0.14147405 0.05760037 -0.041351356 0.0017384725
0.06418373 -0.002839873 -0.06791964 -0.037634492 -0.005055226 -0.17265278 0.01767916 -0.10006851
-0.025197934 0.017581899 -0.13598299 -0.08599491 0.04976531 -0.10657789 0.0687388 -0.0963849
-0.0390099 0.115558565 0.02637919 -0.10330653 -0.018321447 0.050325733 0.09285771 -0.10080694
-0.09621647 0.020899745 -0.02879935 -0.08453539 -0.043294583 -0.17109668 -0.1408722 -0.054022305
-0.058381256 -0.00203701 -0.018365014 0.040222537 -0.087168455 0.010636524 -0.12364288 0.053234067
-0.11022017 -0.0066782585 0.050307903 -0.0113362605 -0.15867476 0.0052330806 -0.009521778 -0.08781083
-0.0960072 -0.08328503 0.15537147 0.014891376 -0.11608135 0.009187611 -0.025742926 0.027187604
0.06792013 -0.081700645 0.03883993 0.044331364 0.12265517 0.12491737 0.022169631 -0.03413332
-0.08702753 0.002352057 0.08568635 -0.016508248 -0.1595073 0.1045768 0.04664785 0.027628437
-0.038081408 0.10680476 0.08872224 0.0508166 -0.060426526 0.16396832 0.15526459 0.032399107
-0.04545953 -0.075011976 -0.15730141 0.07474189 0.10655367 0.09076743 -0.13945493 0.092023924
0.07430902 -0.15529399 -0.14083683 -0.12950858 -0.00265558 0.052450296 0.061471086 -0.1454086
0.00015441305 -0.16662319 -0.15257148 0.027051132 -0.16130374 0.011089156 -0.12829642 -0.11191686
-0.07586132 -0.14722525 0.018724881 0.13936833 0.01948284 0.036909837 0.12312098 0.19768259
0.0076088468 -0.079129264 0.042529855 -0.16517529 -0.035253342 -0.047181178 -0.11500382 -0.09731098
-0.14599088 -0.008870123 -0.01609737 -0.006039413 -0.04421746 0.093010634 -0.036181543 -0.036952265
-0.037552305 0.0049019926 -0.018156629 0.013464971 -0.04940513 0.12854697 -0.046925746 0.06735165
0.14796406 0.06875909 0.12830988 0.042170893 0.14889921 -0.11405027 0.02455817 -0.006474969
-0.11781587 -0.033755954 0.06324644 0.12179379 -0.11071608 -0.015885854 0.12682436 -0.024586301
0.11659445 0.12073001 0.004413111 -0.043278493 -0.017039947 0.024573714 0.029556856 0.0030400653
-0.009750497 0.015502095 -0.02436926 0.054584697 0.05379247 0.052820303 -0.004887756 0.017237378
-0.13680711 -0.08464278 -0.05919039 0.14288366 -0.15518849 0.023712764 -0.13261415 0.03466199
00000000: 57e5 2cbd a9d4 8e3d e5b5 433e 3d95 073e
00000010: ba0f 013e e8c2 21bd cf2d f2bc 8cd8 f43c
00000020: 766f dc3d f849 af3d e7db ed3c a692 4e3c
00000030: 560a 11be bbce c23d 8991 0dbc 329a b53b
00000040: 404a d4bd 7853 fbbc e75d 953c 2e16 7c3d
00000050: 3c66 9cbd 5e0e 8cbd 3e3b d33d 1f7d b1bd
00000060: 6caa a9bd 9fc6 13be 17af 013e f76c f83c
00000070: 9cbd 533d 35dd 83bd 22ce 5b3e 3a63 9ebd
00000080: 90f4 0e3e d3a2 5dbc a4f6 563c 9b5f a33d
00000090: 2a60 f9bd a768 d53d ad0c 863d ca58 10be
000000a0: bb2e f4bd 4d8f b6bd 3d0a 623e b9d4 46bd
000000b0: 5633 873d 9db0 80bd dd0f 04be 6357 ae3d
000000c0: 6649 cebd 009d 61bd 6ad5 bcbd d01a 103c
000000d0: adaf f3bd 9e10 153d b520 173d 56b8 9a3d
000000e0: 4631 54bd f77b 76bd 1127 8dbd b2a1 b33d
000000f0: b83f b03d 8299 f93d 8654 1fbd 03f0 643d
00000100: fcf2 5cbd 20ef c43d f6d8 f8bd ed26 4b3c
00000110: dfc5 6b3d 7299 4a3d 242f 96bd 5e3a bb3d
00000120: ce20 aabd 4f9c 95bd 8a42 b6ba e09c f13d
00000130: 93de 10be 5eee 6b3d 0a60 29bd 75dd e33a
00000140: c272 833d 2a1d 3abb 7419 8bbd a026 1abd
00000150: 4fa6 a5bb e4cb 30be e3d3 903c b8f0 ccbd
00000160: e66b cebc ea07 903c 203f 0bbe 191e b0bd
00000170: b6d6 4b3d 8245 dabd eec6 8c3d 7265 c5bd
00000180: d8c8 1fbd f8a9 ec3d 2c19 d83c 6092 d3bd
00000190: dc16 96bc 5b22 4e3d 2f2c be3d de73 cebd
000001a0: 240d c5bd f135 ab3c 9dec ebbc e420 adbd
000001b0: a955 31bd f833 2fbe cd40 10be 7e46 5dbd
000001c0: 2f21 6fbd 5b7f 05bb 3a72 96bc 63c0 243d
000001d0: 6085 b2bd d144 2e3c 7a38 fdbd f70b 5a3d
000001e0: 1dbb e1bd 4bd5 dabb a90f 4e3d b9bb 39bc
000001f0: a37b 22be 437a ab3b 3b01 1cbc 2ad6 b3bd
00000200: 6c9f c4bd 5891 aabd b319 1f3e f5fa 733c
00000210: 0fbc edbd a287 163c d4e2 d2bc 8ab8 de3c
00000220: b619 8b3d ab52 a7bd 9e16 1f3d ce94 353d
00000230: a232 fb3d aed4 ff3d 169d b53c 61cf 0bbd
00000240: 7d3b b2bd f824 1a3b 537c af3d 4e3c 87bc
00000250: e255 23be 5c2c d63d d111 3f3d 0855 e23c
00000260: 40fb 1bbd 74bc da3d 01b4 b53d 1125 503d
00000270: ce81 77bd 50e7 273e aefd 1e3e edb4 043d
00000280: c633 3abd e19f 99bd 9f13 21be 4712 993d
00000290: cf38 da3d 46e4 b93d 46cd 0ebe 0a77 bc3d
000002a0: 542f 983d 6305 1fbe 8837 10be e69d 04be
000002b0: 3d09 2ebb 1fd6 563d 1bc9 7b3d fee5 14be
000002c0: f0e9 2139 459f 2abe b33b 1cbe 569a dd3c
000002d0: cf2c 25be 4baf 353c 2360 03be ab34 e5bd
000002e0: 2e5d 9bbd 37c2 16be ec64 993c 92b6 0e3e
000002f0: 7a9a 9f3c c52e 173d da26 fc3d 4e6d 4a3e
00000300: a253 f93b 860e a2bd c933 2e3d b623 29be
00000310: cf65 10bd 0d41 41bd 1f87 ebbd fb4a c7bd
00000320: a27e 15be fe53 11bc a2de 83bc 45e6 c5bb
00000330: 5e1d 35bd 5c7c be3d 1933 14bd 425b 17bd
00000340: 72d0 19bd e5a0 a03b 36bd 94bc 2f9c 5c3c
00000350: 095d 4abd d1a1 033e 3635 40bd a9ef 893d
00000360: e483 173e 91d1 8c3d aa63 033e 63bb 2c3d
00000370: 0979 183e 3093 e9bd 372e c93c fa2b d4bb
00000380: 7249 f1bd af43 0abd 5987 813d 066f f93d
00000390: 1dbf e2bd 0d23 82bc 3fde 013e 3669 c9bc
000003a0: 12c9 ee3d 4c41 f73d dc9b 903b ca44 31bd
000003b0: 5c97 8bbc d04e c93c 3821 f23c d53b 473b
000003c0: 8cc0 1fbc 80fc 7d3c 0ba2 c7bc 3494 5f3d
000003d0: 7e55 5c3d 1a5a 583d 7829 a0bb 6735 8d3c
000003e0: 2a17 0cbe 3259 adbd 9f71 72bd 1850 123e
000003f0: bbe9 1ebe 4541 c23c 01cc 07be bbf9 0d3d

fc2_adv.bias f4 [64]
-0.07117704 -0.09583506 0.021255014 0.052911725 0.12026092 -0.12212179 -0.097848505 0.057156906
0.008972676 0.096053235 -0.05839271 0.115380354 0.052261885 -0.03880126 -0.07130518 -0.004703529
-0.00016282854 -0.051369417 -0.094221644 0.021175971 -0.03413798 0.09783118 -0.046459377 -0.09779039
-0.097719975 -0.097420014 0.10653492 -0.090627216 -0.07178867 0.0892612 0.0893206 -0.13740297
-0.01644099 0.12930818 0.010178531 -0.067357875 -0.111040786 -0.08182765 0.0344966 -0.055746924
-0.14427279 0.11421294 0.021332854 -0.040163852 -0.021033952 -0.056108415 -0.10468663 -0.11103095
0.0781923 -0.11172345 -0.08874326 0.08042558 -0.06852434 -0.066658296 -0.021308582 -0.1376385
-0.111008726 -0.10747352 0.0067878296 -0.050430737 0.17397 0.098730795 0.157494 -0.13465469
00000000: 45c5 91bd 2c45 c4bd ff1e ae3c f7b9 583d
00000010: 5b4b f63d fd1a fabd cc64 c8bd 5c1d 6a3d
00000020: 2102 133c 8fb7 c43d 322d 6fbd 894c ec3d
00000030: 8f10 563d 12ee 1ebd 7308 92bd 1020 9abb
00000040: f4bc 2ab9 bd68 52bd 47f7 c0bd 3b79 ad3c
00000050: 44d4 0bbd b75b c83d 304c 3ebd 5446 c8bd
00000060: 6921 c8bd 2584 c7bd fb2e da3d c39a b9bd
00000070: f005 93bd 93ce b63d b8ed b63d 5db3 0cbe
00000080: 41af 86bc 5d69 043e dac3 263c edf2 89bd
00000090: 5a69 e3bd 4195 a7bd 4f4c 0d3d e356 64bd
000000a0: 3fbc 13be 79e8 e93d 3dc2 ae3c da82 24bd
000000b0: 654f acbc f0d1 65bd f265 d6bd 3264 e3bd
000000c0: 4923 a03d 44cf e4bd 07bf b5bd 2bb6 a43d
000000d0: 7d56 8cbd 2584 88bd 568f aebc 1bf1 0cbe
000000e0: 8b58 e3bd 141b dcbd 716c de3b 7690 4ebd
000000f0: 3125 323e 5f33 ca3d 1b46 213e ebe2 09be

fc2_val.weight f4 [64, 64]
-0.012520371 0.09515857 0.004236249 -0.024430742 0.16028598 -0.04223665 0.10732398 -0.064878576
0.042034242 0.03968309 -0.09967413 0.11564265 -0.029790854 0.03575528 -0.088297695 -0.043801565
-0.021231798 0.07228409 0.0047683045 0.10391104 0.0641318 -0.0016114927 0.076422885 -0.036408104
-0.08061027 -0.032776285 -0.04309536 -0.09667489 0.03790356 0.020914286 -0.114734724 0.073393494
0.050108675 0.11206284 0.009226336 -0.006754971 0.09535395 -0.054097347 -0.12249017 0.10255433
0.06599237 0.06893226 -0.044055026 0.051856857 0.0073844553 0.024115914 0.11865845 0.110195294
-0.06267813 0.14289542 -0.029587174 0.026556568 0.103567 -0.049714822 0.12609665 -0.00949329
-0.07894193 -0.024916762 0.10288313 0.054684594 -0.04384361 0.16005771 0.048038892 0.121763974
0.06804871 -0.07988012 0.15652815 -0.013059331 -0.029716494 0.008051449 -0.06256761 0.019087305
-0.13078675 0.027349733 0.11973205 0.0036618134 -0.13168657 0.014167574 -0.045132738 0.03701432
-0.08618759 0.03607885 -0.07843502 -0.0026123738 0.07211691 0.047658782 0.003309259 0.1137443
-0.0390373 -0.11800182 0.13558134 0.11167185 -0.07236218 0.06410355 0.21680522 0.045751635
0.003915465 -0.12433134 0.09050122 -0.102846 0.012256191 -0.1398114 -0.0011242436 -0.059554994
0.16086237 0.09534438 -0.019574612 0.11871109 -0.11544987 -0.09139718 0.050385036 -0.07291778
-0.0011492715 -0.043482065 0.010739663 -0.08930193 0.08062427 0.21795844 -0.024465 0.015060256
-0.043948285 -0.063093744 0.1244595 -0.20892832 -0.025503093 -0.11584369 -0.014456755 -0.02817884
-0.0024130552 0.00047471887 0.012912299 -0.014761732 0.1636627 -0.011878794 0.09544798 0.01814045
0.010781109 0.048681516 -0.096753895 0.17716081 0.12598658 -0.08052605 -0.09625488 0.06802795
0.04336721 0.008866409 -0.07244725 -0.029622328 -0.035932012 0.09343269 -0.070916854 0.00084524363
0.03912007 -0.005573848 0.020448385 -0.09513575 0.12972759 0.10328108 0.043000445 -0.06652643
-0.12207417 -0.055662457 0.10204744 0.10535487 0.022004832 -0.12338275 0.030226428 0.026502643
0.08052191 0.07302418 0.094290495 -0.0013414684 -0.021516727 0.0042372383 0.082109965 0.114482716
-0.0062563005 -0.015775653 -0.049294688 0.102461815 -0.11425678 0.06874838 0.058117926 0.10325966
-0.0369485 -0.014794172 0.0018037948 -0.025549952 -0.13081776 0.06269535 -0.1494077 -0.06376938
0.040972237 0.065103464 -0.029082516 0.032773238 -0.07221386 0.028227016 -0.0662126 0.05986382
0.023684278 0.13975742 0.008160101 -0.03827148 0.03254065 -0.0015384159 -0.0012875663 0.006199461
0.120008886 -0.013910425 0.08255277 0.11773867 -0.043773532 0.12374117 -0.080472164 0.08362786
-0.08787855 -0.22237487 0.012022429 0.08958946 0.113926426 -0.07360295 -0.079822876 0.090437874
-0.1473439 0.018859116 -0.085570514 0.03993661 -0.07489792 0.11190297 0.068023115 0.045309052
-0.123444416 0.13233137 0.09564299 -0.10164932 0.055731148 -0.10846296 -0.0015473048 -0.01478893
0.006257298 -0.04805988 0.096480966 0.026596125 -0.015077185 0.029427193 0.06528401 0.13685805
-0.101592176 -0.20952462 -0.13187492 -0.10734455 -0.12545712 -0.033911355 0.012649251 0.0028291517
00000000: 3e22 4dbc 7fe2 c23d 3bd0 8a3b fb22 c8bc
00000010: 0222 243e 5600 2dbd adcc db3d 0fdf 84bd
00000020: 192c 2c3d bc8a 223d f321 ccbd 0ed6 ec3d
00000030: f30b f4bc 2174 123d 6cd5 b4bd 4569 33bd
00000040: 4fee adbc ae09 943d 703f 9c3b 50cf d43d
00000050: 8857 833d b938 d3ba 9a83 9c3d aa20 15bd
00000060: ff16 a5bd 6d40 06bd c384 30bd 7cfd c5bd
00000070: c340 1b3d 7054 ab3c 0afa eabd 544f 963d
00000080: c13e 4d3d 3481 e53d 0f2a 173c ce58 ddbb
00000090: ef48 c33d 2e95 5dbd 20dc fabd 0108 d23d
000000a0: 0227 873d 5b2c 8d3d 0b73 34bd db67 543d
000000b0: 4df9 f13b bd8e c53c 3403 f33d 12ae e13d
000000c0: 645d 80bd 2d53 123e cd60 f2bc 298d d93c
000000d0: ef1a d43d c5a1 4bbd 7b1f 013e bf89 1bbc
000000e0: 4eac a1bd 3d1e ccbc 64b4 d23d f4fc 5f3d
000000f0: 5b95 33bd 2be6 233e 6ec4 443d 645f f93d
00000100: 1f5d 8b3d 3098 a3bd ea48 203e cef6 55bc
00000110: 0170 f3bc 3aea 033c 7223 80bd fb5c 9c3c
00000120: f6ec 05be 8c0c e03c 1436 f53d 09fb 6f3b
00000130: d8d8 06be 1d1f 683c 1bdd 38bd 549c 173d
00000140: 1f83 b0bd 6bc7 133d 8aa2 a0bd 5c34 2bbb
00000150: 08b2 933d db35 433d 27e0 583b c6f2 e83d
00000160: 93e5 1fbd f0aa f1bd d6d5 0a3e 36b4 e43d
00000170: 9f32 94bd b948 833d 3002 5e3e 1166 3b3d
00000180: 4d4d 803b 6ea1 febd b458 b93d eca0 d2bd
00000190: 31ce 483c b82a 0fbe 5b5b 93ba f0ef 73bd
000001a0: 1bb9 243e ea43 c33d f05a a0bc cd1e f33d
000001b0: fb70 ecbd 722e bbbd 8a60 4e3d eb55 95bd
000001c0: 27a3 96ba 401a 32bd 69f5 2f3c eee3 b6bd
000001d0: 561e a53d 7f30 5f3e d36a c8bc 4bbf 763c
000001e0: 1e03 34bd 4b37 81bd 9fe4 fe3d 4ef1 55be
000001f0: ddeb d0bc 753f edbd 06dc 6cbc 50d7 e6bc
00000200: 5924 1ebb b0e3 f839 1b8e 533c 31db 71bc
00000210: 3297 273e 469f 42bc 3b7a c33d 489b 943c
00000220: 40a3 303c 4566 473d e826 c6bd a569 353e
00000230: a002 013e d7ea a4bd 4721 c5bd 3d52 8b3d
00000240: d1a1 313d 6a44 113c 395f 94bd 86aa f2bc
00000250: 722d 13bd a359 bf3d db3c 91bd 5793 5d3a
00000260: 5e3c 203d d3a4 b6bb 5f83 a73c 88d6 c2bd
00000270: 4fd7 043e 0885 d33d 3c21 303d 023f 88bd
00000280: 0602 fabd 51fe 63bd 40fe d03d 4bc4 d73d
00000290: 7a43 b43c 18b0 fcbd 6a9d f73c 121c d93c
000002a0: ace8 a43d b48d 953d 601b c13d 36d4 afba
000002b0: d943 b0bc 88d8 8a3b 4529 a83d ea75 ea3d
000002c0: a701 cdbb f13b 81bc 3ae9 49bd 80d7 d13d
000002d0: 75ff e9bd f3cb 8c3d 100d 6e3d cd79 d33d
000002e0: 4f57 17bd 4163 72bc 4f6d ec3a 224e d1bc
000002f0: 17f5 05be 6b66 803d 55fe 18be 8599 82bd
00000300: 81d2 273d f754 853d 753e eebc 3b3d 063d
00000310: dce4 93bd 583c e73c 799a 87bd c433 753d
00000320: 8805 c23c 921c 0f3e f2b1 053c 8ec2 1cbd
00000330: 5849 053d aca4 c9ba 8ec3 a8ba d924 cb3b
00000340: 38c7 f53d 8de8 63bc 6d11 a93d f920 f13d
00000350: e04b 33bd 036c fd3d 97ce a4bd 1545 ab3d
00000360: abf9 b3bd 3db6 63be b9f9 443c ae7a b73d
00000370: 4252 e93d 25bd 96bd 2d7a a3bd 7e37 b93d
00000380: 52e1 16be 6f7e 9a3c 983f afbd 9294 233d
00000390: 1564 99bd 622d e53d b44f 8b3d fc95 393d
000003a0: 6dd0 fcbd e081 073e 79e0 c33d 852d d0bd
000003b0: 5846 643d d421 debd efce caba 454d 72bc
000003c0: 050a cd3b 70da 44bd d097 c53d 1ee0 d93c
000003d0: 4c06 77bc 4c11 f13c 9fb3 853d 8424 0c3e
000003e0: 8f0f d0bd 9f8d 56be 380a 07be 76d7 dbbd
000003f0: d577 00be a2e6 0abd ce3e 4f3c 4a69 393b

fc2_val.bias f4 [64]
-0.02420785 0.073014945 0.014504892 -0.117567934 -0.024564296 0.00992443 -0.038221635 0.10014723
-0.06817609 0.094258554 0.04117622 -0.03493508 0.13389497 -0.061679933 0.02379591 -0.0681351
-0.12395099 0.05956155 -0.018209008 0.08138094 0.039403014 0.10301291 0.025758056 0.0039665923
-0.08717637 -0.03328326 -0.054398883 0.10329566 0.07313504 -0.0025227938 -0.1291236 -0.078414135
-0.13498533 0.074071325 0.061443612 -0.1034156 -0.07951164 0.08343106 0.076113865 -0.08100033
0.0011865185 0.0484618 0.082174696 0.006416731 -0.030327711 -0.05860863 -0.03319216 -0.06490836
-0.090366416 0.081535175 0.060929038 0.06837343 -0.0826585 0.0047171237 0.08264018 0.10919162
-0.026355358 -0.05351373 0.14211689 -0.032621223 0.004954153 -0.028690215 -0.018687261 0.0061338004
00000000: 8b4f c6bc dc88 953d eda5 6d3c 75c7 f0bd
00000010: 103b c9bc 149a 223c 4a8e 1cbd fe19 cd3d
00000020: e89f 8bbd a10a c13d 65a8 283d 1618 0fbd
00000030: c31b 093e 19a4 7cbd a4ef c23c 6a8a 8bbd
00000040: 04da fdbd d0f6 733d 0f2b 95bc 0dab a63d
00000050: 0e65 213d 6ff8 d23d 8f02 d33c 30fa 813b
00000060: 8689 b2bd 0754 08bd 5dd1 5ebd ad8c d33d
00000070: d3c7 953d 7555 25bb fa38 04be 9797 a0bd
00000080: 9839 0abe b5b2 973d 4cac 7b3d 8fcb d3bd
00000090: 00d7 a2bd e7dd aa3d 96e1 9b3d 80e3 a5bd
000000a0: f484 9b3a e17f 463d 354b a83d 7143 d23b
000000b0: d271 f8bc 9a0f 70bd 81f4 07bd adee 84bd
000000c0: 0712 b9bd eafb a63d ba90 793d 5e07 8c3d
000000d0: dc48 a9bd 1a92 9a3b 413f a93d db9f df3d
000000e0: 31e7 d7bc 3731 5bbd 1787 113e d59d 05bd
000000f0: 7356 a23b be07 ebbc 0716 99bc 0cfe c83b

fc3_adv.weight f4 [1, 64]
-0.19702956 -0.07456601 -0.11018352 0.105875894 -0.070366696 0.16883288 0.034844246 -0.09577321
0.062464707 0.04964258 0.049180727 -0.086422026 0.052517314 0.13574256 -0.0078064175 -0.063501015
-0.10211545 -0.12235206 0.10424537 0.06568349 -0.04450188 0.09451493 -0.063770615 -0.12543528
-0.14455457 0.0899734 0.071259126 -0.18954161 0.14918797 0.059817895 -0.12927999 -0.09877922
0.011549355 -0.052040305 0.0628729 0.11163952 -0.07454318 0.1280345 0.12221456 0.1460021
-0.0808775 0.03662202 -0.08263459 -0.124317236 0.1968292 0.055052973 -0.10507776 0.15809682
-0.12809405 0.07236403 0.105684645 -0.041488174 0.13124667 -0.017265024 -0.062395275 -0.08885918
0.027656626 -0.120346904 0.0689156 -0.08115361 -0.05965688 -0.00024643246 -0.0019504357 -0.18119799
00000000: 1ec2 49be 10b6 98bd e6a7 e1bd 76d5 d83d
00000010: 6a1c 90bd 87e2 2c3e d7b8 0e3d bf24 c4bd
00000020: feda 7f3d 0556 4b3d bb71 493d 08fe b0bd
00000030: 651c 573d 1900 0b3e facc ffbb d20c 82bd
00000040: e821 d1bd b893 fabd 997e d53d 1185 863d
00000050: 9a47 36bd 0b91 c13d 2b9a 82bd 1b72 00be
00000060: 1d06 14be f943 b83d 4ef0 913d 3217 42be
00000070: bbc4 183e 9c03 753d f961 04be c24c cabd
00000080: 8239 3d3c 3728 55bd 82c3 803d 43a3 e43d
00000090: 18aa 98bd 7a1b 033e a14b fa3d 9381 153e
000000a0: 1aa3 a5bd f900 163d 533c a9bd 099a febd
000000b0: 988d 493e 3a7f 613d 0233 d7bd 22e4 213e
000000c0: 162b 03be 9833 943d 3171 d83d 81ef 29bd
000000d0: 8765 063e 616f 8dbc 3092 7fbd cdfb b5bd
000000e0: 2690 e23c 7078 f6bd 9f23 8d3d dd33 a6bd
000000f0: c65a 74bd 9b33 81b9 c3a5 ffba f78b 39be

fc3_val.weight f4 [4, 64]
0.04747609 -0.035540376 0.070786685 0.028054364 -0.10224813 -0.058777172 0.10586125 0.05051654
-0.12811367 0.12862764 0.0035939591 -0.052149434 0.046078604 -0.08540408 0.10889106 0.009611004
0.036517322 -0.040195934 -0.010516968 -0.0018182759 -0.012078998 0.047663134 -0.07126648 -0.13570054
-0.11415545 -0.04030856 0.062515795 0.09315825 0.053400204 0.027678676 0.04111803 0.02886589
-0.06487787 -0.1045452 -0.057915572 -0.0698621 0.08568666 0.053624094 0.049101103 0.062379953
-0.16785428 -0.1245659 -0.0627656 -0.033404328 1.606525e-05 0.01849183 0.09424506 0.02548308
-0.116297476 -0.034988597 0.08011018 0.077463895 0.0019334594 -0.040509216 -0.015581427 0.09902351
0.08838623 -0.048835285 0.01031653 -0.041447718 0.0709926 -0.0038799685 -0.0025159991 0.07697886
-0.021112002 0.09790168 0.024755491 -0.15333296 0.040706668 -0.10748832 -0.08406458 -0.08265776
0.17805895 0.06288752 0.115827024 0.21174915 0.03907372 -0.010102974 0.044689603 -0.050389625
0.098224446 0.100394174 0.125093 0.17406872 -0.014290373 -0.048499856 -0.030252326 -0.03638605
0.1679445 -0.040176015 0.023187052 -0.023574883 0.0919688 -0.16904487 0.03198712 0.14106531
-0.09990936 0.014486302 0.12364113 0.17782539 -0.15358284 -0.04298308 -0.11200687 -0.09875313
-0.06369851 0.1079497 0.1644494 0.123584375 -0.009009518 -0.020283516 -0.25946975 0.14148527
0.15430692 -0.14920466 0.0045772716 0.1106579 0.10170637 0.1539649 0.111277856 0.11505714
-0.09728874 0.10207369 0.062205866 -0.10126356 0.046126153 -0.16485418 0.16734567 0.06943602
0.11167694 0.14322779 0.1102222 -0.13806921 -0.15033719 -0.04878513 0.101532325 -0.04289801
0.042317796 0.03698308 0.11704753 -0.096426345 0.050644044 -0.08440602 -0.08394455 -0.12388016
0.07343818 -0.13073403 0.03403712 0.08096656 0.109960526 0.06401903 -0.1250592 0.077167675
0.07651776 -0.11172163 -0.013992274 -0.07200965 -0.010808281 -0.006467505 -0.11800377 -0.05060072
0.050848957 0.10892535 -0.12243063 0.04159606 -0.041353352 -0.022934724 0.10164289 0.019698437
0.09462381 0.045356292 0.013619184 -0.09906594 -0.176071 0.057717532 0.015120067 0.09387771
-0.09148484 -0.052932404 0.10228089 -0.026559023 -0.09489579 -0.1319729 0.16981559 0.062351923
-0.070396446 0.11739205 0.051515024 0.20198321 0.025590489 0.068413556 0.029571913 -0.07193753
-0.03806189 0.0040453565 -0.07105594 0.056908656 0.08699275 0.07936964 0.07068946 -0.003984741
-0.057346553 -0.020971762 0.10153678 -0.14071715 0.06990647 0.03064412 0.07966857 -0.06197391
-0.054230183 0.03362093 -0.08480998 -0.028103942 -0.069457375 0.07061546 0.0863464 -0.0752868
-0.020448916 -0.020932132 -0.10421114 0.09820236 0.0500104 0.00012408351 0.059057523 0.044308864
0.047612708 0.0094387885 -0.053007115 -0.09522158 0.04472796 -0.016176889 0.05297003 -0.085227095
0.041791704 0.08816825 -0.018894788 -0.0799713 0.07497203 0.08654542 -0.016828373 -0.027876893
-0.040760938 0.09428035 0.050224148 0.021328978 0.08707564 0.060920916 -0.14822444 0.060659546
0.1055312 0.014955632 0.030090364 0.01382393 0.055247463 0.057027157 0.051623195 -0.0027112882
00000000: 4a76 423d c992 11bd 9cf8 903d 44d2 e53c
00000010: 7867 d1bd 55c0 70bd c8cd d83d 6eea 4e3d
00000020: 3b30 03be f7b6 033e a188 6b3b a59a 55bd
00000030: ebbc 3c3d 56e8 aebd 4702 df3d 7977 1d3c
00000040: 3093 153d 7ea4 24bd 5c4f 2cbc 3753 eeba
00000050: fde6 45bc 6b3a 433d 29f4 91bd 15f5 0abe
00000060: 55ca e9bd 971a 25bd 4808 803d c1c9 be3d
00000070: 2cba 5a3d 64be e23c 616b 283d 2978 ec3c
00000080: b0de 84bd cb1b d6bd e138 6dbd dc13 8fbd
00000090: 7d7c af3d f0a4 5b3d 3d1e 493d 1f82 7f3d
000000a0: fee1 2bbe 681c ffbd 408b 80bd fad2 08bd
000000b0: ddc3 8637 2e7c 973c 8e03 c13d e4c1 d03c
000000c0: 5f2d eebd 3450 0fbd ce10 a43d 64a5 9e3d
000000d0: 226c fd3a feec 25bd 3e49 7fbc d7cc ca3d
000000e0: d703 b53d 8207 48bd aa06 293c 15c5 29bd
000000f0: 9164 913d 1247 7ebb 76e3 24bb 18a7 9d3d
00000100: 14f3 acbc ad80 c83d 07cc ca3c 5103 1dbe
00000110: 09bc 263d d622 dcbd 0d2a acbd 7948 a9bd
00000120: 1655 363e 2ccb 803d b836 ed3d c5d4 583e
00000130: c40b 203d f286 25bc 720c 373d 5a65 4ebd
00000140: e629 c93d 769b cd3d 6118 003e 123f 323e
00000150: 2b22 6abc c9a7 46bd bad3 f7bc 8a09 15bd
00000160: a5f9 2b3e 9b8f 24bd c6f2 bd3c 1d20 c1bc
00000170: 235a bc3d 191a 2dbe ed04 033d 6d73 103e
00000180: 479d ccbd f457 6d3c 9037 fd3d dc17 363e
00000190: d244 1dbe 070f 30bd dc63 e5bd 153f cabd
000001a0: 5d74 82bd bb14 dd3d 6c65 283e ce19 fd3d
000001b0: a89c 13bc 9e29 a6bc 38d9 84be 84e1 103e
000001c0: a202 1e3e 1bc9 18be f0fc 953b 9ca0 e23d
000001d0: 6e4b d03d faa8 1d3e a5e5 e33d 14a3 eb3d
000001e0: 523f c7bd 030c d13d 94cb 7e3d 4563 cfbd
000001f0: c7ee 3c3d 89cf 28be aa5c 2b3e 7934 8e3d
00000200: e1b6 e43d 4eaa 123e 2dbc e13d 0462 0dbe
00000210: fef1 19be ebd2 47bd 2ef0 cf3d d3b5 2fbd
00000220: 6d55 2d3d 927b 173d 9eb6 ef3d 2d7b c5bd
00000230: 2170 4f3d 10dd acbd 1feb abbd e2b4 fdbd
00000240: c266 963d 24df 05be 826a 0b3d ccd1 a53d
00000250: fc32 e13d 691c 833d 850f 00be 160a 9e3d
00000260: 58b5 9c3d 4fce e4bd da3f 65bc cc79 93bd
00000270: 3715 31bc 5ded d3bb f6ab f1bd b342 4fbd
00000280: ff46 503d 4114 df3d e9bc fabd a160 2a3d
00000290: 2262 29bd 9ae1 bbbc 262a d03d 9e5e a13c
000002a0: 21ca c13d 85c7 393d ff22 5f3c 15e3 cabd
000002b0: f54b 34be 3869 6c3d 28ba 773c f542 c03d
000002c0: 675c bbbd a6cf 58bd a578 d13d 4f92 d9bc
000002d0: b958 c2bd e723 07be 23e4 2d3e bb64 7f3d
000002e0: 032c 90bd 3e6b f03d 6b01 533d b0d4 4e3e
000002f0: 25a3 d13c 681c 8c3d cc40 f23c fc53 93bd
00000300: c9e6 1bbd e98e 843b c785 91bd 0d19 693d
00000310: 4129 b23d 8d8c a23d a3c5 903d 6e92 82bb
00000320: 38e4 6abd f9cc abbc 84f2 cf3d 2818 10be
00000330: 202b 8f3d 6109 fb3c 4629 a33d 5bd8 7dbd
00000340: 7820 5ebd 1ab6 093d dbb0 adbd 3d3a e6bc
00000350: ab3f 8ebd d79e 903d 62d6 b03d f72f 9abd
00000360: 7c84 a7bc dd79 abbc a66c d5bd 521e c93d
00000370: b5d7 4c3d 6a1c 0239 4de6 713d 367d 353d
00000380: 8b05 433d 26a5 1a3c fd1d 59bd 8803 c3bd
00000390: aa34 373d 6585 84bc 1af7 583d 8b8b aebd
000003a0: c72d 2b3d 8e91 b43d 3ec9 9abc fec7 a3bd
000003b0: f08a 993d ba3e b13d a8db 89bc 155e e4bc
000003c0: f1f4 26bd 0e16 c13d d6b7 4d3d 1cba ae3c
000003d0: b754 b23d 3688 793d 26c8 17be 2576 783d
000003e0: be20 d83d 7808 753c 1180 f63c c47d 623c
000003f0: 2a4b 623d 4f95 693d d872 533d deaf 31bb

fc3_val.bias f4 [4]
0.088457584 0.123611666 0.03940303 0.09840134
00000000: 4029 b53d 1d28 fd3d 1265 213d a486 c93d
