checkpoints/VANILLA_DQN.pth (torch_old, 28502 bytes, 6 tensors)

fc1.weight f4 [64, 37]
000000 cd dc 9f be 20 51 62 3e 63 de 1a be 7a c8 01 be
       -0.31223145 0.22101259 -0.15123896 -0.12674132
000010 10 f0 25 be 2b 7c c3 bd d3 9f 2d bc 90 7d e6 3d
       -0.16204858 -0.095451675 -0.010597187 0.11254418
000020 22 29 b0 3d d1 ea 6d 3d ae 70 08 3d 1d bf 67 be
       0.086015955 0.058085267 0.033310585 -0.22631498
000030 70 6b 36 be 86 1a 4c be 70 5f 24 be ee 2c 84 be
       -0.17814422 -0.19931993 -0.16052032 -0.2581553
000040 45 be fd 3d c8 ff a1 3d b6 52 a3 bc 3f 06 cd bd
       0.12389807 0.079101145 -0.0199369 -0.10010957
000050 a1 08 7f 3e e7 6f f5 bc eb 38 e7 bd 6e 42 49 be
       0.24905635 -0.029960586 -0.11290153 -0.19654247
000060 cf 19 e8 be e3 04 42 be 8c 20 11 3e fc fa 7d bd
       -0.4533219 -0.18947177 0.14172572 -0.062006935
000070 12 13 b4 bd a2 0c fe bd 30 48 fb 3d 44 a1 8b bd
       -0.087927 -0.12404753 0.12269628 -0.06817868
000080 e8 1b c7 bd 54 6e 3d be 70 7e fd bd 16 88 41 bd
       -0.097221196 -0.18499118 -0.12377632 -0.047248922
000090 a8 9b bd 3a 19 4f 91 3e 06 bb c1 bc a1 99 82 3d
       0.0014465945 0.2838066 -0.02364875 0.06376959
0000a0 43 d2 db bd 4e 66 cc bd 9b 6a 3a 3c 88 d6 d8 bd
       -0.107334636 -0.099804506 0.011377956 -0.105877936
0000b0 7a 8a 24 be 92 23 2c 3d 4e b9 4c 3e 1c 02 b1 3d
       -0.1606845 0.04202611 0.19992563 0.086429805
0000c0 b7 70 0d 3c 3e 59 34 bd d8 da a3 3d 3b 3f 3c 3e
       0.00863283 -0.04403042 0.080007255 0.18383496
0000d0 c9 fe 2c 3e f6 e6 c4 3a 4d 36 fb 3c 2b 84 c1 bd
       0.16894068 0.0015022445 0.030665541 -0.09449037
0000e0 82 26 f9 be 5a ed 3f be 83 fb 37 bd fc 44 77 bd
       -0.48662192 -0.18742886 -0.044917595 -0.060368523
0000f0 d7 a7 ae 3b 93 29 35 3e 30 52 2c bc b0 98 0f 3c
       0.0053300667 0.1769164 -0.010517642 0.008764431
000100 fa b9 95 3d ea 59 9f bd 80 52 0e 3c 9f 4f b0 3d
       0.07310863 -0.077808216 0.008686662 0.086089365
000110 1a ea b9 3d cf 54 d5 3d 85 9a 2c be ba e6 49 be
       0.090778545 0.104165666 -0.1685582 -0.19716921
000120 d1 26 f3 bc e1 1d a8 3c 01 24 19 3d cb fb 5e 3e
       -0.029681595 0.02052206 0.03738785 0.21775739
000130 c6 07 4f 3e 78 ed 9b bc f2 62 3d bd 67 54 15 bf
       0.20217809 -0.019034132 -0.04623694 -0.5833191
000140 61 ec 07 3e 63 1b a1 3e 2b ac 7b bd da 82 20 bf
       0.13273765 0.31466207 -0.06144349 -0.62699664
000150 96 d2 ae bb 8e 15 3e 3d e4 e0 81 3d e1 3e 41 3c
       -0.0053351624 0.046407275 0.063417226 0.011794777
000160 c5 7f 88 3d 1d 05 0e be 83 41 24 3e 73 7f 3b 3e
       0.06664995 -0.13869138 0.16040616 0.18310337
000170 89 29 97 3d 5e ba e5 3a be 2a 3d bd 25 03 c2 bd
       0.07380969 0.0017526855 -0.04618334 -0.09473256
000180 86 30 90 3d 10 ba dd 3d 96 6b ba bc 91 77 81 be
       0.07040505 0.10826504 -0.02275638 -0.25286534
000190 31 e4 41 3e ae ac c7 3e 92 ce a6 be 62 1f da be
       0.18934704 0.38998932 -0.32579476 -0.42602068
0001a0 95 22 55 be dc 7b 49 3b c5 66 a4 3d a9 db 09 be
       -0.20813973 0.0030743992 0.08027414 -0.134627
0001b0 d4 86 82 bd ad 15 3a 3c 46 28 80 bc 7c eb 04 3e
       -0.06373373 0.011357707 -0.015644204 0.12980455
0001c0 44 e5 8f be c4 c3 4b 3d 8e 8e 75 be 2e 66 f1 be
       -0.28104603 0.049747244 -0.23980162 -0.4714827
0001d0 b3 60 e5 bd c6 30 57 bd 41 a9 a9 3d 15 bc 38 be
       -0.112000845 -0.05253675 0.08284236 -0.18040498
0001e0 cc 08 09 bd de c6 45 be 04 7c 85 be 41 55 22 3e
       -0.033455655 -0.19314143 -0.2607118 0.15852834
0001f0 6b ba 35 be f4 9d a2 bd e6 9a 78 3c ff b6 73 be
       -0.17746894 -0.079402834 0.015173649 -0.23800276
000200 64 11 8e be 78 5c 96 bd 4b eb c6 bd 52 84 21 bc
       -0.27747643 -0.07341856 -0.09712847 -0.009858208
000210 5f 62 1d bf 04 b5 11 bc dc 65 ee 3d 08 79 0b 3e
       -0.6147823 -0.008893255 0.11640522 0.13620389
000220 05 a7 78 3d c3 85 4c bc 7d e5 b8 bd c5 da 5b be
       0.060706157 -0.012483063 -0.090281464 -0.21470173
000230 cb c6 25 3d 88 3a 00 3e fe ba 1a be b2 a2 2c 3d
       0.040472787 0.12522328 -0.15110394 0.042147346
000240 46 18 85 be 73 19 ed bd 0d b4 7d 3d 86 b7 f7 bd
       -0.25995082 -0.1157712 0.061939288 -0.12095551
000250 20 bb 0a be 0c a8 1c bd fb ff bd bd df fe 55 be
       -0.13547945 -0.0382462 -0.0927734 -0.20898007
000260 73 80 8a be bf 13 a3 3e db a6 bf be 0a b0 e9 be
       -0.27051124 0.31851003 -0.37431988 -0.4564212
000270 ff 7d 81 be cd 5b b1 bf 25 31 e3 bd bd 89 1e 3a
       -0.2529144 -1.385614 -0.11093358 0.0006047746
000280 98 fa 11 bc ff 0a 12 bd 36 a8 09 be 32 a8 1a 3d
       -0.008909844 -0.035655018 -0.13443074 0.03775806
000290 0c 36 5b bd 66 17 8e bc b5 c8 2e be d0 85 4f bd
       -0.05351834 -0.017345142 -0.17068751 -0.050664723
0002a0 e4 ff 6a be 57 a6 e2 3c 84 f2 9b 3d 78 1b 97 3d
       -0.22949177 0.027667208 0.076146156 0.07378286
0002b0 66 42 76 3e 69 29 99 bd eb ca 14 be 8b 8e 2c 3e
       0.24048766 -0.074786015 -0.14530532 0.16851251
0002c0 19 6e 70 3d c4 76 28 3e 37 f5 1d 3e 5d f2 85 bd
       0.058698747 0.16451555 0.15425573 -0.06540368
0002d0 fa 91 60 bd e3 1c 07 3e e6 13 22 3d 4d b1 29 bd
       -0.054826714 0.13194613 0.039569758 -0.041428853
0002e0 8d c6 6e 3a fc f1 d2 3c 83 e3 dd b9 6d be 47 3d
       0.0009108566 0.025750153 -0.00042321914 0.04876559
0002f0 59 52 00 bd b9 e3 19 bd 3c 87 ae 3e 1f bc 2d 3e
       -0.031328533 -0.03757069 0.3408755 0.16966294
000300 91 7d a7 be 85 03 ec be e4 a8 9e bf ff 6e 04 bd
       -0.32712987 -0.46096435 -1.2395291 -0.032332417
000310 46 a0 c2 bd 68 2d 1a 3d 39 1f 64 bc 58 8e ab bb
       -0.09503226 0.03764096 -0.01392346 -0.0052354746
000320 fc 93 11 bd 84 f1 e8 3d 1c 6a 26 bc 2c 2c a1 3d
       -0.03554152 0.113741904 -0.010157134 0.07869753
000330 d7 3d ac bc 82 39 12 3e 12 6a 73 3d 4d e8 eb 3d
       -0.021025581 0.1427975 0.05942733 0.11518917
000340 9f 88 34 3e c4 63 9b 3d 94 e5 53 bb d2 76 8b 3d
       0.17630242 0.07587388 -0.0032332884 0.068097726
000350 5f 8f 00 3d 4d ec 0f 3c fc 80 ad 3d 7e 20 bb 3d
       0.03138673 0.008784366 0.084718674 0.09137057
000360 79 7a 86 bd f4 cd 13 bb 22 a1 37 bc 55 d6 65 be
       -0.065663286 -0.0022553178 -0.011207851 -0.22445042
000370 fc 26 40 bc 70 51 09 bc b5 ce 3a 3e 2d 84 2a be
       -0.011728045 -0.008381233 0.18242915 -0.16651984
000380 44 96 ff bc 5a 98 33 be 79 9f be be 06 88 ad bd
       -0.031199582 -0.17538586 -0.37231043 -0.0847321
000390 af 16 db 3d ea c2 a2 3c 34 58 a7 bd a4 04 09 3d
       0.10697686 0.019868333 -0.0817112 0.03345169
0003a0 45 e5 83 b8 72 64 3b 3e 5f b4 dd 3d 63 1d 1c bd
       -6.2892716e-05 0.18300036 0.10825419 -0.038113963
0003b0 0c 96 7e 3d fb c5 90 3d 68 f7 05 be 23 22 4b be
       0.062154815 0.07069012 -0.13082659 -0.19837241
0003c0 05 eb c4 3d 49 7c b5 bd d6 80 d5 bd e6 f4 26 3c
       0.09615139 -0.08861596 -0.10424964 0.010190224
0003d0 41 58 2c 3e 2d 7d df bd f4 0e ab bc 52 88 a0 be
       0.16830541 -0.10912547 -0.020881154 -0.31354004
0003e0 b1 ad 21 3e ea 58 9e bd e4 db 2a 3d f2 7a 7f 3e
       0.15788914 -0.07731803 0.04171361 0.24949244
0003f0 f5 a1 86 3e dd 0d 70 be 4b 59 09 be a4 cb 55 bd
       0.26295438 -0.23442788 -0.13412969 -0.05219616

fc1.bias f4 [64]
000000 e3 7b 8d 3d 8a c8 e9 bc 97 05 81 bc 32 20 0e be
       0.06908395 -0.028538007 -0.015749736 -0.13879469
000010 0e 69 2d 3e ab b5 9f 3c 66 05 5a bd 59 06 70 3d
       0.16934606 0.019495806 -0.053227805 0.058599804
000020 3e 46 cc 3d ae 35 3e be 3a cf 13 3e 02 82 e0 3d
       0.09974335 -0.18575165 0.1443452 0.10962297
000030 3a 63 a3 3d 94 ee 1c 3e 42 9f e9 bd d9 40 c3 bd
       0.0797791 0.15325385 -0.11407329 -0.09533853
000040 bc 32 cc 3d 3d 0c b8 bd 73 00 53 bd 5b 45 74 be
       0.09970614 -0.08986709 -0.0515141 -0.23854582
000050 15 74 d0 bc 1f 6d 21 bd da e0 46 3c 26 db aa bd
       -0.025445977 -0.039410707 0.01213857 -0.083425805
000060 df bf cd bd bb 50 2d 3e 8e 20 0e bd 24 9b b0 bd
       -0.10046362 0.16925327 -0.034699015 -0.08623341
000070 ae 69 e0 3d ae 46 b5 3d fe 1b 24 bd 03 7a 43 be
       0.10957657 0.08851372 -0.040065758 -0.19089513
000080 30 6e 2f 3e 9a af 40 bd e8 a6 01 be 5c 7b 53 3c
       0.17131877 -0.047042467 -0.12661326 0.012907829
000090 bc 8a 72 bc e6 a0 c1 3a 08 d5 f9 bd 11 f6 2b bd
       -0.014803585 0.0014772683 -0.121988356 -0.041982714
0000a0 0f 25 46 be c2 73 ba bd da 0b df bd 5c e6 84 3e
       -0.19350074 -0.0910411 -0.108909324 0.25957
0000b0 e1 75 81 3d 56 8a cc bd 11 12 94 3b d6 99 ac bd
       0.06321312 -0.09987323 0.0045187552 -0.084277794
0000c0 f7 c6 bc bd 2c 91 94 3d 86 cf f8 bd 31 b8 a8 3d
       -0.09217637 0.07254252 -0.12148957 0.08238257
0000d0 8f 57 99 3b 3c 00 2f 3d 30 84 dd bd e2 f4 29 bd
       0.0046796273 0.042724833 -0.108162284 -0.041493304
0000e0 3a e0 c5 3d 02 fe 79 bd a3 de 2e be a4 53 db bd
       0.096619084 -0.061033256 -0.17077117 -0.107093126
0000f0 dd 39 62 bc 98 99 f5 bb 88 7a 58 3d 68 c5 a7 3d
       -0.013807741 -0.0074951164 0.05285123 0.08191949

fc2.weight f4 [64, 64]
000000 83 21 c7 bd bb a5 c9 3c f9 27 71 bc 82 fb d6 bd
       -0.09723189 0.02461516 -0.014719003 -0.1049719
000010 1f 91 1c be c8 85 25 be a6 19 f7 3c 7c 65 d3 ba
       -0.15289734 -0.16164315 0.030163597 -0.0016128267
000020 21 a7 88 be 05 f8 a7 bd 66 8f 28 3d 2d 03 b2 3b
       -0.2669001 -0.08201603 0.04115238 0.0054325075
000030 e8 45 01 bd 0e b7 34 3d 79 2f 47 bd fe 2b 32 bd
       -0.03156081 0.044119887 -0.048629258 -0.043498985
000040 42 48 13 bc 07 4c c3 3d 8f a0 89 3e 6c 89 2e be
       -0.008989396 0.095359854 0.2688031 -0.1704461
000050 21 63 73 bd dc da 52 ba 17 8e 75 bd 3e 47 1c be
       -0.05942071 -0.0008043477 -0.05994996 -0.15261552
000060 94 b9 3c be c0 29 ed bd 24 c8 6e 3d 35 e4 06 3f
       -0.18430167 -0.11580229 0.058296338 0.52691966
000070 8c 42 43 3e d2 cf 11 3e 5d 10 11 3e 81 42 1b be
       0.19068354 0.14239433 0.14166398 -0.15162088
000080 11 0e 9b 3c 4f 5c 04 be bb 90 f8 3d ed d0 ad bd
       0.018927606 -0.12925838 0.1213698 -0.08487115
000090 b4 d5 a8 3c 7a d7 fb 3e e6 8b 1d 3d d8 59 fc 3c
       0.020609714 0.49187833 0.038463496 0.03080456
0000a0 17 eb 49 bd 5f 0e 92 bd 6f 10 c6 3b 6a 98 a7 3d
       -0.049296465 -0.07131647 0.0060444395 0.081833676
0000b0 c7 ca 00 3e aa e0 21 be df 97 85 bc 69 a3 01 3d
       0.12577353 -0.15808359 -0.01630777 0.03164998
0000c0 95 63 99 3b 49 2a 54 bd 84 f9 28 be f7 4c 52 be
       0.0046810606 -0.05179814 -0.16501433 -0.20537172
0000d0 42 6e 60 be 09 a2 9d be 6b f2 8e 3b 77 c4 b4 3b
       -0.2191706 -0.30787686 0.0043623946 0.0055165845
0000e0 2c 3c ba 3d 07 d8 e5 bb 60 43 27 be bc c6 75 bd
       0.09093508 -0.007014278 -0.16334295 -0.06000398
0000f0 10 18 cd 3d ac 0d 2f 3d ec 8e 2c be f4 e3 ce be
       0.10014355 0.042737648 -0.16851395 -0.4040829
000100 57 f0 03 3e b1 c1 47 3e e8 12 a8 be 75 d1 4a bd
       0.12884651 0.19507481 -0.32826924 -0.04951616
000110 07 21 4b 3e 3d 26 1f 3e ee 97 86 bd a4 9a d7 bd
       0.19836818 0.1554193 -0.06571947 -0.10527542
000120 11 59 39 3e 3e b4 ec 3b d6 cc 2a bd 76 08 62 bd
       0.18100382 0.007223635 -0.041699253 -0.05518385
000130 c4 1d 26 be 35 c1 a4 3d 59 72 20 be ce 43 06 3d
       -0.16222292 0.08044664 -0.1566862 0.032779507
000140 13 51 8c 3d bf b0 a9 bc f6 d6 50 bd f7 fb e3 bd
       0.06851401 -0.020714162 -0.050986253 -0.11132043
000150 fb c1 92 3e cd 77 98 3d be df 31 bd 78 a0 50 3d
       0.2866362 0.07444725 -0.043426268 0.050934285
000160 fb 47 4e 3e 9e d9 22 3d 89 61 e9 bc 7b 9e 83 be
       0.20144646 0.039758317 -0.028488891 -0.25706849
000170 1b c7 08 3e e0 10 80 bd 20 a3 8e 3d ea ed f8 bd
       0.13357203 -0.06253219 0.069647074 -0.121547535
000180 05 93 d9 bd 74 8d 81 bd ca 1a 10 3e 6c 41 a5 bc
       -0.10623745 -0.06325808 0.14072719 -0.020172797
000190 3d 0e 81 3d a6 dd aa bd e6 c1 81 3d c7 1f c4 bd
       0.06301544 -0.08343057 0.06335811 -0.095763735
0001a0 a4 3c 81 3d 08 b2 c3 bd d6 66 97 bd e6 eb 19 be
       0.063103944 -0.09555441 -0.07392661 -0.15031394
0001b0 35 3e de bd eb ab 91 bc 4a 0c ee bc 6e ed 65 be
       -0.10851709 -0.017782172 -0.029058594 -0.22453853
0001c0 96 53 90 3d 0d c7 3d bd 65 90 33 3d 00 f8 fd 3d
       0.07047193 -0.046332408 0.043838877 0.12400818
0001d0 d1 bf 97 bc 82 ca 01 bc 2e 03 bc bb 49 19 cd bd
       -0.018524082 -0.007921817 -0.0057376837 -0.100145884
0001e0 2a 1f 85 be fc c2 f1 bd 29 43 da 3d f3 4c c9 3b
       -0.2600034 -0.118047684 0.10657341 0.0061432063
0001f0 c8 64 64 be 2d 4a 36 be 2d 1a 07 3e 55 78 8b 3d
       -0.2230407 -0.17801733 0.13193579 0.06810061
000200 31 68 98 3c f4 28 b7 bd fc 30 3d bb 35 76 61 bd
       0.01860437 -0.08943358 -0.0028868308 -0.05504437
000210 7b 38 33 3e 8a 2f 55 3d 40 c7 6c 3b b6 41 04 3d
       0.17502014 0.05204729 0.0036129504 0.03228923
000220 37 23 32 3e 14 e7 ef bd 67 eb 79 bd ac 19 01 be
       0.17396246 -0.117139965 -0.061015513 -0.1260745
000230 fb 58 2c be eb 3e b5 3c 0d 90 55 3e 83 cd c4 bd
       -0.16830818 0.022124728 0.20855732 -0.09609511
000240 ad 5b 1c be 2b 10 5c be 9f c9 74 be 47 8e 2e be
       -0.15269347 -0.21490543 -0.23905037 -0.17046462
000250 d1 a7 0f be eb 7b 29 3e 61 b9 4b bd 51 b6 17 be
       -0.1402886 0.16551177 -0.049737338 -0.14815642
000260 71 2f 32 3e d8 e1 86 3d 1f f5 49 3d 65 13 92 be
       0.1740091 0.06586045 0.04930603 -0.28530422
000270 97 e7 22 be 24 1c e0 bc 03 a0 c2 3c 38 60 ef 3d
       -0.15908657 -0.027357168 0.02375794 0.11688274
000280 dc 50 13 be fa 3d 33 be d6 74 2a be 6f c8 87 3d
       -0.14386314 -0.17504111 -0.16646132 0.066300265
000290 6e 3d c8 3d 73 7c c7 3d e4 2a 82 bd 8d d0 99 bc
       0.09777342 0.09740534 -0.06355837 -0.018776203
0002a0 3e 8b ac bd c8 f3 d8 bd f7 cd a8 3c 35 01 63 be
       -0.08424996 -0.105933726 0.020606024 -0.22168429
0002b0 50 a2 06 be 39 f5 a1 3c 7f 11 45 be 76 3d 2a be
       -0.13147855 0.019770252 -0.19244955 -0.16625008
0002c0 53 3d 07 3d 30 e9 38 bd cb bf 04 bf dc 08 83 3d
       0.033017468 -0.04514426 -0.5185515 0.06398174
0002d0 9e 51 7d bd ec 2a 69 3e 7d 31 0b be c9 ee e7 bc
       -0.061845414 0.2277028 -0.13593097 -0.028312104
0002e0 85 2d 38 bc bc 04 eb bd 6f fd 44 3d 98 1d 20 3e
       -0.011241321 -0.114755124 0.048093256 0.15636289
0002f0 07 8d 52 be 53 d6 0a be 60 00 8f 3e 06 62 b4 3e
       -0.2056161 -0.1355832 0.27929974 0.35231036
000300 af 6f 17 bd 68 e6 04 bc c6 a8 57 3d 47 68 93 bd
       -0.036971744 -0.008111574 0.05265119 -0.07197624
000310 e8 37 59 3d 63 8b ec 3d ad 1c 0d bc a8 af 09 3d
       0.053031832 0.115500234 -0.008612794 0.033614784
000320 45 1c f9 3c 24 8b 9c 3c 64 5e 92 bc 4a bb 40 3d
       0.030408988 0.019109316 -0.017867275 0.047053613
000330 a6 7f c8 bd 5c ba 68 bc a3 92 6f be eb 3f 4b 3e
       -0.09789972 -0.014204588 -0.23395781 0.19848602
000340 23 de 32 be 7a a0 83 bd 02 49 67 3e d7 55 76 be
       -0.17467551 -0.06427093 0.22586444 -0.24056183
000350 5b cf bb 3e 43 44 db 3c c1 d4 0c be 76 4b 75 be
       0.36681637 0.026765948 -0.13753034 -0.23954567
000360 a6 cd fe bc fa 3d a2 3d 48 54 be 3d c8 d4 3e 3e
       -0.03110392 0.07921977 0.09293419 0.18635857
000370 a0 8c a2 3e f3 70 ef bd 8c e0 20 3d ee 1b cf bb
       0.31747913 -0.11691465 0.039276645 -0.006320468
000380 f3 dd 96 bd 4f 4e 56 be df c3 05 3f 96 34 2f 3e
       -0.07366552 -0.2092831 0.52252 0.17109904
000390 9b 22 87 be 2b 16 8e 3c 39 71 83 3e 2e af 10 3e
       -0.2639359 0.017344555 0.2567232 0.14129326
0003a0 8a 9d 41 3a ec 5b f3 3d c7 cf 75 3d 0f d7 dc bd
       0.0007385841 0.11882767 0.060012605 -0.10783207
0003b0 f3 7e d4 3c b8 d4 53 3e 56 d3 7f bd 84 18 54 3a
       0.02593944 0.20686615 -0.062457405 0.00080908113
0003c0 b4 7d ef 3d 07 5c cc 3c e9 0c b9 bc 7d 58 bb bd
       0.11693898 0.024946226 -0.022589164 -0.09147737
0003d0 ef 7b 1c 3c d3 e3 b3 bc 79 16 6a bd 43 58 e4 3d
       0.009551032 -0.021959221 -0.057150338 0.11149647
0003e0 1c b3 f9 bc f2 51 bb be 49 c1 ff bb 2a 51 8f 3e
       -0.030480914 -0.36585957 -0.007805024 0.2799161
0003f0 4a 96 be bd 53 ee 90 bd 65 96 ec bc 56 d1 fb 3c
       -0.09306009 -0.07076707 -0.028880307 0.030739468

fc2.bias f4 [64]
000000 17 ac e1 3d af 87 54 3d 72 30 88 3c dc 61 cc 3c
       0.11019152 0.05188721 0.016624663 0.024949007
000010 45 bc 1a 3e da af e0 bd b3 38 79 bd d3 d4 32 bd
       0.15110882 -0.10971041 -0.06084509 -0.043659996
000020 9d 42 1b 3e a1 13 a1 3e 23 0c b7 bd 16 2c 57 3e
       0.1516213 0.31460288 -0.08937862 0.21012911
000030 49 1c 5d 3e 08 fb da bd d3 3b c1 bd 9f f3 b0 bd
       0.21592821 -0.10692412 -0.09435239 -0.08640217
000040 93 e8 2a bb 9c ba 04 bc 71 fc db bb fc c7 03 3d
       -0.0026078566 -0.008101132 -0.006713443 0.03217314
000050 96 88 52 3d a9 24 cb 3e ba c6 16 be 2f f9 22 bd
       0.05139979 0.39676407 -0.14724246 -0.03978842
000060 47 7f 12 be b8 6b f9 bd e3 be 37 3d 8e a9 9d bd
       -0.14306365 -0.12178749 0.044859778 -0.076983556
000070 c0 5c 9c 3b 24 5a 23 3e 4e 34 92 3d 39 d1 97 bd
       0.004771799 0.15952355 0.071388826 -0.07412953
000080 7c 13 08 3d 1a dc 0d 3e 0a 50 16 3d d6 82 bb 3c
       0.033221707 0.13853493 0.036697425 0.022889536
000090 13 a4 03 be b5 9e e1 bd cd b9 aa 3e 63 1d 18 bd
       -0.12855558 -0.11016599 0.3334488 -0.0371374
0000a0 bf 50 06 be 4b 8a c5 3e 7a bf 1d 3e 4d a6 87 bc
       -0.1311674 0.38582072 0.15405074 -0.01655879
0000b0 d4 0b 32 bd e8 ae f6 bd bb 02 3c 3e 21 98 0e 3b
       -0.04346831 -0.120450795 0.18360417 0.0021758156
0000c0 d9 28 d0 3d e1 34 e7 bd 0f de 27 bd 97 28 ab 3e
       0.10164041 -0.11289383 -0.040983256 0.33429405
0000d0 dd e0 da bd cd 04 fa bd 67 67 99 3c 2c 7d 64 3d
       -0.106874205 -0.12207947 0.018726064 0.055783436
0000e0 63 f1 39 be 09 88 2f be 25 a6 e6 3c df f8 2d bd
       -0.18158488 -0.17141737 0.028155396 -0.04247367
0000f0 00 20 43 bd 11 09 75 3e 7a 00 83 3d 38 96 8a bd
       -0.04763794 0.2392924 0.06396575 -0.06766933

fc3.weight f4 [4, 64]
000000 4a 9f 5e 3e dd de 63 3e 06 eb e3 3d 3d 7a 82 bc
       0.21740451 0.22252984 0.111288115 -0.015927428
000010 43 82 ca 3e 7d 8c 51 be db 1b 2f be 1f 29 38 be
       0.39552507 -0.20463748 -0.1710047 -0.17984436
000020 53 19 e8 3d a7 da be 3d 7a 02 35 be bc 8b 0c 3e
       0.11332955 0.093190484 -0.17676726 0.1372518
000030 5c 49 a5 3d 87 95 16 3e 30 50 1c bd b3 8f 5f 3e
       0.08070633 0.14705478 -0.03816241 0.2183216
000040 b6 cd d4 bc 9b 0d 1e 3e 7b 7a 1d 3e 45 2b 31 3e
       -0.025976997 0.15434878 0.15378754 0.17301662
000050 63 78 3a b8 f5 fb e3 3d 8c bd 34 be 39 c6 a9 bc
       -4.4457975e-05 0.11132041 -0.17650431 -0.020724403
000060 59 e9 b6 be d2 40 25 3d ab df 8e be 5f 0d 47 3c
       -0.35724905 0.04034502 -0.2790502 0.012149184
000070 65 b2 68 bc ff ee 2b 3e 0b 3e 7a be d7 11 03 3e
       -0.014202689 0.16790389 -0.2443773 0.12799774
000080 7d a6 89 3e 52 f0 22 3e a9 64 87 3d 9b bb 05 be
       0.26884833 0.15911987 0.06610996 -0.13059847
000090 46 35 28 3e 65 f7 dd 3d 4f 9d 00 3e 01 45 be 3e
       0.16426572 0.108382024 0.12560008 0.3716202
0000a0 c9 7b f1 3d 0a 40 fa 3d 1e 09 29 3d 03 cb 7d 3e
       0.11791188 0.12219246 0.04126846 0.24784474
0000b0 4d cd ed 3e db 59 c9 bd e2 b2 18 3e f6 98 ae 3e
       0.46445695 -0.09831592 0.14911988 0.34101075
0000c0 8d 19 c3 bd 79 be b5 3d 47 15 1f 3e 4f 52 6b 3e
       -0.09526358 0.088742204 0.1553546 0.22980617
0000d0 e8 1f 19 3e 28 eb 5e be 11 63 85 3d bd 76 71 3a
       0.14953578 -0.21769392 0.06513036 0.0009211114
0000e0 f0 bb 88 be 93 3d fa bc e2 c4 dc 3e 95 3e 04 be
       -0.26705885 -0.030546939 0.4311896 -0.12914498
0000f0 0c 73 21 bd d4 19 4a 3e cb 33 3d 3e fe b1 23 3e
       -0.039416358 0.19736415 0.18476789 0.15985867
000100 59 50 86 3e be 58 92 3d 59 b5 a8 3d 6c 97 0d 3e
       0.26233175 0.071458325 0.08237714 0.13827294
000110 9a fe cb 3e 8f 2f 26 be 79 09 e7 be fb 33 50 be
       0.39842683 -0.1622908 -0.45124415 -0.20332329
000120 e0 5a 63 3c 17 e9 b1 3d ea 8e 05 be 08 a1 25 3e
       0.013876647 0.086870365 -0.13042799 0.1617471
000130 22 21 9b bc 25 b9 4b 3d 85 19 ef 3b 00 99 96 3e
       -0.018936697 0.049737114 0.0072967433 0.29413605
000140 f0 d1 0f bf b5 db 50 3e 73 f5 1d be 6d 6c 6e 3e
       -0.56179714 0.20396312 -0.15425663 0.23283549
000150 bd e8 b7 3d 60 4e 22 3e b9 5f 46 be f4 7f 1c 3e
       0.08979938 0.1585021 -0.19372453 0.15283185
000160 96 65 8a be e7 f4 a3 bc df 51 17 3e 8d 76 9c 3d
       -0.2703063 -0.02001424 0.14777325 0.07639799
000170 88 a1 ae 3d 0b 0d f1 3d 15 ee 63 3d 59 66 54 3d
       0.085269034 0.11770066 0.055646975 0.05185542
000180 5f d8 65 3e ab b3 3b 3d c3 30 9e 3d 23 bb 04 bf
       0.2244582 0.04582564 0.07724144 -0.5184805
000190 7c 8c 14 3d d1 b3 03 bf c0 c7 3e 3e 6c 65 c7 3e
       0.03626679 -0.51446253 0.18630886 0.38944566
0001a0 83 7c be 3e e7 5d 25 3e 67 84 cd 3c 6b 0c 91 3e
       0.3720437 0.16149102 0.025087548 0.28329787
0001b0 cb dd b4 3e fa f1 93 3b 40 28 f6 3d fb 27 6c 3e
       0.35325465 0.00451493 0.12019396 0.23062126
0001c0 e8 7c ee bd f2 6b 2c 3e b9 cd 20 3e 7a c5 27 3e
       -0.11644918 0.16838053 0.15703477 0.16383925
0001d0 92 7d f7 3e b0 30 10 bd af 5f 1f 3e f7 8d a6 3d
       0.4833799 -0.035202682 0.15563844 0.081325464
0001e0 6d d7 ba bd 85 0e 1d be 23 30 b5 3e 2d da 28 be
       -0.091231205 -0.1533757 0.35388288 -0.16489477
0001f0 9c ee 95 bd 91 14 72 bc 76 84 5e bd fb b1 d4 3d
       -0.07320902 -0.014775411 -0.054325543 0.103855096
000200 7f 78 78 3c 5a 37 cd 3d e6 61 b4 3e 34 92 9d 3e
       0.015165447 0.10020323 0.3523094 0.30775607
000210 34 be f0 3e b0 93 8f bd 5f 1d b7 3e f6 12 99 bd
       0.47020113 -0.07010591 0.35764596 -0.0747432
000220 8f f3 cd 3d ad 37 d3 3d 36 8f a7 be 50 ed 0b 3e
       0.10056221 0.10313354 -0.3272645 0.13664746
000230 73 86 3d 3e 71 d0 bd be 66 5c 98 bd c2 9d bc 3e
       0.1850832 -0.3707309 -0.074394986 0.3683911
000240 e7 0c d2 3e 1a 32 a5 3e c7 c3 f9 be 5d 34 18 3d
       0.4102547 0.32264787 -0.4878218 0.037159313
000250 b7 32 a1 3c 0f 42 31 3e e5 15 4e be af 93 a4 3d
       0.019677503 0.17310356 -0.2012554 0.08035981
000260 f0 52 80 bd 4f 83 8e be a9 4a 09 bb 5c c9 7a be
       -0.06265819 -0.27834556 -0.0020949042 -0.24490875
000270 08 61 aa 3d c3 c9 bf 3e cf 6b 2a 3c c0 75 ad bd
       0.083192885 0.3745862 0.01040168 -0.08469725
000280 52 cb fb 3d 35 5f 97 3d b9 55 8f 3e 4d f8 c9 3d
       0.1229464 0.07391206 0.2799509 0.09861813
000290 44 e5 2e 3e 3f 1b 12 be 18 ad f2 3d 91 3f 01 be
       0.17079645 -0.14268206 0.11849421 -0.12621905
0002a0 4c b6 56 3e cd f4 e7 3d ee f8 67 3e 6c 6c 9c bd
       0.20967978 0.11325989 0.22653553 -0.07637867
0002b0 9a 7a 7e 3e 4a 10 dc bd 76 2c ed 3d 60 fe 64 3e
       0.24851456 -0.107452944 0.11580746 0.22362661
0002c0 9f c8 87 3d ba 2f 8a be bc 31 e2 3e 2f a7 78 3e
       0.06630062 -0.26989537 0.4417857 0.24282525
0002d0 e1 d8 9e 3b 01 43 14 bd 43 ef 9c 3d 92 43 10 3d
       0.0048476313 -0.036196712 0.07662823 0.03522069
0002e0 19 62 c2 be 9b 05 0a bd 3b e3 85 3e 7d 1f 17 3d
       -0.37965468 -0.033696752 0.26149926 0.036895264
0002f0 77 e9 98 be e9 43 fb 3d 9f e1 b1 3c d6 b0 66 3e
       -0.2986562 0.12268812 0.02171403 0.22528395
000300 35 fa 58 3e f9 13 b7 3d c2 dd 9f 3e 91 47 a9 3d
       0.21189196 0.08939356 0.31223875 0.08265603
000310 18 4f 6d 3e cc db b7 be 37 19 a9 be 07 49 48 bd
       0.23174703 -0.3590988 -0.3302705 -0.04889777
000320 11 08 d0 3d c3 69 16 3e 39 8e 84 3d 62 7b 3d 3a
       0.101577885 0.14688782 0.06472439 0.00072281633
000330 2a 5f b2 3d 1d 2f 6f 3d 00 be 72 3d 9e df 04 be
       0.08709557 0.05839454 0.05926323 -0.12975928
000340 29 9b 70 3e 74 ab 64 3d 87 78 dd bd 87 3e 80 3e
       0.23496689 0.055827573 -0.108140044 0.25047705
000350 74 7e 73 3e cc ba 23 3e f2 9e 7f be e8 85 a0 3e
       0.23778707 0.15989226 -0.24962977 0.31352162
000360 59 77 cc bd ce 8b dc be 57 9d bf 3d e6 cc f7 3d
       -0.09983701 -0.43075413 0.09356182 0.12099628
000370 01 3b f1 3e 5a 20 63 3d 3f 90 64 be 98 a4 af 3d
       0.4711533 0.055450775 -0.2232065 0.08576316
000380 e8 4d b5 3c e7 06 81 3d 18 18 1d be 8f 9a 66 be
       0.022131875 0.06300145 -0.15341222 -0.22519897
000390 f0 fc ae be 95 85 45 3d 5b 29 49 3e ee fa 0a 3f
       -0.3417735 0.048223097 0.19644682 0.5428914
0003a0 ae 5b 97 be ee 0d 25 3e 7e 5b 21 3e 23 85 8b bc
       -0.29562134 0.16118595 0.15757558 -0.017031258
0003b0 91 b7 f5 3e 29 1d 07 be ea 7e fa 3d fb d1 04 3d
       0.47991613 -0.13194717 0.12231238 0.032426815
0003c0 55 95 0f 3e 9f f2 34 be d2 bb 97 3e 97 26 53 3e
       0.1402181 -0.17670678 0.29635483 0.2062019
0003d0 82 bd 2e 3e 53 5c b4 bd e2 54 90 3e 3b 13 90 3e
       0.17064479 -0.08806672 0.2818976 0.28139672
0003e0 3a f7 68 bc 80 c1 c7 be ba 56 1f 3e cb ea 8f be
       -0.0142191 -0.39014816 0.15560427 -0.2810882
0003f0 b0 c4 1e be 1a 08 ba 3c 9b 2d dc be 9d 87 93 3e
       -0.15504718 0.022708941 -0.43003544 0.28814402

fc3.bias f4 [4]
000000 94 64 48 3e d7 c8 60 3e ea 5f 03 3e 11 eb cc 3d
       0.19569618 0.21951614 0.12829557 0.10005773
