checkpoints/VANILLA_DQN.pth (torch_old, 28502 bytes, 6 tensors)

fc1.weight f4 [64, 37]
00000000: 75c1 99be 7ca2 713e 63de 1abe 9123 02be
00000010: e2e8 16be 2b7c c3bd 716c 963b 62c7 e53d
00000020: 2229 b03d 57af 943d fd29 403d da50 57be
00000030: 706b 36be 861a 4cbe dedd 14be ab6a 7abe
00000040: 664d 0f3e 9a49 a13d b652 a3bc 4a3a adbd
00000050: 83b5 863e 271b 96bc eb38 e7bd 6e42 49be
00000060: 7223 e0be e304 42be edad 203e 5767 7fbd
00000070: 1213 b4bd d4bf dfbd c3da 093e 33fd 59bd
00000080: 16d2 c7bd 546e 3dbe 123e e0bd 438b 83bd
00000090: 08bd 45bc 4eed 983e ce83 27bd d756 a43d
000000a0: 5eff bbbd dba2 a9bd 9cee 613c 3eab b2bd
000000b0: f68b 15be f6bf 633d 145a 5d3e d4df d23d
000000c0: d02e e53c 0091 0abd f6b5 c53d bdf2 4a3e
000000d0: 2b55 3c3e 34b4 2a3c 6cff 383d 9066 b8bd
000000e0: 2a84 efbe 1163 35be a784 e8bc a934 3dbd
000000f0: 7ac4 873c 6ae9 443e 163b 9e3b d38d 923c
00000100: e217 b63d 6b7c 8abd 2376 cf3c d638 d03d
00000110: 1873 d83d 2293 f73d 100b 27be d02d 39be
00000120: 22de 91bc a935 153c c4fe 813c 9476 4b3e
00000130: ae89 403e 2e03 c7bc 9efa 86bd 6754 15bf
00000140: b6f9 e83d fd86 983e e604 9fbd d2db 25bf
00000150: 06e5 a2bc 4449 003d 109a 3d3d 388b fcbb
00000160: ab73 3d3d af30 0dbe 363f 113e b391 2c3e
00000170: 6e57 693d 6b13 adbc b797 62bd fcd5 e9bd
00000180: 758d 5e3d 62bc ce3d 2f1c 2dbd 9177 81be
00000190: 9551 2e3e 1caa be3e bdc1 a7be 5463 e5be
000001a0: 7f02 65be 63f9 82bc 6f3b 6a3d f2ef 0ebe
000001b0: 378c afbd d8da e8ba b98f f839 3cfb eb3d
000001c0: 44e5 8fbe 82bb 193d c81f 80be a6e1 fabe
000001d0: b360 e5bd 681e 7abd 1a85 873d 2845 33be
000001e0: 5da3 30bd cefe 57be fe09 83be 7fb4 1b3e
000001f0: b096 47be 0bfa a9bd 1580 babb 33d3 6abe
00000200: d2c3 8cbe 7aa4 81bd 079f c9bd 3233 f0bb
00000210: 13e0 1cbf 1754 dbbc d603 d93d 401c f33d
00000220: 94db 2b3d 3367 2bbc 6438 debd c5da 5bbe
00000230: 17b4 e33c b7fe d73d c1c9 1dbe afcd 323d
00000240: 5acd 8abe 226d 09be d91b 293d c38f e1bd
00000250: 6346 16be d8c8 e0bc 2b5e cdbd dfbc 62be
00000260: 0b9c 86be eff9 a73e dba6 bfbe 0ab0 e9be
00000270: 4341 88be 8b9a b0bf c551 fbbd 8006 093c
00000280: 31d5 4fba 299c ebbc 58e9 01be 274b e63c
00000290: 9b6c 3cbd 3150 21bc 1ee0 38be dd7e 36bd
000002a0: e4ff 6abe 7e3c f33c f910 aa3d 9e99 aa3d
000002b0: fbcd 773e aeda 7ebd 1344 0dbe e358 223e
000002c0: 196e 703d c1e3 263e 0a25 1a3e 946c 58bd
000002d0: 0f55 44bd e31c 073e 6a14 3b3d d87a 20bd
000002e0: 3e83 423b b29e a13c 9c36 573c d684 813d
000002f0: 5952 00bd 2d5c c0bc 3a2a b63e 582a 1b3e
00000300: 917d a7be ab43 ebbe 91e6 9cbf ef84 8ebc
00000310: 1400 a5bd 998a 4c3d 391f 64bc 1d9f 123c
00000320: 18e9 acbc bd5c 013e bba0 733b 5a1e bf3d
00000330: fb60 e0bb 856a 0d3e a12e 953d 4de8 eb3d
00000340: fb87 433e 777c b73d b45a 373c c93e a53d
00000350: 0a87 3b3d 4dec 0f3c 129c ca3d 3818 da3d
00000360: 952c 5ebd f4cd 13bb d4a5 1fbc 7eb9 57be
00000370: a7e8 533b a771 b93b dd4a 4a3e 22ac 33be
00000380: 6768 95bc 163c 27be ebca b7be 4360 b4bd
00000390: 9638 f93d 4595 103d e0fc 8abd a785 463d
000003a0: c50c 7f3c 1097 483e 94c6 fb3d fc35 bdbc
000003b0: 87f7 9c3d 0eba b03d 4d02 eebd 9a30 3dbe
000003c0: 4061 da3d 0768 96bd a335 b8bd d410 c23c
000003d0: 2127 3c3e 2d7d dfbd 926c c8bb 1aba 99be
000003e0: 0ef8 303e c5b5 7ebd 889f 4d3d 7b7d 873e
000003f0: 0623 8e3e 13bf 66be 91f7 f5bd 077c 18bd
-0.30030409 0.23597139 -0.15123896 -0.1270888 -0.14737275 -0.095451675 0.004590564 0.1121967
0.086015955 0.07260006 0.046915043 -0.21026936 -0.17814422 -0.19931993 -0.1453776 -0.24454753
0.13994369 0.078753665 -0.0199369 -0.084583834 0.26310357 -0.018323494 -0.11290153 -0.19654247
-0.43777043 -0.18947177 0.15691347 -0.062354412 -0.087927 -0.1092526 0.13462357 -0.053219985
-0.097568676 -0.18499118 -0.10949339 -0.064230464 -0.012068994 0.2986855 -0.040897183 0.08024376
-0.09179567 -0.08283015 0.013789799 -0.08724068 -0.14604172 0.05560299 0.21616393 0.10296598
0.027976424 -0.03382969 0.09653847 0.1981916 0.18391864 0.01041894 0.045165464 -0.09003937
-0.4678052 -0.17713572 -0.028383566 -0.0461928 0.01657318 0.19229665 0.004828821 0.017889893
0.08891274 -0.06762012 0.025324887 0.101670906 0.105688274 0.1208861 -0.16312814 -0.18083882
-0.017806116 0.009107032 0.015868552 0.19869453 0.1880252 -0.024293508 -0.0659077 -0.5833191
0.113757536 0.29790488 -0.07764606 -0.64788544 -0.019884598 0.03131987 0.046289504 -0.007707026
0.046252888 -0.13788103 0.1418427 0.16852455 0.056968145 -0.021127423 -0.055320468 -0.114177674
0.054334123 0.10094525 -0.042263206 -0.25286534 0.17023309 0.37239158 -0.32764998 -0.44802344
-0.22364233 -0.015988057 0.057185587 -0.1395872 -0.08571666 -0.0017765416 0.00047409328 0.115225285
-0.28104603 0.037532337 -0.25024247 -0.4900028 -0.112000845 -0.061064154 0.06617184 -0.1750685
-0.043124545 -0.21093294 -0.2559356 0.15205573 -0.19491076 -0.08299645 -0.005691538 -0.22932129
-0.2749315 -0.063301995 -0.09844785 -0.0073303217 -0.6127941 -0.026773496 0.10596435 0.11870623
0.041957453 -0.010461616 -0.108505994 -0.21470173 0.027795834 0.1054663 -0.15408994 0.043653186
-0.27109796 -0.13420537 0.041286323 -0.110137485 -0.14675288 -0.02743952 -0.10027727 -0.22142361
-0.26290926 0.32807872 -0.37431988 -0.4564212 -0.2661229 -1.3797163 -0.12271456 0.008363366
-0.00079281913 -0.028760986 -0.1268667 0.028112007 -0.04600201 -0.009845779 -0.18054244 -0.04455458
-0.22949177 0.02969193 0.083040185 0.083300814 0.24199669 -0.062220268 -0.137955 0.1585422
0.058698747 0.16297819 0.15053192 -0.052837923 -0.04793268 0.13194613 0.045673765 -0.039179653
0.0029680277 0.019728992 0.0131355785 0.063241646 -0.031328533 -0.023481453 0.3557909 0.15152872
-0.32712987 -0.45950064 -1.2257863 -0.017397372 -0.080566555 0.049936865 -0.01392346 0.008949068
-0.021107242 0.12633033 0.003717466 0.09331961 -0.0068474985 0.13810165 0.072842844 0.11518917
0.19094841 0.08959287 0.011191059 0.08068616 0.04578308 0.008784366 0.09893049 0.106491506
-0.054241735 -0.0022553178 -0.009744126 -0.21066853 0.0032334717 0.0056593004 0.1975512 -0.17546132
-0.01823826 -0.16331515 -0.35897002 -0.08807423 0.12168996 0.035298605 -0.06786513 0.048467305
0.015567009 0.19588876 0.12293735 -0.02309703 0.076643996 0.08629237 -0.116215326 -0.18475571
0.1066308 -0.073440604 -0.089946054 0.023689665 0.18374301 -0.10912547 -0.006116458 -0.30024797
0.17282125 -0.062185068 0.05020097 0.26462922 0.27761096 -0.22533827 -0.1201011 -0.037227657

fc1.bias f4 [64]
00000000: 4795 ac3d f239 57bc ae3b 18bd 2db7 1dbe
00000010: 2358 313e 1b33 093d c05e 1cbd 06b3 353d
00000020: e4c6 e23d 0928 52be 19e7 253e b90e b23d
00000030: 92d4 c53d f2d1 2a3e e590 e4bd 308b c4bd
00000040: b2c6 df3d 3d0c b8bd d42f 14bd ffe0 84be
00000050: f703 34bc a011 3abd db7a 38bc 2c2e a9bd
00000060: 9c80 aabd d1d9 3f3e f12a b4bc 960a 90bd
00000070: bd5b f93d ec8f d23d 31cf 83bd 9028 57be
00000080: e887 173e d76f 81bd 199f e0bd 000c b13c
00000090: c16c c038 69d4 893c e241 e8bd 71ac e5bc
000000a0: ef73 56be c273 babd da0b dfbd 86de 8e3e
000000b0: d9bf a23d 3ea4 d1bd 28de 913c 90fb 8cbd
000000c0: efcf c8bd 325b 6b3d 8c63 edbd 1ad0 753d
000000d0: dbf1 7ebc e132 713d 6547 bbbd c29f d0bc
000000e0: 10db e53d 0484 33bd 3a61 40be 72bd efbd
000000f0: c313 55bb f0e2 8bba 887a 583d 3749 c33d
0.0842691 -0.013136374 -0.03716629 -0.15401907 0.17318778 0.033496004 -0.0381763 0.044360183
0.110730916 -0.20523085 0.16201438 0.086942144 0.09659685 0.1668165 -0.11160449 -0.095968604
0.1092657 -0.08986709 -0.036178425 -0.25952908 -0.010987273 -0.045426965 -0.01125976 -0.0826076
-0.083253115 0.18735434 -0.021993132 -0.07033269 0.12175701 0.10281357 -0.06436003 -0.21011567
0.14797938 -0.0632016 -0.109678455 0.021612167 9.1755304e-05 0.016824918 -0.11340691 -0.028036328
-0.20942663 -0.0910411 -0.108909324 0.27904147 0.07946748 -0.10236405 0.017806128 -0.06883919
-0.09805285 0.057460018 -0.11591253 0.060012914 -0.0155605925 0.058886413 -0.09144477 -0.025466803
0.112234235 -0.04382707 -0.18787089 -0.11706056 -0.0032513 -0.0010672491 0.05285123 0.09535449

fc2.weight f4 [64, 64]
00000000: 1652 adbd 5f1e 283d 6609 363c 9d11 b7bd
00000010: d8ec 0cbe 82c1 17be 9bf2 3a3d 5958 8a3c
00000020: b60d 7ebe 007e 71bd 32fc 773d 3b8f e93c
00000030: beb6 2abc a2aa 813d cec9 0bbd aa49 d8bc
00000040: d091 343c 074c c33d 49ea 903e 31b0 17be
00000050: 761d 3cbd eb25 a83c 05c4 29bd 18c4 0bbe
00000060: ca9d 30be 8125 cbbd f802 973d c4bc 0a3f
00000070: 84c1 533e 05ba 203e 7f2b 263e b703 0abe
00000080: 1f27 1f3d 7df8 e6bd f683 0f3e 212d 85bd
00000090: 7cd7 213d 05c9 013f ce97 573d d08e 3c3d
000000a0: 524a 04bd 5f0e 92bd 6f10 c63b 54cf ce3d
000000b0: a713 123e b4d2 0bbe b093 b33b c982 493d
000000c0: dceb af3c b730 03bd 66c9 16be 6c08 3dbe
000000d0: d4ee 47be dc83 94be 70bf c53c 6a98 c63c
000000e0: 52cf d93d 831d 043c ce1b 13be d5a5 53bd
000000f0: 13f6 f23d 1744 7a3d ec8e 2cbe 31dc c6be
00000100: 1b58 0e3e 0fcd 553e 2af3 a0be 96c5 38bd
00000110: 77e1 583e 58f5 2c3e 8556 50bd ec5a b9bd
00000120: a7d3 483e 6d33 c83c 5f49 dcbc 3d60 24bd
00000130: ac9d 19be 91db c33d 68fb 1bbe 0d8e 363d
00000140: efa2 ab3d bfb0 a9bc 88f8 1dbd 60b7 c4bd
00000150: c800 9a3e c819 b63d 2bd3 dfbc a2fc 5a3d
00000160: 5707 5d3e 4400 613d 6f94 8bbc 4ac6 81be
00000170: 819b 173e 528a 4bbd 19b9 9d3d a4f0 e5bd
00000180: 3696 b9bd 748d 81bd 3ea6 1b3e 473b 02bc
00000190: d544 9f3d ea7e 93bd 626c 9b3d 88d2 a8bd
000001a0: 32aa 9b3d 08b2 c3bd d666 97bd bc9c 0abe
000001b0: 4cdf bebd b9b1 11bc e9d5 6ebc 6eed 65be
000001c0: a07e ad3d b934 f7bc 1d47 733d fe5f 113e
000001d0: d7d5 f7bb 2cfe ed3b 221b 0e3c cdca afbd
000001e0: f6d5 7fbe 8c8a d6bd 512f fd3d 10ed 6b3c
000001f0: 3463 55be a820 2cbe 2d1a 073e 05d3 a93d
00000200: 3168 983c a311 a0bd fc30 3dbb 3576 61bd
00000210: fc0f 3f3e 42b3 833d 3945 703c dd20 433d
00000220: 64c5 3c3e 723e dabd c92a 48bd 1df9 ffbd
00000230: fb58 2cbe bea9 0c3d 0d90 553e 83cd c4bd
00000240: 4f61 0fbe 2b10 5cbe 5259 69be 72fe 25be
00000250: 7502 03be eb7b 293e eaf6 35bd 51b6 17be
00000260: 7cf3 3e3e d8e1 863d 1ff5 493d 6513 92be
00000270: b649 16be 241c e0bc 03a0 c23c 63c9 f83d
00000280: dc50 13be fa3d 33be d674 2abe 3e72 9f3d
00000290: a98c e13d 737c c73d e42a 82bd 0b43 d5bb
000002a0: 3e8b acbd c8f3 d8bd f7cd a83c ba89 56be
000002b0: 41c3 f4bd 39f5 a13c 6fe5 38be 763d 2abe
000002c0: 414e 3a3d 30e9 38bd cbbf 04bf 0844 a73d
000002d0: 9e51 7dbd 0d49 753e 7be5 fcbd 04b6 83bc
000002e0: 852d 38bc bc04 ebbd 5723 713d 981d 203e
000002f0: 078d 52be 53d6 0abe 6000 8f3e 3fb6 ba3e
00000300: d778 d4bc 00b5 cd3b 8ade 973d 4ac5 9ebd
00000310: a2e3 853d 3e6b 033e 82d9 693b 1065 513d
00000320: 8c2d 203d 5edd 1a3d b028 29bb a5af 773d
00000330: 4c14 a9bd caf5 9b3a bcad 5fbe 30d2 5c3e
00000340: 6f84 21be 7aa0 83bd d52d 763e 20da 81be
00000350: b622 c33e 390f 103c 2e98 f1bd 764b 75be
00000360: c35c 99bc aa3d c03d 91a3 d33d 4025 473e
00000370: 249a aa3e 2164 dcbd 22de 653d 451b 95bc
00000380: 2c02 5ebd 4f4e 56be 5502 0a3f 3142 3e3e
00000390: bfe6 7ebe 0320 bd3c 0e76 8b3e d897 1c3e
000003a0: 8ed7 843c ec5b f33d c7cf 753d 4c67 bcbd
000003b0: f16e 263d ac46 623e 877a 41bd eda1 1b3c
000003c0: 3a73 073e 2043 303d e4eb f1bb 9527 91bd
000003d0: 2ea9 893c aabe 41bc df23 29bd 4f4d 033e
000003e0: 8fe9 b8bc a73c b6be 0f4c 223c 7320 933e
000003f0: b8d0 9fbd 9f3a 70bd 6596 ecbc 4d15 313d
-0.08462922 0.04104459 0.011110639 -0.08938906 -0.13762224 -0.14819911 0.045641523 0.01688783
-0.24809918 -0.058958054 0.060543247 0.02851068 -0.010419546 0.06331374 -0.034128003 -0.026402313
0.0110210925 0.095359854 0.28303745 -0.14813305 -0.045926534 0.020525893 -0.041446704 -0.13649023
-0.17247692 -0.09919263 0.07373613 0.54194283 0.20679289 0.15695961 0.1622753 -0.1347798
0.03885567 -0.11277864 0.14015183 -0.06502748 0.039512143 0.50697356 0.052635007 0.046034634
-0.03229744 -0.07131647 0.0060444395 0.100981385 0.1426531 -0.13654596 0.005480252 0.049196992
0.021474771 -0.03202888 -0.14725265 -0.18460244 -0.195247 -0.2900685 0.024139136 0.024242599
0.10635246 0.008063677 -0.14366075 -0.05167182 0.11863341 0.06110009 -0.16851395 -0.38839868
0.13900797 0.20879005 -0.3143552 -0.045110308 0.21179758 0.16890466 -0.05086376 -0.09050545
0.19611989 0.024438584 -0.026890455 -0.040130842 -0.15001553 0.09563363 -0.15232623 0.044569064
0.083806865 -0.020714162 -0.038567096 -0.096052885 0.3007872 0.08891636 -0.027322372 0.053463586
0.21584831 0.054931894 -0.017038552 -0.25346595 0.14805414 -0.04969246 0.0770132 -0.11227539
-0.090618536 -0.06325808 0.15200135 -0.007948703 0.077768005 -0.07201941 0.07589032 -0.08243281
0.076008216 -0.09555441 -0.07392661 -0.13536352 -0.09319934 -0.00889247 -0.014577367 -0.22453853
0.084714174 -0.030176507 0.05939399 0.14196774 -0.0075633335 0.0072629657 0.008673461 -0.08583603
-0.24983963 -0.104756445 0.123625405 0.014399782 -0.20838624 -0.16809332 0.13193579 0.08292202
0.01860437 -0.07815864 -0.0028868308 -0.05504437 0.18658441 0.06430675 0.0146649415 0.047638763
0.18434674 -0.10656442 -0.048868928 -0.124986865 -0.16830818 0.034341566 0.20855732 -0.09609511
-0.14001964 -0.21490543 -0.22787979 -0.16210344 -0.12793906 0.16551177 -0.04442493 -0.14815642
0.1864757 0.06586045 0.04930603 -0.28530422 -0.14676556 -0.027357168 0.02375794 0.121477865
-0.14386314 -0.17504111 -0.16646132 0.07785462 0.11013157 0.09740534 -0.06355837 -0.0065082363
-0.08424996 -0.105933726 0.020606024 -0.20950976 -0.11951304 0.019770252 -0.18056272 -0.16625008
0.045484785 -0.04514426 -0.5185515 0.08167273 -0.061845414 0.23953648 -0.123484574 -0.016078003
-0.011241321 -0.114755124 0.058871593 0.15636289 -0.2056161 -0.1355832 0.27929974 0.36467168
-0.025936527 0.0062776804 0.07415493 -0.07752474 0.06537558 0.12833878 0.0035682623 0.05112177
0.039105937 0.03780877 -0.0025811605 0.060470242 -0.082558244 0.0011898812 -0.21843618 0.21564555
-0.15773176 -0.06427093 0.24040921 -0.2536173 0.3811242 0.008792692 -0.11796604 -0.23954567
-0.01872099 0.093867615 0.10333932 0.19447803 0.33320725 -0.107612856 0.056120045 -0.01820148
-0.05420129 -0.2092831 0.5390981 0.18579938 -0.2489271 0.023086553 0.27238506 0.15292299
0.016216066 0.11882767 0.060012605 -0.0919939 0.040633146 0.22097272 -0.04723599 0.009499055
0.13227549 0.043032765 -0.0073828567 -0.07087628 0.016804304 -0.011825243 -0.041293975 0.1282246
-0.022572307 -0.3559315 0.009905829 0.28735694 -0.07803482 -0.058649655 -0.028880307 0.043233205

fc2.bias f4 [64]
00000000: 5989 053e 2f10 8a3d 6d36 f13c e2b2 293d
00000010: 7624 263e 1cf3 08be b338 79bd d3d4 32bd
00000020: c074 2d3e f069 ab3e 45ba dcbd f722 683e
00000030: 322b 713e 2ee3 c8bd d33b c1bd dbaf c8bd
00000040: 93e8 2abb ab85 993b a328 cbbc aaf4 403d
00000050: d42f 8c3d d97a d53e 5df5 2fbe 06cc d9bc
00000060: f186 23be b86b f9bd 23e5 5b3d 761c 81bd
00000070: 31f4 983c f6d3 373e c479 443d cd5a 6dbd
00000080: 3827 4b3d e143 213e a80b 5f3d 7bf4 7a3b
00000090: 3d66 f1bd d701 dbbd f621 b53e bbc5 b6bc
000000a0: d422 f5bd 0fe6 cf3e cbda 303e 467f 00b9
000000b0: ce47 e0bc 29de 12be 8e92 503e 153b 8b3c
000000c0: 0539 d83d 7bb6 fbbd 6854 fabc 19b1 b53e
000000d0: d6d6 bfbd 8ebe 10be 24e4 073d 3308 983d
000000e0: 54f7 54be da96 41be 07bf 303d 2aba 89bd
000000f0: e531 82bd 2f78 843e 051a 933d 6ec3 56bd
0.13040675 0.06741368 0.029444898 0.04143036 0.16224846 -0.13373989 -0.06084509 -0.043659996
0.16939068 0.3347926 -0.107777156 0.22669588 0.23551634 -0.09808956 -0.09435239 -0.09799167
-0.0026078566 0.004685124 -0.02479965 0.04710833 0.0684506 0.41695288 -0.17183442 -0.026586544
-0.15969445 -0.12178749 0.05368532 -0.063042566 0.018671127 0.1795195 0.047967687 -0.057947922
0.04959795 0.1574855 0.054454476 0.0038292694 -0.117870785 -0.1069371 0.35377473 -0.022311082
-0.119695336 0.40605208 0.17270963 -0.00012254444 -0.02737799 -0.1434256 0.20368406 0.016995946
0.105577506 -0.12290665 -0.030557826 0.35486677 -0.093671486 -0.14135191 0.033176556 0.07423439
-0.20797473 -0.18905202 0.043150928 -0.06724961 -0.06357173 0.25872943 0.07182697 -0.05243247

fc3.weight f4 [4, 64]
00000000: b2e5 6e3e a777 713e ef71 f53d d09d 0bbb
00000010: c060 d13e 37aa 37be db1b 2fbe 1f29 38be
00000020: c532 033e 599d e43d 60a2 24be 2e67 1b3e
00000030: 93fc c93d 8795 163e 3050 1cbd 159c 623e
00000040: b6cd d4bc cedb 2b3e c081 363e 797a 3e3e
00000050: be57 4e3c 709a 043e 94c4 19be 0e52 03bc
00000060: c720 afbe d240 253d a0a3 87be 2f78 ce3c
00000070: d66b bfbb 2070 403e 3dd4 61be fa81 113e
00000080: c250 913e 4bb7 333e 9f60 aa3d 705f e3bd
00000090: befc 303e 89de e43d 1565 133e 442a c53e
000000a0: 73ba 053e ef9c 0f3e 33cf 6a3d 10e7 853e
000000b0: c28b f43e 2bcb 98bd 6f15 2b3e 1bd9 b43e
000000c0: c512 95bd 6865 ce3d cea6 263e 32be 7e3e
000000d0: cf7c 213e 7678 4ebe 4891 9f3d a28c 7b3c
000000e0: 69e5 7abe a4b2 76bc ffa9 e33e 1cde d4bd
000000f0: e930 b2bc bc06 5b3e 2a62 403e b33a 323e
00000100: e69a 8e3e a886 ad3d 0e28 b83d 5ccc 1c3e
00000110: 7eca cf3e d7d6 0bbe 7909 e7be fb33 50be
00000120: 4b05 f03c 6752 d83d 5c5e ecbd bef4 353e
00000130: cbe9 4bba 25b9 4b3d 8519 ef3b 0099 963e
00000140: f0d1 0fbf 7987 5c3e e81f 05be 1920 7c3e
00000150: 4723 d33d 6e40 353e c295 2cbe e53d 243e
00000160: 0081 82be e7f4 a3bc 9c5e 273e 0ec4 a23d
00000170: 7564 c23d 8240 0c3e 7dc1 a53d d07f 863d
00000180: fcfc 743e 3f32 803d 3797 bf3d b572 00bf
00000190: 4493 3b3d d1b3 03bf 73ec 513e 5f14 cf3e
000001a0: 0027 c73e e343 383e a94d 2c3d 3197 973e
000001b0: 38bf bb3e 4f94 da3c 5ed6 0d3e f639 783e
000001c0: 97e3 c1bd 39cb 353e b814 293e f7b9 3a3e
000001d0: 9c1d fd3e 43c4 8cbc e2d7 2b3e 932f c53d
000001e0: 619a 83bd e9b2 0ebe b3e2 bb3e 2f3a 11be
000001f0: e75d 83bd bd2a 183b 0fcd 4fbd 474e eb3d
00000200: 65b0 fa3c ddc4 e93d f134 b93e dc68 a43e
00000210: 6854 f73e f9ea 42bd 5f1d b73e f612 99bd
00000220: 500d ed3d 1dce f73d 2785 9fbe e8e8 1a3e
00000230: a941 4f3e 71d0 bdbe 665c 98bd f3f2 bd3e
00000240: e70c d23e 882a ab3e 03d1 eebe 8a9d 523d
00000250: 54bd 0b3d 8a90 433e 6f3d 32be 9fc9 be3d
00000260: 58d5 42bd 4f83 8ebe 95f2 4f3c 3f44 71be
00000270: 796f c03d 85a2 c93e e4a2 fd3c 9c2a 90bd
00000280: a6b0 0c3e 6c38 b73d fce8 963e 9b39 ec3d
00000290: b779 363e 3f1b 12be 6dbc 0b3e 3459 e7bd
000002a0: 2055 5d3e 411c 063e f063 773e 9bd0 82bd
000002b0: 7bf3 863e c461 abbd 1168 083e 76e1 703e
000002c0: df37 b53d 740d 82be b188 e63e bac6 853e
000002d0: c754 3c3c bbb5 a4bc f48d b63d 8692 4a3d
000002e0: 8584 b4be cf43 99bc e91b 8d3e 97e0 803d
000002f0: c207 90be 8c4e 0e3e bfb8 003d 0acc 743e
00000300: 36e4 6a3e 0347 d43d c2dd 9f3e 0561 c93d
00000310: 6b55 753e 8968 abbe 3719 a9be 0749 48bd
00000320: 7692 ee3d 7435 2c3e c71a 9a3d a6c7 983c
00000330: 82b5 db3d d8be 873d 00be 723d 9083 ecbd
00000340: 299b 703e b89a 8a3d 544d b9bd 5e37 863e
00000350: af73 813e 2306 393e 52af 65be e885 a03e
00000360: 14f0 a8bd ce8b dcbe 7d7e de3d 365b 0f3e
00000370: 013b f13e ec03 a33d 0d76 49be 39ee cd3d
00000380: 1c13 253d 635b a43d 9b0b 0bbe d89e 51be
00000390: f0fc aebe 9585 453d 6a4c 5e3e f104 0e3f
000003a0: e783 8fbe cb34 3a3e b6c8 323e fa08 afbb
000003b0: 4e53 fd3e 14ec ddbd 003e 123e 0213 3b3d
000003c0: 3298 283e 9ff2 34be 3f6d 9c3e 8f6a 683e
000003d0: f441 393e ffec 9abd d021 963e 91a6 973e
000003e0: 13d2 513c f99b bfbe 8302 2e3e 47bd 83be
000003f0: 9b3b 1abe af59 2c3d 9b2d dcbe a53d 993e
0.2332981 0.235808 0.11984622 -0.002130378 0.40894127 -0.17936026 -0.1710047 -0.17984436
0.12812336 0.11162824 -0.16077566 0.15176079 0.09862628 0.14705478 -0.03816241 0.22129853
-0.025976997 0.16783068 0.17822933 0.18601407 0.012594162 0.12949538 -0.15016395 -0.008015169
-0.34204695 0.04034502 -0.26492023 0.025203792 -0.0058417125 0.18792772 -0.22053619 0.14209738
0.28381926 0.1755039 0.0831921 -0.11102188 0.17283913 0.11175258 0.14394028 0.3850881
0.13059406 0.14024709 0.057326507 0.2615285 0.47762877 -0.07460626 0.16707395 0.35321888
-0.07278971 0.100779355 0.16274568 0.24877241 0.15770267 -0.2016314 0.07791382 0.015353354
-0.24501576 -0.01505724 0.44465634 -0.103939265 -0.021751838 0.21389288 0.18787447 0.17405204
0.27852553 0.08472949 0.08992015 0.15312332 0.40584177 -0.13656174 -0.45124415 -0.20332329
0.029299399 0.10562592 -0.11541435 0.17769143 -0.00077786733 0.049737114 0.0072967433 0.29413605
-0.56179714 0.21536054 -0.13000453 0.2462162 0.10309463 0.17700359 -0.16854003 0.16039236
-0.25489044 -0.02001424 0.16344684 0.07947551 0.09491817 0.13696483 0.080935456 0.06567347
0.23924631 0.06259584 0.09355014 -0.5017503 0.04579474 -0.51446253 0.20500354 0.4044523
0.38896942 0.17994647 0.04206625 0.29607537 0.36669326 0.026682047 0.13851306 0.2424086
-0.094672374 0.17753305 0.1651181 0.18235002 0.49436653 -0.017183429 0.16781572 0.09628215
-0.0642593 -0.13935436 0.36696395 -0.14182352 -0.06414395 0.0023218833 -0.05073267 0.114895396
0.03060169 0.11414502 0.36173204 0.3211125 0.48306584 -0.04758737 0.35764596 -0.0747432
0.11574805 0.1209986 -0.31156275 0.15127909 0.20239891 -0.3707309 -0.074394986 0.37099418
0.4102547 0.33430886 -0.46643838 0.051419772 0.034116104 0.19098106 -0.17406248 0.093158
-0.04756674 -0.27834556 0.012692113 -0.2356119 0.09396262 0.39381805 0.030961461 -0.07039377
0.13739261 0.089463085 0.29474628 0.11534425 0.17819868 -0.14268206 0.13646097 -0.11296311
0.21614504 0.13096716 0.24159217 -0.063874446 0.26357636 -0.08368257 0.13320948 0.23523507
0.08848547 -0.2540089 0.45026162 0.2612818 0.011494822 -0.020106187 0.08913794 0.049456142
-0.35257354 -0.018709091 0.27560356 0.06292837 -0.2813092 0.13897151 0.031426188 0.2390596
0.22938618 0.10365107 0.31223875 0.09832958 0.23958366 -0.33478191 -0.3302705 -0.04889777
0.11649029 0.16817266 0.075246386 0.018649887 0.10727979 0.066281974 0.05926323 -0.11548531
0.23496689 0.067677915 -0.09047952 0.26214117 0.25283572 0.18068747 -0.2243016 0.31352162
-0.08248916 -0.43075413 0.108639695 0.13999638 0.4711533 0.079597324 -0.19673939 0.10055203
0.040301427 0.08025243 -0.13578646 -0.2047075 -0.3417735 0.048223097 0.21708837 0.5547629
-0.2803032 0.18184201 0.17459378 -0.0053416463 0.4947762 -0.10836044 0.14281464 0.045672424
0.16464308 -0.17670678 0.30552098 0.22696899 0.18091565 -0.07564735 0.29322672 0.29619268
0.012806433 -0.37423685 0.16993146 -0.25730345 -0.150618 0.042077716 -0.43003544 0.29929844

fc3.bias f4 [4]
00000000: c1b6 5c3e 5c5f 753e 477e 173e f3aa fa3d
0.2155409 0.23962158 0.14794265 0.12239637
