checkpoints/VANILLA_DQN.pth (torch_old, 28502 bytes, 6 tensors)

fc1.weight f4 [64, 37]
000000 03 88 9e be d4 0d 69 3e 63 de 1a be 91 23 02 be
       -0.30963144 0.22759181 -0.15123896 -0.1270888
000010 41 de 1f be 2b 7c c3 bd ad 8f 94 bb 62 c7 e5 3d
       -0.15612127 -0.095451675 -0.004533729 0.1121967
000020 22 29 b0 3d 9a 31 82 3d 68 d7 1d 3d f7 dd 60 be
       0.086015955 0.06357117 0.038535506 -0.21959673
000030 70 6b 36 be 86 1a 4c be 2b bf 1e be a9 7f 81 be
       -0.17814422 -0.19931993 -0.15502612 -0.2529271
000040 49 c0 05 3e 9a 49 a1 3d b6 52 a3 bc 8e 72 c0 bd
       0.13061632 0.078753665 -0.0199369 -0.093968496
000050 91 09 82 3e 27 1b 96 bc eb 38 e7 bd 6e 42 49 be
       0.25397924 -0.018323494 -0.11290153 -0.19654247
000060 d3 b5 e4 be e3 04 42 be 0d 56 17 3e 57 67 7f bd
       -0.4466997 -0.18947177 0.1477892 -0.062354412
000070 12 13 b4 bd af 9d f2 bd a6 4d 00 3e c8 4f 7c bd
       -0.087927 -0.11846482 0.1252962 -0.061599523
000080 16 d2 c7 bd 54 6e 3d be 5d e8 f1 bd e8 e1 60 bd
       -0.097568676 -0.18499118 -0.11811898 -0.05490294
000090 b0 5f 50 bb fe 0a 94 3e 46 c5 f6 bc 85 d3 8e 3d
       -0.0031795315 0.28914636 -0.030123364 0.06973938
0000a0 b6 1f cf bd 72 42 be bd 22 a1 53 3c cd de c7 bd
       -0.1011347 -0.09290017 0.012916835 -0.09759293
0000b0 f0 4a 1f be 6b ad 3c 3d da 40 53 3e f9 af bd 3d
       -0.1555593 0.04606382 0.20630208 0.0926208
0000c0 35 48 8f 3c 1d a9 2b bd 52 58 b0 3d 6d 1b 41 3e
       0.017490486 -0.041909326 0.08610596 0.18858118
0000d0 3e 8b 32 3e c3 59 05 3c 9a c5 10 3d a8 0c c4 bd
       0.17435929 0.008139077 0.035344698 -0.095727265
0000e0 2a 13 f5 be 61 54 3d be f8 cb 1d bd ce 14 64 bd
       -0.47866184 -0.18489219 -0.038524598 -0.055683903
0000f0 19 c0 0b 3c 3e b3 3a 3e a4 00 8b bb 2e 61 3c 3c
       0.008529686 0.18232438 -0.0042420197 0.011497779
000100 33 5c a1 3d f3 95 9c bd c2 36 76 3c 4b 87 bb 3d
       0.07878914 -0.07645788 0.015027704 0.091566645
000110 68 07 ca 3d 13 85 e2 3d a8 36 2d be 8f 8b 43 be
       0.09864694 0.11060538 -0.16915381 -0.19096206
000120 e9 4f db bc f5 e0 95 3c 00 a5 d4 3c 10 0d 4f 3e
       -0.026771503 0.018295744 0.025957584 0.20219827
000130 35 5f 4a 3e 81 e0 ae bc e9 0e 65 bd 67 54 15 bf
       0.19762881 -0.021347286 -0.055922423 -0.5833191
000140 f8 87 ef 3d 7d 9b 9c 3e 3f d3 8a bd 9e d1 23 bf
       0.11695856 0.30587378 -0.06778573 -0.63991725
000150 3f c1 48 bc 25 91 1b 3d 90 95 48 3d 37 0a 1f 3b
       -0.012253105 0.037980217 0.04897076 0.0024267563
000160 88 19 65 3d 21 f5 0d be b5 27 14 3e b3 9e 36 3e
       0.05593255 -0.1386304 0.14468272 0.17833976
000170 1b d1 86 3d 1a 2a 2d bc 49 e1 47 bd 10 95 d5 bd
       0.065828525 -0.01056912 -0.048798833 -0.10428822
000180 f6 9b 69 3d 85 84 d1 3d c1 77 03 bd 91 77 81 be
       0.0570335 0.10230354 -0.032096628 -0.25286534
000190 08 94 31 3e eb df c3 3e bd c1 a7 be 83 02 e0 be
       0.17341626 0.38256773 -0.32764998 -0.43751916
0001a0 0d e2 5c be b4 80 51 bc d7 36 89 3d 14 f5 08 be
       -0.21570607 -0.012787033 0.06699913 -0.1337474
0001b0 0e 86 9e bd c8 14 f6 3b f6 34 eb bb 9b 87 f4 3d
       -0.07740413 0.0075098015 -0.0071779443 0.11939927
0001c0 44 e5 8f be 02 d8 27 3d 31 1d 7e be 19 fc f6 be
       -0.28104603 0.040977485 -0.24815823 -0.4823921
0001d0 b3 60 e5 bd b9 bc 76 bd f4 c3 93 3d 0c 93 39 be
       -0.112000845 -0.060238574 0.072151095 -0.181225
0001e0 4b 03 32 bd fe 21 4f be 97 92 86 be 71 5f 1a 3e
       -0.04346017 -0.2022781 -0.26283714 0.1507547
0001f0 ed 84 3d be 67 d7 b0 bd 94 d5 b5 3b 24 a2 72 be
       -0.18507738 -0.08634835 0.005549142 -0.23694664
000200 87 f3 8f be bd b7 92 bd 1b dd d3 bd 50 9d 64 bc
       -0.28115484 -0.071639515 -0.10344907 -0.013953522
000210 83 6a 1e bf e2 46 9b bc 95 48 dd 3d 61 63 00 3e
       -0.61881274 -0.018954698 0.108048595 0.1253791
000220 95 c3 56 3d 1e 8e 81 bc 36 45 cd bd c5 da 5b be
       0.052432615 -0.015814837 -0.100229666 -0.21470173
000230 36 7f f7 3c d6 34 ed 3d c1 c9 1d be 29 6d 1b 3d
       0.030212026 0.11582343 -0.15408994 0.0379459
000240 59 5a 89 be 89 46 01 be bd c9 56 3d d8 0d e4 bd
       -0.26826742 -0.12624563 0.052438486 -0.11135453
000250 4c 94 11 be 34 54 13 bd 3f 10 ce bd bc 3d 5d be
       -0.14216727 -0.035968974 -0.100616924 -0.21605581
000260 6a 74 8a be 3f d7 a3 3e db a6 bf be 0a b0 e9 be
       -0.27041942 0.32000157 -0.37431988 -0.4564212
000270 47 25 86 be 50 6e b1 bf d4 74 f6 bd 38 94 b1 3a
       -0.26200315 -1.386179 -0.12034002 0.0013548201
000280 b3 26 17 bc 29 9c eb bc 09 bd 09 be d2 37 fb 3c
       -0.009225535 -0.028760986 -0.13451017 0.030666266
000290 e3 be 58 bd 1e 76 8d bc d0 ce 35 be ee 53 52 bd
       -0.05291642 -0.017268237 -0.17754674 -0.051349573
0002a0 e4 ff 6a be 99 f2 c2 3c f9 10 aa 3d 37 19 9a 3d
       -0.22949177 0.02379732 0.083040185 0.075243406
0002b0 d2 e1 71 3e 0c 96 92 bd a5 58 14 be b4 59 23 3e
       0.236213 -0.071575254 -0.1448694 0.15952188
0002c0 19 6e 70 3d 25 98 22 3e 60 ee 16 3e ff bd 7e bd
       0.058698747 0.15878351 0.1473937 -0.062192913
0002d0 0f 55 44 bd e3 1c 07 3e e2 15 1c 3d 08 df 35 bd
       -0.04793268 0.13194613 0.038106807 -0.044402152
0002e0 e6 58 8c 3b 46 ad cd 3c c4 3a 50 3b 45 a9 59 3d
       0.0042830585 0.025107037 0.0031773308 0.053139944
0002f0 59 52 00 bd d5 39 09 bd 6f 02 b1 3e 53 70 21 3e
       -0.031328533 -0.03350242 0.3457217 0.15765505
000300 91 7d a7 be a4 73 ec be 2b 34 9e bf 62 8f e3 bc
       -0.32712987 -0.46181977 -1.235967 -0.027778331
000310 fa 41 b9 bd 31 55 24 3d 39 1f 64 bc c8 db 8f ba
       -0.09045787 0.040120307 -0.01392346 -0.0010975534
000320 69 49 fe bc 1a 9c ee 3d a5 5b c4 bb 45 c5 a9 3d
       -0.031040864 0.11650868 -0.00599237 0.08289579
000330 34 b6 89 bc c3 af 11 3e b7 f2 80 3d 4d e8 eb 3d
       -0.016810514 0.14227204 0.06296294 0.11518917
000340 9b 80 39 3e c6 28 a3 3d 5b de a0 3a 68 21 91 3d
       0.18115465 0.07966761 0.0012273298 0.0708645
000350 92 93 12 3d 4d ec 0f 3c 9d ff b5 3d 19 7f c5 3d
       0.035785265 0.008784366 0.08886645 0.096433826
000360 61 41 83 bd f4 cd 13 bb e1 a4 45 bc e1 13 62 be
       -0.064089544 -0.0022553178 -0.012063236 -0.22077896
000370 9a 65 ca bb 2a 48 95 bb 99 71 40 3e 6e 8c 33 be
       -0.0061766626 -0.004555722 0.18793334 -0.17534038
000380 a7 e3 de bc 16 3c 27 be 10 76 bc be 0a 2e ba bd
       -0.027208162 -0.16331515 -0.36808825 -0.090908125
000390 84 63 ec 3d 2a 95 d1 3c 1b db 9d bd eb 7b 1f 3d
       0.115424186 0.025583822 -0.07707807 0.038936537
0003a0 94 ae cc 3b 6f 47 40 3e d9 1d e8 3d c8 6f 06 bd
       0.0062463973 0.1877725 0.11333818 -0.032821447
0003b0 74 de 89 3d aa 97 9c 3d f9 66 00 be 5f 6e 46 be
       0.06731883 0.07646115 -0.12539281 -0.1937804
0003c0 d8 23 ca 3d 35 7a a9 bd 08 25 cb bd 79 c7 72 3c
       0.09870118 -0.08275262 -0.099191725 0.014818066
0003d0 7b 32 32 3e 2d 7d df bd b1 c1 7f bc 1f 1e 9e be
       0.1740207 -0.10912547 -0.0156101445 -0.30882356
0003e0 91 32 27 3e 30 f7 92 bd 8f fd 35 3d 7f 94 82 3e
       0.16327883 -0.071760535 0.044431265 0.2550392
0003f0 e2 48 89 3e 8b 7a 66 be c6 2e 04 be fb 07 40 bd
       0.26813418 -0.22507684 -0.12908468 -0.04688261

fc1.bias f4 [64]
000000 85 e5 99 3d 74 38 bc bc 78 ad db bc bc 4d 19 be
       0.075144805 -0.022976138 -0.026816115 -0.1497106
000010 e2 9d 2a 3e c2 93 bf 3c 12 85 43 bd ce ec 5b 3d
       0.1666179 0.023385886 -0.047734328 0.05369263
000020 71 7f cf 3d e9 17 47 be 4d 38 1b 3e 06 7e c0 3d
       0.101317294 -0.19442715 0.15158196 0.09399037
000030 49 74 b0 3d 9f 9f 20 3e 41 b7 e7 bd 04 d8 c6 bd
       0.0861593 0.1568589 -0.1131425 -0.097091705
000040 42 31 e1 3d 3d 0c b8 bd e1 53 3d bd a8 83 7e be
       0.10995723 -0.08986709 -0.04622257 -0.2485491
000050 7b 02 ac bc 5e 47 3b bd 1a d0 35 ba 61 a3 b6 bd
       -0.020997277 -0.045722358 -0.00069356116 -0.08917881
000060 e3 8c c0 bd dc 24 35 3e 6c 0c 00 bd 1c a3 a5 bd
       -0.09401872 0.17689842 -0.031261846 -0.08087751
000070 a3 10 e7 3d a1 14 bf 3d 08 ac 59 bd 72 56 4c be
       0.1128247 0.093301065 -0.053142577 -0.19954851
000080 e4 7c 22 3e d4 c7 71 bd e9 14 f7 bd 5e 63 52 3c
       0.15867954 -0.05902846 -0.12064535 0.012841074
000090 59 83 1c bc ff 39 eb 3b b2 02 f9 bd 82 92 1b bd
       -0.0095528 0.0071785445 -0.12158717 -0.037981518
0000a0 55 20 4c be c2 73 ba bd da 0b df bd f3 55 89 3e
       -0.19934209 -0.0910411 -0.108909324 0.26823387
0000b0 1a 38 8f 3d 08 a7 dd bd 1a 64 35 3c 82 1c a0 bd
       0.069931224 -0.10822874 0.011071229 -0.078179374
0000c0 da 0e d0 bd 5d eb 88 3d a9 aa fc bd e1 e1 91 3d
       -0.10159083 0.06685517 -0.12337238 0.07123161
0000d0 73 d7 ae bb 2d 99 46 3d be b4 c2 bd 64 e0 14 bd
       -0.005335742 0.048485924 -0.0950713 -0.036346808
0000e0 b4 ba d1 3d 24 8e 5a bd c8 1d 36 be 2c fa e7 bd
       0.10240689 -0.053358212 -0.17784798 -0.113270134
0000f0 74 ab 47 bc cd 97 13 bc 88 7a 58 3d 25 3b b0 3d
       -0.012186874 -0.00900836 0.05285123 0.08605031

fc2.weight f4 [64, 64]
000000 61 dc bd bd 5a fc fb 3c 37 74 ae b9 1f 61 cb bd
       -0.092705496 0.030759979 -0.00033274453 -0.09930634
000010 5a d3 16 be 0f 07 21 be 5b b7 12 3d 35 bf c3 3b
       -0.14729062 -0.15725349 0.035819393 0.0059737214
000020 be 9d 84 be 8d 79 90 bd da 8b 4c 3d 6f 85 8a 3c
       -0.25901598 -0.07054434 0.04993806 0.01690933
000030 c6 92 ab bc a0 d8 56 3d d3 67 32 bd cb 95 18 bd
       -0.02094401 0.052452683 -0.043556046 -0.03725223
000040 c5 ff 76 b9 07 4c c3 3d 0c dc 8b 3e c1 85 23 be
       -0.0002355567 0.095359854 0.2731632 -0.15968992
000050 92 7f 62 bd 47 8a 33 3c f0 d0 54 bd 3b f0 15 be
       -0.05529744 0.010958261 -0.05195707 -0.14642422
000060 32 d3 39 be 3c cf e0 bd aa 93 82 3d 53 35 08 3f
       -0.18146971 -0.10977027 0.06375821 0.53206366
000070 62 24 49 3e d9 cc 16 3e 19 0b 1b 3e 65 b8 14 be
       0.19642785 0.1472658 0.15140952 -0.14523466
000080 b2 22 e3 3c 0c 00 fc bd cb af 03 3e 02 76 9b bd
       0.027726505 -0.123046964 0.12860028 -0.075908676
000090 2c 59 ed 3c a7 9f fe 3e f6 2e 31 3d a9 66 14 3d
       0.028973185 0.4973118 0.043257676 0.036230717
0000a0 f5 0e 2f bd 5f 0e 92 bd 6f 10 c6 3b ea 73 b8 3d
       -0.042738874 -0.07131647 0.0060444395 0.09006484
0000b0 9e bc 07 3e 88 df 16 be ce 19 ac bb 2f c7 1d 3d
       0.13255545 -0.14733708 -0.0052520996 0.038520034
0000c0 7f 1c 3c 3c 3c 77 30 bd 4b 2e 21 be 90 2e 48 be
       0.011481403 -0.04308246 -0.15740316 -0.19549012
0000d0 42 c6 53 be 85 ac 99 be 0d bd 56 3c cf 77 60 3c
       -0.20681098 -0.30014434 0.013106597 0.01370044
0000e0 e9 94 c5 3d 13 e5 cc ba 0e 51 1e be 3c 4f 65 bd
       0.09647543 -0.0015632234 -0.15460607 -0.055983767
0000f0 f9 b8 dc 3d 72 63 4e 3d ec 8e 2c be 25 3c cc be
       0.10777468 0.050387807 -0.16851395 -0.39889637
000100 77 ec 05 3e 93 9f 4b 3e c8 4f a6 be 9b 45 40 bd
       0.13078485 0.19885091 -0.32482743 -0.04694138
000110 79 3c 4f 3e 16 6f 23 3e 73 00 77 bd 55 45 ce bd
       0.20237912 0.15960345 -0.060303163 -0.10071818
000120 9f 11 3e 3e f1 5f 62 3c 89 66 17 bd 67 cc 4b bd
       0.1856141 0.0138168195 -0.03696302 -0.04975548
000130 08 86 23 be cb 7a af 3d 96 c8 23 be 6e 39 0f 3d
       -0.15969098 0.08568343 -0.15994486 0.03496688
000140 a9 b2 96 3d bf b0 a9 bc 35 a6 44 bd 25 45 cd bd
       0.073582955 -0.020714162 -0.04801007 -0.10022954
000150 2a 29 95 3e a0 b4 a3 3d 6c db 1a bd a2 fc 5a 3d
       0.29132968 0.07993436 -0.037806913 0.053463586
000160 f5 24 53 3e 5c 46 37 3d 85 09 d3 bc 16 46 83 be
       0.20619567 0.044744834 -0.025761375 -0.2563941
000170 78 82 0d 3e 11 2e 71 bd 39 55 90 3d 71 71 f2 bd
       0.13819301 -0.058881823 0.07047505 -0.118380435
000180 e0 04 cf bd 74 8d 81 bd c5 b1 12 3e 86 7c 8b bc
       -0.10108352 -0.06325808 0.14325626 -0.01702715
000190 c6 bf 8a 3d a2 90 a5 bd 83 6e 87 3d fb fc bb bd
       0.06774859 -0.08084227 0.06612875 -0.091791116
0001a0 e6 c2 86 3d 08 b2 c3 bd d6 66 97 bd 8b 1d 15 be
       0.06580143 -0.09555441 -0.07392661 -0.14562051
0001b0 99 5c d3 bd 55 de 81 bc a5 b3 c8 bc 6e ed 65 be
       -0.10320396 -0.015853086 -0.024499724 -0.22453853
0001c0 00 c1 99 3d 31 33 27 bd 04 53 4c 3d 14 5b 06 3e
       0.07507515 -0.040820304 0.049883857 0.13120681
0001d0 2c 7b 62 bc e7 15 3d bb d7 42 a7 ba 82 34 c4 bd
       -0.013823312 -0.0028852166 -0.0012761009 -0.095803276
0001e0 62 1e 84 be c8 df ea bd ae 24 e7 3d 44 1c 38 3c
       -0.2580443 -0.11468464 0.11286293 0.011237208
0001f0 5e a3 5f be 00 ad 34 be 2d 1a 07 3e 48 81 95 3d
       -0.21839663 -0.1764412 0.13193579 0.07300049
000200 31 68 98 3c d5 f0 b2 bd fc 30 3d bb 35 76 61 bd
       0.01860437 -0.08737341 -0.0028868308 -0.05504437
000210 4e d8 35 3e 07 65 61 3d a1 60 c1 3b 9f 28 1c 3d
       0.17758295 0.055027988 0.0059014116 0.038124677
000220 f4 11 34 3e 55 b0 e2 bd 6f 84 6e bd 1d f9 ff bd
       0.17584974 -0.11068789 -0.058231767 -0.124986865
000230 fb 58 2c be c2 0b ce 3c 0d 90 55 3e 83 cd c4 bd
       -0.16830818 0.025152091 0.20855732 -0.09609511
000240 b6 eb 18 be 2b 10 5c be e2 7f 72 be 60 ab 26 be
       -0.14933667 -0.21490543 -0.23681596 -0.16276312
000250 58 87 0c be eb 7b 29 3e ea f6 35 bd 51 b6 17 be
       -0.13723505 0.16551177 -0.04442493 -0.14815642
000260 65 64 35 3e d8 e1 86 3d 1f f5 49 3d 65 13 92 be
       0.17714079 0.06586045 0.04930603 -0.28530422
000270 6b cc 1f be 24 1c e0 bc 03 a0 c2 3c 63 c9 f8 3d
       -0.15605323 -0.027357168 0.02375794 0.121477865
000280 dc 50 13 be fa 3d 33 be d6 74 2a be 91 6d 8e 3d
       -0.14386314 -0.17504111 -0.16646132 0.06954492
000290 3f 7b ce 3d 73 7c c7 3d e4 2a 82 bd 1c 84 81 bc
       0.10082101 0.09740534 -0.06355837 -0.015810065
0002a0 3e 8b ac bd c8 f3 d8 bd f7 cd a8 3c bf 0e 60 be
       -0.08424996 -0.105933726 0.020606024 -0.21880625
0002b0 96 bd 03 be 39 f5 a1 3c a2 88 42 be 76 3d 2a be
       -0.1286529 0.019770252 -0.18997434 -0.16625008
0002c0 f5 f4 13 3d 30 e9 38 bd cb bf 04 bf da 15 93 3d
       0.03612228 -0.04514426 -0.5185515 0.07181902
0002d0 9e 51 7d bd 72 e1 6b 3e ae 08 08 be f3 8f d1 bc
       -0.061845414 0.2303522 -0.13284561 -0.025581336
0002e0 85 2d 38 bc bc 04 eb bd 51 7d 6b 3d 98 1d 20 3e
       -0.011241321 -0.114755124 0.057492558 0.15636289
0002f0 07 8d 52 be 53 d6 0a be 60 00 8f 3e 36 f3 b5 3e
       -0.2056161 -0.1355832 0.27929974 0.35537118
000300 a1 5b 0a bd 93 e4 5e bb 63 64 83 3d 3c 58 9d bd
       -0.03377879 -0.0034010753 0.064156316 -0.07682845
000310 d7 9d 67 3d a8 f0 f3 3d 30 fc 97 bb d7 c7 25 3d
       0.056547012 0.11911136 -0.0046382174 0.040473785
000320 e3 39 02 3d a8 a1 de 3c 53 f8 4c bc f1 0e 53 3d
       0.031793486 0.027176693 -0.012510377 0.05152792
000330 7d 68 be bd eb dd 0c bc 14 85 67 be 0e 31 52 3e
       -0.09297273 -0.008597831 -0.22609359 0.20526525
000340 ad 68 2c be 7a a0 83 bd 78 d1 6b 3e aa e3 7f be
       -0.16836806 -0.06427093 0.23029125 -0.2498919
000350 92 1f be 3e 58 78 95 3c 3f 12 04 be 76 4b 75 be
       0.3713346 0.018245861 -0.12897585 -0.23954567
000360 72 0a e3 bc d7 df ac 3d c7 e0 c4 3d 39 d3 3f 3e
       -0.027714942 0.084411316 0.096131854 0.18732919
000370 5d 57 a5 3e b5 63 eb bd 09 cf 3a 3d f8 6a 39 bc
       0.32293215 -0.11493627 0.0456076 -0.011317007
000380 a2 7b 85 bd 4f 4e 56 be 02 51 07 3f 67 3f 35 3e
       -0.06517722 -0.2092831 0.52857983 0.17699967
000390 b1 7f 84 be 8a a9 92 3c 9f 3d 86 3e de a3 13 3e
       -0.2587867 0.017903108 0.26218888 0.14417979
0003a0 99 36 3c 3c ec 5b f3 3d c7 cf 75 3d d1 2b d1 bd
       0.0114876265 0.11882767 0.060012605 -0.102134354
0003b0 09 f7 ff 3c 2f d9 59 3e e3 8f 6b bd 28 64 0b 3b
       0.031245725 0.21274255 -0.057510268 0.0021269415
0003c0 85 84 fa 3d 86 4c 05 3d 49 2b 87 bc 0a b4 a7 bd
       0.12232307 0.03254368 -0.016500132 -0.081886366
0003d0 77 90 a7 3c 8e 13 a3 bc 10 c8 53 bd dd e7 f0 3d
       0.020454628 -0.019906785 -0.051704466 0.117629744
0003e0 25 86 f1 bc b3 67 ba be fc 1e fd b9 00 9a 91 3e
       -0.02948291 -0.3640724 -0.00048279006 0.28437805
0003f0 4f bf b4 bd 21 47 89 bd 65 96 ec bc ff e8 0b 3d
       -0.08825552 -0.0670302 -0.028880307 0.03415775

fc2.bias f4 [64]
000000 7e 9e f4 3d 59 1e 6a 3d 92 f3 a3 3c a6 03 ff 3c
       0.119442925 0.057157848 0.020013604 0.03112967
000010 5e a4 1d 3e 4f ba fa bd b3 38 79 bd d3 d4 32 bd
       0.15394732 -0.12242567 -0.06084509 -0.043659996
000020 0f 33 23 3e dd dd a5 3e 88 a4 c8 bd 4e a5 5d 3e
       0.15937446 0.3239583 -0.09797007 0.2164509
000030 db 49 66 3e 33 13 ce bd d3 3b c1 bd 45 57 ba bd
       0.22489111 -0.10062256 -0.09435239 -0.090986766
000040 93 e8 2a bb 31 eb 9c bb 27 15 76 bc 75 1b 19 3d
       -0.0026078566 -0.004788779 -0.015019692 0.0373797
000050 9d 6c 70 3d dc ef cf 3e ac f0 23 be f8 65 11 bd
       0.05869733 0.40612686 -0.16009778 -0.035497636
000060 69 1a 19 be b8 6b f9 bd ab 69 45 3d 99 e5 92 bd
       -0.14951481 -0.12178749 0.048196476 -0.071726985
000070 d0 a6 11 3c f7 d3 2c 3e 3d fe 73 3d c2 13 8c bd
       0.008889869 0.16877733 0.059568632 -0.06839706
000080 98 a0 1f 3d 5a 47 16 3e 65 82 36 3d f4 51 75 3c
       0.038971514 0.14675656 0.044557948 0.014973152
000090 44 78 01 be d7 01 db bd 33 8f af 3e e9 4c 01 bd
       -0.12643534 -0.1069371 0.3428894 -0.031567488
0000a0 b4 4d 03 be e3 55 ca 3e 53 43 26 3e 86 2d 25 bc
       -0.1282261 0.3951865 0.1623662 -0.010081654
0000b0 81 e2 18 bd 51 2b 07 be 76 7b 45 3e 19 04 e1 3b
       -0.037325386 -0.13200118 0.19285378 0.0068669436
0000c0 11 b0 db 3d 88 2f eb bd a6 63 1e bd 9b 20 b0 3e
       0.107269414 -0.11483675 -0.03866925 0.34399876
0000d0 8e 3c d2 bd 0d 80 05 be fb 57 c0 3c 83 2e 82 3d
       -0.10265456 -0.13037129 0.023479452 0.06356528
0000e0 13 6d 49 be a6 31 37 be 1a 75 08 3d dd 22 63 bd
       -0.19670515 -0.17890033 0.0333148 -0.05545317
0000f0 8b 23 5c bd 8a 06 7e 3e 05 1a 93 3d ac ad 7f bd
       -0.053744834 0.24807182 0.07182697 -0.062421486

fc3.weight f4 [4, 64]
000000 66 8f 64 3e cc 29 68 3e c7 d0 e6 3d 08 a4 41 bc
       0.22320327 0.22672194 0.1127029 -0.011818893
000010 c2 f3 cc 3e 2a 03 43 be db 1b 2f be 1f 29 38 be
       0.40029722 -0.19044176 -0.1710047 -0.17984436
000020 1f 4c f2 3d 2b f2 ce 3d fb 36 2e be 97 5c 11 3e
       0.11830925 0.101047836 -0.17013161 0.14195476
000030 92 63 b4 3d 87 95 16 3e 30 50 1c bd 3c cf 5f 3e
       0.08808054 0.14705478 -0.03816241 0.21856397
000040 b6 cd d4 bc 80 90 21 3e 30 d5 2b 3e bc 7a 34 3e
       -0.025976997 0.15777779 0.16780543 0.17624944
000050 12 5d 83 3b 2c a7 f3 3d 14 ea 25 be b3 03 85 bc
       0.0040088976 0.1189712 -0.16202575 -0.016237115
000060 72 3c b4 be d2 40 25 3d 3a 76 8c be 7b a7 b4 3c
       -0.35202366 0.04034502 -0.2743395 0.022052517
000070 d1 f4 c7 bb f4 37 35 3e 64 38 6d be 80 63 07 3e
       -0.0061021824 0.17697126 -0.23166043 0.1322155
000080 ec 2c 8c 3e c4 2e 29 3e 9e 53 93 3d 91 e4 f5 bd
       0.27378023 0.16521746 0.07193683 -0.12006486
000090 01 8e 29 3e 89 de e4 3d 3f 8c 08 3e fe 80 c0 3e
       0.16558076 0.11175258 0.1333475 0.37598413
0000a0 98 6e fe 3d 7b db 04 3e 5d 28 40 3d c3 42 81 3e
       0.12423438 0.1297435 0.046913493 0.25246248
0000b0 ef a9 ef 3e 06 11 b0 bd 28 4d 20 3e 48 36 b0 3e
       0.46809337 -0.08596997 0.15654433 0.34416413
0000c0 ae 39 ab bd ae 31 c4 3d 91 f5 1f 3e e9 d0 73 3e
       -0.08360611 0.09579788 0.1562102 0.23810162
0000d0 9f 32 1a 3e e9 9a 58 be bd 87 8c 3d 1d 97 bb 3b
       0.15058373 -0.21152844 0.068618275 0.005724801
0000e0 62 a2 82 be f7 78 cf bc bc db de 3e 44 13 ed bd
       -0.25514513 -0.025326235 0.4352702 -0.1157594
0000f0 c5 5b 04 bd 23 81 50 3e 2a 62 40 3e 97 f0 27 3e
       -0.03231408 0.20361762 0.18787447 0.16400371
000100 24 60 89 3e 69 c1 9a 3d d9 a2 aa 3d ea 76 12 3e
       0.26831162 0.07556421 0.08331842 0.14303175
000110 1b 6d cc 3e fa 84 17 be 79 09 e7 be fb 33 50 be
       0.3992699 -0.1479682 -0.45124415 -0.20332329
000120 f9 85 9c 3c e3 6a c2 3d 57 56 ff bd 24 df 2b 3e
       0.019106852 0.09493043 -0.1246764 0.1678434
000130 68 b9 3b bc 25 b9 4b 3d 85 19 ef 3b 00 99 96 3e
       -0.0114577785 0.049737114 0.0072967433 0.29413605
000140 f0 d1 0f bf bf c0 53 3e 3a 61 0e be d8 e7 72 3e
       -0.56179714 0.20678996 -0.13904276 0.23721254
000150 f4 79 c0 3d 89 59 2a 3e 8e 98 38 be 31 d3 1d 3e
       0.09398261 0.16635717 -0.18026945 0.15412594
000160 cb 70 87 be e7 f4 a3 bc 5c b1 1d 3e 0e c4 a2 3d
       -0.26453242 -0.02001424 0.15399688 0.07947551
000170 86 b6 b7 3d 7b d4 00 3e 49 31 8e 3d d4 1e 66 3d
       0.089703605 0.12581055 0.06942994 0.056181744
000180 61 d3 6a 3e 43 3d 55 3d 5c b1 a9 3d 77 f9 02 bf
       0.22932197 0.052060377 0.08285782 -0.51161903
000190 e8 46 1b 3d d1 b3 03 bf a9 ee 46 3e de 67 ca 3e
       0.03790942 -0.51446253 0.19426979 0.3953237
0001a0 99 c8 c1 3e ad 5f 2d 3e 6e 0e 01 3d a1 17 93 3e
       0.37848356 0.16931029 0.0315079 0.28728965
0001b0 59 01 b7 3e df 0c 87 3c c6 ed 02 3e 78 40 6f 3e
       0.35743216 0.01648563 0.12786016 0.23364437
0001c0 a8 01 d8 bd c6 c3 34 3e 93 cf 21 3e 23 cd 2f 3e
       -0.10547191 0.17652807 0.1580184 0.17168097
0001d0 cf ef f8 3e 62 87 df bc 1e 0e 23 3e 68 0a b1 3d
       0.4862046 -0.027286235 0.15923354 0.08644563
0001e0 1b c4 9a bd 67 15 18 be a2 37 b7 3e d4 25 1d be
       -0.075569354 -0.14851914 0.35784632 -0.15346462
0001f0 e7 5d 83 bd be 02 05 bc 0f cd 4f bd 75 5a da 3d
       -0.06414395 -0.00811833 -0.05073267 0.106617846
000200 d9 e8 ab 3c fb be d5 3d e3 1e b5 3e 4e 80 9f 3e
       0.020985054 0.10436817 0.35375127 0.31152576
000210 3c e3 f2 3e da e9 6e bd 5f 1d b7 3e f6 12 99 bd
       0.4743899 -0.058328487 0.35764596 -0.0747432
000220 3a 28 d9 3d 26 04 e3 3d e7 87 a4 be 68 dd 10 3e
       0.10603376 0.110847756 -0.32134935 0.1414696
000230 15 de 44 3e 71 d0 bd be 66 5c 98 bd f3 f2 bd 3e
       0.19225343 -0.3707309 -0.074394986 0.37099418
000240 e7 0c d2 3e 1b b4 a6 3e 5b 68 f4 be 97 29 2c 3d
       0.4102547 0.32559285 -0.47735867 0.04203185
000250 be 2a c8 3c ec 27 39 3e c9 a2 3d be 39 5e ac 3d
       0.024434444 0.18081635 -0.18519129 0.08416409
000260 f2 c2 6a bd 4f 83 8e be fc f6 57 3b 73 e8 72 be
       -0.05731482 -0.27834556 0.003295361 -0.23721485
000270 03 80 ae 3d 07 51 c4 3e 2d 52 aa 3c 05 99 a3 bd
       0.0852051 0.3834307 0.020791138 -0.079881705
000280 b8 ad 02 3e b3 07 a3 3d 4a 2c 92 3e c9 c2 de 3d
       0.12761581 0.07960453 0.28549415 0.10876996
000290 d0 bd 2f 3e 3f 1b 12 be 73 50 01 3e 37 c6 f9 bd
       0.17162251 -0.14268206 0.12628345 -0.121960096
0002a0 44 72 57 3e 39 73 f7 3d 21 a6 6d 3e 9c 2a 96 bd
       0.21039683 0.12082524 0.23207904 -0.07332346
0002b0 d5 2c 82 3e b1 a4 c2 bd a4 1e fc 3d fd 2d 68 3e
       0.2542483 -0.09504069 0.12310532 0.22673793
0002c0 f0 34 9f 3d 6f 12 87 be 02 f6 e2 3e 44 99 80 3e
       0.07773769 -0.2638125 0.44328314 0.25116932
0002d0 37 c1 b5 3b 3f ec f6 bc 66 12 a4 3d 37 8a 24 3d
       0.0055467146 -0.030141948 0.08011322 0.040170874
0002e0 7c 49 ba be 2a 8e e7 bc 90 5f 88 3e 13 57 55 3d
       -0.3638419 -0.028266031 0.26635408 0.052084994
0002f0 b3 3f 95 be 74 24 04 3e bf b8 00 3d 21 43 6b 3e
       -0.2915016 0.12904531 0.031426188 0.22974826
000300 a8 4d 60 3e b2 d6 c1 3d c2 dd 9f 3e c7 60 b4 3d
       0.21904624 0.09464778 0.31223875 0.08807521
000310 f5 43 6e 3e 9a 47 b1 be 37 19 a9 be 07 49 48 bd
       0.23268111 -0.3462494 -0.3302705 -0.04889777
000320 45 54 db 3d 7f f9 20 3e c7 1a 9a 3d 1c f3 33 3c
       0.107094325 0.15720175 0.075246386 0.010983255
000330 da 45 c5 3d 8d 89 82 3d 00 be 72 3d c8 c0 fe bd
       0.09632464 0.06373892 0.05926323 -0.12439114
000340 29 9b 70 3e 7d 38 6f 3d 0a 38 cd bd 25 10 82 3e
       0.23496689 0.05840348 -0.10020454 0.25402942
000350 c7 c4 79 3e 2f e5 2d 3e 25 69 71 be e8 85 a0 3e
       0.24391471 0.16981958 -0.23575266 0.31352162
000360 00 c4 bd bd ce 8b dc be 13 0d cb 3d a5 64 07 3e
       -0.092659 -0.43075413 0.09914603 0.13221987
000370 01 3b f1 3e ad 17 8b 3d 48 fd 54 be e9 c7 b9 3d
       0.4711533 0.06791625 -0.20799744 0.09071333
000380 a2 9c ef 3c a1 67 8f 3d 03 51 16 be c9 bc 5c be
       0.029249493 0.070021875 -0.14679341 -0.21556391
000390 f0 fc ae be 95 85 45 3d 3c 1e 53 3e b9 df 0b 3f
       -0.3417735 0.048223097 0.20617002 0.5463825
0003a0 b1 39 94 be b6 15 2f 3e 49 3d 28 3e 3c 5d 15 bc
       -0.28950265 0.17098126 0.16429628 -0.009116467
0003b0 ff 6e f8 3e 3f ae f4 bd fb 0f 07 3e 97 08 14 3d
       0.48522183 -0.11947297 0.1318969 0.036141004
0003c0 b4 3d 1d 3e 9f f2 34 be 14 96 98 3e 8d 44 5d 3e
       0.15355569 -0.17670678 0.29802 0.21608181
0003d0 3a 28 31 3e f0 3c 9f bd 7a ca 91 3e 02 b8 92 3e
       0.17300501 -0.07775295 0.2847479 0.28656012
0003e0 f3 bc 8f 3a 90 6e c4 be 01 55 24 3e a9 83 89 be
       0.0010966345 -0.38365602 0.16048051 -0.2685826
0003f0 9b 3b 1a be 5a cd 00 3d 9b 2d dc be 8e cf 94 3e
       -0.150618 0.03144584 -0.43003544 0.29064602

fc3.bias f4 [4]
000000 0c 9e 51 3e 3c 24 6a 3e fd cc 0c 3e ba d4 e3 3d
       0.20470446 0.22865385 0.13750072 0.11124559
